…
I0220 21:12:05.215411   123 net.cpp:323] The NetState phase (0) differed from the phase (1) specified by a rule in layer val-data
I0220 21:12:05.215433   123 net.cpp:323] The NetState phase (0) differed from the phase (1) specified by a rule in layer accuracy
I0220 21:12:05.215595   123 net.cpp:52] Initializing net from parameters:
state {
phase: TRAIN
}
layer {
name: "train-data"
type: "Data"
top: "data"
top: "label"
include {
phase: TRAIN
}
transform_param {
mirror: true
crop_size: 227
mean_file: "/opt/DIGITS/digits/jobs/20190220-211045-8475/mean.binaryproto"
}
data_param {
source: "/opt/DIGITS/digits/jobs/20190220-211045-8475/train_db"
batch_size: 128
backend: LMDB
}
}
layer {
name: "conv1"
type: "Convolution"
bottom: "data"
top: "conv1"
param {
lr_mult: 1
decay_mult: 1
}
param {
lr_mult: 2
decay_mult: 0
}
convolution_param {
num_output: 96
kernel_size: 11
stride: 4
weight_filler {
type: "gaussian"
std: 0.01
}
bias_filler {
type: "constant"
value: 0
}
}
}
layer {
name: "relu1"
type: "ReLU"
bottom: "conv1"
top: "conv1"
}
layer {
name: "norm1"
type: "LRN"
bottom: "conv1"
top: "norm1"
lrn_param {
local_size: 5
alpha: 0.0001
beta: 0.75
}
}
layer {
name: "pool1"
type: "Pooling"
bottom: "norm1"
top: "pool1"
pooling_param {
pool: MAX
kernel_size: 3
stride: 2
}
}
layer {
name: "conv2"
type: "Convolution"
bottom: "pool1"
top: "conv2"
param {
lr_mult: 1
decay_mult: 1
}
param {
lr_mult: 2
decay_mult: 0
}
convolution_param {
num_output: 256
pad: 2
kernel_size: 5
group: 2
weight_filler {
type: "gaussian"
std: 0.01
}
bias_filler {
type: "constant"
value: 0.1
}
}
}
layer {
name: "relu2"
type: "ReLU"
bottom: "conv2"
top: "conv2"
}
layer {
name: "norm2"
type: "LRN"
bottom: "conv2"
top: "norm2"
lrn_param {
local_size: 5
alpha: 0.0001
beta: 0.75
}
}
layer {
name: "pool2"
type: "Pooling"
bottom: "norm2"
top: "pool2"
pooling_param {
pool: MAX
kernel_size: 3
stride: 2
}
}
layer {
name: "conv3"
type: "Convolution"
bottom: "pool2"
top: "conv3"
param {
lr_mult: 1
decay_mult: 1
}
param {
lr_mult: 2
decay_mult: 0
}
convolution_param {
num_output: 384
pad: 1
kernel_size: 3
weight_filler {
type: "gaussian"
std: 0.01
}
bias_filler {
type: "constant"
value: 0
}
}
}
layer {
name: "relu3"
type: "ReLU"
bottom: "conv3"
top: "conv3"
}
layer {
name: "conv4"
type: "Convolution"
bottom: "conv3"
top: "conv4"
param {
lr_mult: 1
decay_mult: 1
}
param {
lr_mult: 2
decay_mult: 0
}
convolution_param {
num_output: 384
pad: 1
kernel_size: 3
group: 2
weight_filler {
type: "gaussian"
std: 0.01
}
bias_filler {
type: "constant"
value: 0.1
}
}
}
layer {
name: "relu4"
type: "ReLU"
bottom: "conv4"
top: "conv4"
}
layer {
name: "conv5"
type: "Convolution"
bottom: "conv4"
top: "conv5"
param {
lr_mult: 1
decay_mult: 1
}
param {
lr_mult: 2
decay_mult: 0
}
convolution_param {
num_output: 256
pad: 1
kernel_size: 3
group: 2
weight_filler {
type: "gaussian"
std: 0.01
}
bias_filler {
type: "constant"
value: 0.1
}
}
}
layer {
name: "relu5"
type: "ReLU"
bottom: "conv5"
top: "conv5"
}
layer {
name: "pool5"
type: "Pooling"
bottom: "conv5"
top: "pool5"
pooling_param {
pool: MAX
kernel_size: 3
stride: 2
}
}
layer {
name: "fc6"
type: "InnerProduct"
bottom: "pool5"
top: "fc6"
param {
lr_mult: 1
decay_mult: 1
}
param {
lr_mult: 2
decay_mult: 0
}
inner_product_param {
num_output: 4096
weight_filler {
type: "gaussian"
std: 0.005
}
bias_filler {
type: "constant"
value: 0.1
}
}
}
layer {
name: "relu6"
type: "ReLU"
bottom: "fc6"
top: "fc6"
}
layer {
name: "drop6"
type: "Dropout"
bottom: "fc6"
top: "fc6"
dropout_param {
dropout_ratio: 0.5
}
}
layer {
name: "fc7"
type: "InnerProduct"
bottom: "fc6"
top: "fc7"
param {
lr_mult: 1
decay_mult: 1
}
param {
lr_mult: 2
decay_mult: 0
}
inner_product_param {
num_output: 4096
weight_filler {
type: "gaussian"
std: 0.005
}
bias_filler {
type: "constant"
value: 0.1
}
}
}
layer {
name: "relu7"
type: "ReLU"
bottom: "fc7"
top: "fc7"
}
layer {
name: "drop7"
type: "Dropout"
bottom: "fc7"
top: "fc7"
dropout_param {
dropout_ratio: 0.5
}
}
layer {
name: "fc8"
type: "InnerProduct"
bottom: "fc7"
top: "fc8"
param {
lr_mult: 1
decay_mult: 1
}
param {
lr_mult: 2
decay_mult: 0
}
inner_product_param {
num_output: 3
weight_filler {
type: "gaussian"
std: 0.01
}
bias_filler {
type: "constant"
value: 0
}
}
}
layer {
name: "loss"
type: "SoftmaxWithLoss"
bottom: "fc8"
bottom: "label"
top: "loss"
}
I0220 21:12:05.215741   123 layer_factory.hpp:77] Creating layer train-data
I0220 21:12:05.218613   123 net.cpp:94] Creating Layer train-data
I0220 21:12:05.218634   123 net.cpp:409] train-data -> data
I0220 21:12:05.219441   126 db_lmdb.cpp:35] Opened lmdb /opt/DIGITS/digits/jobs/20190220-211045-8475/train_db
I0220 21:12:05.220685   123 net.cpp:409] train-data -> label
I0220 21:12:05.220739   123 data_transformer.cpp:25] Loading mean file from: /opt/DIGITS/digits/jobs/20190220-211045-8475/mean.binaryproto
I0220 21:12:05.233587   123 data_layer.cpp:78] ReshapePrefetch 128, 3, 227, 227
I0220 21:12:05.233639   123 data_layer.cpp:83] output data size: 128,3,227,227
I0220 21:12:05.421165   123 net.cpp:144] Setting up train-data
I0220 21:12:05.421211   123 net.cpp:151] Top shape: 128 3 227 227 (19787136)
I0220 21:12:05.421221   123 net.cpp:151] Top shape: 128 (128)
I0220 21:12:05.421226   123 net.cpp:159] Memory required for data: 79149056
I0220 21:12:05.421242   123 layer_factory.hpp:77] Creating layer conv1
I0220 21:12:05.421290   123 net.cpp:94] Creating Layer conv1
I0220 21:12:05.421301   123 net.cpp:435] conv1 <- data
I0220 21:12:05.421329   123 net.cpp:409] conv1 -> conv1
I0220 21:12:05.435111   123 net.cpp:144] Setting up conv1
I0220 21:12:05.435129   123 net.cpp:151] Top shape: 128 96 55 55 (37171200)
I0220 21:12:05.435137   123 net.cpp:159] Memory required for data: 227833856
I0220 21:12:05.435158   123 layer_factory.hpp:77] Creating layer relu1
I0220 21:12:05.435170   123 net.cpp:94] Creating Layer relu1
I0220 21:12:05.435178   123 net.cpp:435] relu1 <- conv1
I0220 21:12:05.435185   123 net.cpp:396] relu1 -> conv1 (in-place)
I0220 21:12:05.435211   123 net.cpp:144] Setting up relu1
I0220 21:12:05.435220   123 net.cpp:151] Top shape: 128 96 55 55 (37171200)
I0220 21:12:05.435226   123 net.cpp:159] Memory required for data: 376518656
I0220 21:12:05.435232   123 layer_factory.hpp:77] Creating layer norm1
I0220 21:12:05.435246   123 net.cpp:94] Creating Layer norm1
I0220 21:12:05.435252   123 net.cpp:435] norm1 <- conv1
I0220 21:12:05.435261   123 net.cpp:409] norm1 -> norm1
I0220 21:12:05.446934   123 net.cpp:144] Setting up norm1
I0220 21:12:05.446959   123 net.cpp:151] Top shape: 128 96 55 55 (37171200)
I0220 21:12:05.446966   123 net.cpp:159] Memory required for data: 525203456
I0220 21:12:05.446974   123 layer_factory.hpp:77] Creating layer pool1
I0220 21:12:05.446990   123 net.cpp:94] Creating Layer pool1
I0220 21:12:05.447005   123 net.cpp:435] pool1 <- norm1
I0220 21:12:05.447016   123 net.cpp:409] pool1 -> pool1
I0220 21:12:05.447072   123 net.cpp:144] Setting up pool1
I0220 21:12:05.447082   123 net.cpp:151] Top shape: 128 96 27 27 (8957952)
I0220 21:12:05.447088   123 net.cpp:159] Memory required for data: 561035264
I0220 21:12:05.447094   123 layer_factory.hpp:77] Creating layer conv2
I0220 21:12:05.447108   123 net.cpp:94] Creating Layer conv2
I0220 21:12:05.447114   123 net.cpp:435] conv2 <- pool1
I0220 21:12:05.447124   123 net.cpp:409] conv2 -> conv2
I0220 21:12:05.451984   123 net.cpp:144] Setting up conv2
I0220 21:12:05.452002   123 net.cpp:151] Top shape: 128 256 27 27 (23887872)
I0220 21:12:05.452008   123 net.cpp:159] Memory required for data: 656586752
I0220 21:12:05.452020   123 layer_factory.hpp:77] Creating layer relu2
I0220 21:12:05.452030   123 net.cpp:94] Creating Layer relu2
I0220 21:12:05.452037   123 net.cpp:435] relu2 <- conv2
I0220 21:12:05.452045   123 net.cpp:396] relu2 -> conv2 (in-place)
I0220 21:12:05.452057   123 net.cpp:144] Setting up relu2
I0220 21:12:05.452064   123 net.cpp:151] Top shape: 128 256 27 27 (23887872)
I0220 21:12:05.452070   123 net.cpp:159] Memory required for data: 752138240
I0220 21:12:05.452075   123 layer_factory.hpp:77] Creating layer norm2
I0220 21:12:05.452085   123 net.cpp:94] Creating Layer norm2
I0220 21:12:05.452091   123 net.cpp:435] norm2 <- conv2
I0220 21:12:05.452100   123 net.cpp:409] norm2 -> norm2
I0220 21:12:05.452143   123 net.cpp:144] Setting up norm2
I0220 21:12:05.452152   123 net.cpp:151] Top shape: 128 256 27 27 (23887872)
I0220 21:12:05.452158   123 net.cpp:159] Memory required for data: 847689728
I0220 21:12:05.452164   123 layer_factory.hpp:77] Creating layer pool2
I0220 21:12:05.452174   123 net.cpp:94] Creating Layer pool2
I0220 21:12:05.452180   123 net.cpp:435] pool2 <- norm2
I0220 21:12:05.452188   123 net.cpp:409] pool2 -> pool2
I0220 21:12:05.452224   123 net.cpp:144] Setting up pool2
I0220 21:12:05.452232   123 net.cpp:151] Top shape: 128 256 13 13 (5537792)
I0220 21:12:05.452239   123 net.cpp:159] Memory required for data: 869840896
I0220 21:12:05.452244   123 layer_factory.hpp:77] Creating layer conv3
I0220 21:12:05.452256   123 net.cpp:94] Creating Layer conv3
I0220 21:12:05.452263   123 net.cpp:435] conv3 <- pool2
I0220 21:12:05.452273   123 net.cpp:409] conv3 -> conv3
I0220 21:12:05.475055   123 net.cpp:144] Setting up conv3
I0220 21:12:05.475073   123 net.cpp:151] Top shape: 128 384 13 13 (8306688)
I0220 21:12:05.475080   123 net.cpp:159] Memory required for data: 903067648
I0220 21:12:05.475093   123 layer_factory.hpp:77] Creating layer relu3
I0220 21:12:05.475103   123 net.cpp:94] Creating Layer relu3
I0220 21:12:05.475109   123 net.cpp:435] relu3 <- conv3
I0220 21:12:05.475119   123 net.cpp:396] relu3 -> conv3 (in-place)
I0220 21:12:05.475131   123 net.cpp:144] Setting up relu3
I0220 21:12:05.475137   123 net.cpp:151] Top shape: 128 384 13 13 (8306688)
I0220 21:12:05.475143   123 net.cpp:159] Memory required for data: 936294400
I0220 21:12:05.475149   123 layer_factory.hpp:77] Creating layer conv4
I0220 21:12:05.475160   123 net.cpp:94] Creating Layer conv4
I0220 21:12:05.475167   123 net.cpp:435] conv4 <- conv3
I0220 21:12:05.475175   123 net.cpp:409] conv4 -> conv4
I0220 21:12:05.492030   123 net.cpp:144] Setting up conv4
I0220 21:12:05.492048   123 net.cpp:151] Top shape: 128 384 13 13 (8306688)
I0220 21:12:05.492054   123 net.cpp:159] Memory required for data: 969521152
I0220 21:12:05.492063   123 layer_factory.hpp:77] Creating layer relu4
I0220 21:12:05.492074   123 net.cpp:94] Creating Layer relu4
I0220 21:12:05.492079   123 net.cpp:435] relu4 <- conv4
I0220 21:12:05.492113   123 net.cpp:396] relu4 -> conv4 (in-place)
I0220 21:12:05.492125   123 net.cpp:144] Setting up relu4
I0220 21:12:05.492132   123 net.cpp:151] Top shape: 128 384 13 13 (8306688)
I0220 21:12:05.492137   123 net.cpp:159] Memory required for data: 1002747904
I0220 21:12:05.492143   123 layer_factory.hpp:77] Creating layer conv5
I0220 21:12:05.492156   123 net.cpp:94] Creating Layer conv5
I0220 21:12:05.492162   123 net.cpp:435] conv5 <- conv4
I0220 21:12:05.492172   123 net.cpp:409] conv5 -> conv5
I0220 21:12:05.497920   123 net.cpp:144] Setting up conv5
I0220 21:12:05.497936   123 net.cpp:151] Top shape: 128 256 13 13 (5537792)
I0220 21:12:05.497943   123 net.cpp:159] Memory required for data: 1024899072
I0220 21:12:05.497956   123 layer_factory.hpp:77] Creating layer relu5
I0220 21:12:05.497964   123 net.cpp:94] Creating Layer relu5
I0220 21:12:05.497972   123 net.cpp:435] relu5 <- conv5
I0220 21:12:05.497979   123 net.cpp:396] relu5 -> conv5 (in-place)
I0220 21:12:05.497990   123 net.cpp:144] Setting up relu5
I0220 21:12:05.497997   123 net.cpp:151] Top shape: 128 256 13 13 (5537792)
I0220 21:12:05.498003   123 net.cpp:159] Memory required for data: 1047050240
I0220 21:12:05.498008   123 layer_factory.hpp:77] Creating layer pool5
I0220 21:12:05.498018   123 net.cpp:94] Creating Layer pool5
I0220 21:12:05.498023   123 net.cpp:435] pool5 <- conv5
I0220 21:12:05.498030   123 net.cpp:409] pool5 -> pool5
I0220 21:12:05.498071   123 net.cpp:144] Setting up pool5
I0220 21:12:05.498080   123 net.cpp:151] Top shape: 128 256 6 6 (1179648)
I0220 21:12:05.498086   123 net.cpp:159] Memory required for data: 1051768832
I0220 21:12:05.498092   123 layer_factory.hpp:77] Creating layer fc6
I0220 21:12:05.498106   123 net.cpp:94] Creating Layer fc6
I0220 21:12:05.498112   123 net.cpp:435] fc6 <- pool5
I0220 21:12:05.498121   123 net.cpp:409] fc6 -> fc6
I0220 21:12:06.009862   123 net.cpp:144] Setting up fc6
I0220 21:12:06.009910   123 net.cpp:151] Top shape: 128 4096 (524288)
I0220 21:12:06.009917   123 net.cpp:159] Memory required for data: 1053865984
I0220 21:12:06.009932   123 layer_factory.hpp:77] Creating layer relu6
I0220 21:12:06.009945   123 net.cpp:94] Creating Layer relu6
I0220 21:12:06.009953   123 net.cpp:435] relu6 <- fc6
I0220 21:12:06.009963   123 net.cpp:396] relu6 -> fc6 (in-place)
I0220 21:12:06.009987   123 net.cpp:144] Setting up relu6
I0220 21:12:06.009994   123 net.cpp:151] Top shape: 128 4096 (524288)
I0220 21:12:06.010000   123 net.cpp:159] Memory required for data: 1055963136
I0220 21:12:06.010006   123 layer_factory.hpp:77] Creating layer drop6
I0220 21:12:06.010017   123 net.cpp:94] Creating Layer drop6
I0220 21:12:06.010023   123 net.cpp:435] drop6 <- fc6
I0220 21:12:06.010036   123 net.cpp:396] drop6 -> fc6 (in-place)
I0220 21:12:06.010092   123 net.cpp:144] Setting up drop6
I0220 21:12:06.010102   123 net.cpp:151] Top shape: 128 4096 (524288)
I0220 21:12:06.010107   123 net.cpp:159] Memory required for data: 1058060288
I0220 21:12:06.010113   123 layer_factory.hpp:77] Creating layer fc7
I0220 21:12:06.010123   123 net.cpp:94] Creating Layer fc7
I0220 21:12:06.010130   123 net.cpp:435] fc7 <- fc6
I0220 21:12:06.010139   123 net.cpp:409] fc7 -> fc7
I0220 21:12:06.229830   123 net.cpp:144] Setting up fc7
I0220 21:12:06.229884   123 net.cpp:151] Top shape: 128 4096 (524288)
I0220 21:12:06.229892   123 net.cpp:159] Memory required for data: 1060157440
I0220 21:12:06.229904   123 layer_factory.hpp:77] Creating layer relu7
I0220 21:12:06.229918   123 net.cpp:94] Creating Layer relu7
I0220 21:12:06.229925   123 net.cpp:435] relu7 <- fc7
I0220 21:12:06.229935   123 net.cpp:396] relu7 -> fc7 (in-place)
I0220 21:12:06.229951   123 net.cpp:144] Setting up relu7
I0220 21:12:06.229959   123 net.cpp:151] Top shape: 128 4096 (524288)
I0220 21:12:06.229964   123 net.cpp:159] Memory required for data: 1062254592
I0220 21:12:06.229970   123 layer_factory.hpp:77] Creating layer drop7
I0220 21:12:06.229985   123 net.cpp:94] Creating Layer drop7
I0220 21:12:06.229991   123 net.cpp:435] drop7 <- fc7
I0220 21:12:06.230053   123 net.cpp:396] drop7 -> fc7 (in-place)
I0220 21:12:06.230080   123 net.cpp:144] Setting up drop7
I0220 21:12:06.230088   123 net.cpp:151] Top shape: 128 4096 (524288)
I0220 21:12:06.230094   123 net.cpp:159] Memory required for data: 1064351744
I0220 21:12:06.230100   123 layer_factory.hpp:77] Creating layer fc8
I0220 21:12:06.230110   123 net.cpp:94] Creating Layer fc8
I0220 21:12:06.230116   123 net.cpp:435] fc8 <- fc7
I0220 21:12:06.230126   123 net.cpp:409] fc8 -> fc8
I0220 21:12:06.231257   123 net.cpp:144] Setting up fc8
I0220 21:12:06.231272   123 net.cpp:151] Top shape: 128 3 (384)
I0220 21:12:06.231278   123 net.cpp:159] Memory required for data: 1064353280
I0220 21:12:06.231287   123 layer_factory.hpp:77] Creating layer loss
I0220 21:12:06.231297   123 net.cpp:94] Creating Layer loss
I0220 21:12:06.231319   123 net.cpp:435] loss <- fc8
I0220 21:12:06.231326   123 net.cpp:435] loss <- label
I0220 21:12:06.231354   123 net.cpp:409] loss -> loss
I0220 21:12:06.231367   123 layer_factory.hpp:77] Creating layer loss
…
I0220 21:12:06.232084   123 solver.cpp:181] Creating test net (#0) specified by net file: train_val.prototxt
I0220 21:12:06.232126   123 net.cpp:323] The NetState phase (1) differed from the phase (0) specified by a rule in layer train-data
I0220 21:12:06.232280   123 net.cpp:52] Initializing net from parameters:
state {
phase: TEST
}
layer {
name: "val-data"
type: "Data"
top: "data"
top: "label"
include {
phase: TEST
}
transform_param {
crop_size: 227
mean_file: "/opt/DIGITS/digits/jobs/20190220-211045-8475/mean.binaryproto"
}
data_param {
source: "/opt/DIGITS/digits/jobs/20190220-211045-8475/val_db"
batch_size: 32
backend: LMDB
}
}
layer {
name: "conv1"
type: "Convolution"
bottom: "data"
top: "conv1"
param {
lr_mult: 1
decay_mult: 1
}
param {
lr_mult: 2
decay_mult: 0
}
convolution_param {
num_output: 96
kernel_size: 11
stride: 4
weight_filler {
type: "gaussian"
std: 0.01
}
bias_filler {
type: "constant"
value: 0
}
}
}
layer {
name: "relu1"
type: "ReLU"
bottom: "conv1"
top: "conv1"
}
layer {
name: "norm1"
type: "LRN"
bottom: "conv1"
top: "norm1"
lrn_param {
local_size: 5
alpha: 0.0001
beta: 0.75
}
}
layer {
name: "pool1"
type: "Pooling"
bottom: "norm1"
top: "pool1"
pooling_param {
pool: MAX
kernel_size: 3
stride: 2
}
}
layer {
name: "conv2"
type: "Convolution"
bottom: "pool1"
top: "conv2"
param {
lr_mult: 1
decay_mult: 1
}
param {
lr_mult: 2
decay_mult: 0
}
convolution_param {
num_output: 256
pad: 2
kernel_size: 5
group: 2
weight_filler {
type: "gaussian"
std: 0.01
}
bias_filler {
type: "constant"
value: 0.1
}
}
}
layer {
name: "relu2"
type: "ReLU"
bottom: "conv2"
top: "conv2"
}
layer {
name: "norm2"
type: "LRN"
bottom: "conv2"
top: "norm2"
lrn_param {
local_size: 5
alpha: 0.0001
beta: 0.75
}
}
layer {
name: "pool2"
type: "Pooling"
bottom: "norm2"
top: "pool2"
pooling_param {
pool: MAX
kernel_size: 3
stride: 2
}
}
layer {
name: "conv3"
type: "Convolution"
bottom: "pool2"
top: "conv3"
param {
lr_mult: 1
decay_mult: 1
}
param {
lr_mult: 2
decay_mult: 0
}
convolution_param {
num_output: 384
pad: 1
kernel_size: 3
weight_filler {
type: "gaussian"
std: 0.01
}
bias_filler {
type: "constant"
value: 0
}
}
}
layer {
name: "relu3"
type: "ReLU"
bottom: "conv3"
top: "conv3"
}
layer {
name: "conv4"
type: "Convolution"
bottom: "conv3"
top: "conv4"
param {
lr_mult: 1
decay_mult: 1
}
param {
lr_mult: 2
decay_mult: 0
}
convolution_param {
num_output: 384
pad: 1
kernel_size: 3
group: 2
weight_filler {
type: "gaussian"
std: 0.01
}
bias_filler {
type: "constant"
value: 0.1
}
}
}
layer {
name: "relu4"
type: "ReLU"
bottom: "conv4"
top: "conv4"
}
layer {
name: "conv5"
type: "Convolution"
bottom: "conv4"
top: "conv5"
param {
lr_mult: 1
decay_mult: 1
}
param {
lr_mult: 2
decay_mult: 0
}
convolution_param {
num_output: 256
pad: 1
kernel_size: 3
group: 2
weight_filler {
type: "gaussian"
std: 0.01
}
bias_filler {
type: "constant"
value: 0.1
}
}
}
layer {
name: "relu5"
type: "ReLU"
bottom: "conv5"
top: "conv5"
}
layer {
name: "pool5"
type: "Pooling"
bottom: "conv5"
top: "pool5"
pooling_param {
pool: MAX
kernel_size: 3
stride: 2
}
}
layer {
name: "fc6"
type: "InnerProduct"
bottom: "pool5"
top: "fc6"
param {
lr_mult: 1
decay_mult: 1
}
param {
lr_mult: 2
decay_mult: 0
}
inner_product_param {
num_output: 4096
weight_filler {
type: "gaussian"
std: 0.005
}
bias_filler {
type: "constant"
value: 0.1
}
}
}
layer {
name: "relu6"
type: "ReLU"
bottom: "fc6"
top: "fc6"
}
layer {
name: "drop6"
type: "Dropout"
bottom: "fc6"
top: "fc6"
dropout_param {
dropout_ratio: 0.5
}
}
layer {
name: "fc7"
type: "InnerProduct"
bottom: "fc6"
top: "fc7"
param {
lr_mult: 1
decay_mult: 1
}
param {
lr_mult: 2
decay_mult: 0
}
inner_product_param {
num_output: 4096
weight_filler {
type: "gaussian"
std: 0.005
}
bias_filler {
type: "constant"
value: 0.1
}
}
}
layer {
name: "relu7"
type: "ReLU"
bottom: "fc7"
top: "fc7"
}
layer {
name: "drop7"
type: "Dropout"
bottom: "fc7"
top: "fc7"
dropout_param {
dropout_ratio: 0.5
}
}
layer {
name: "fc8"
type: "InnerProduct"
bottom: "fc7"
top: "fc8"
param {
lr_mult: 1
decay_mult: 1
}
param {
lr_mult: 2
decay_mult: 0
}
inner_product_param {
num_output: 3
weight_filler {
type: "gaussian"
std: 0.01
}
bias_filler {
type: "constant"
value: 0
}
}
}
layer {
name: "accuracy"
type: "Accuracy"
bottom: "fc8"
bottom: "label"
top: "accuracy"
include {
phase: TEST
}
}
layer {
name: "loss"
type: "SoftmaxWithLoss"
bottom: "fc8"
bottom: "label"
top: "loss"
}
I0220 21:12:06.232403   123 layer_factory.hpp:77] Creating layer val-data
I0220 21:12:06.233034   123 net.cpp:94] Creating Layer val-data
I0220 21:12:06.233075   123 net.cpp:409] val-data -> data
I0220 21:12:06.233095   123 net.cpp:409] val-data -> label
I0220 21:12:06.233108   123 data_transformer.cpp:25] Loading mean file from: /opt/DIGITS/digits/jobs/20190220-211045-8475/mean.binaryproto
I0220 21:12:06.233814   132 db_lmdb.cpp:35] Opened lmdb /opt/DIGITS/digits/jobs/20190220-211045-8475/val_db
I0220 21:12:06.239723   123 data_layer.cpp:78] ReshapePrefetch 32, 3, 227, 227
I0220 21:12:06.239778   123 data_layer.cpp:83] output data size: 32,3,227,227
I0220 21:12:06.284237   123 net.cpp:144] Setting up val-data
I0220 21:12:06.284284   123 net.cpp:151] Top shape: 32 3 227 227 (4946784)
I0220 21:12:06.284296   123 net.cpp:151] Top shape: 32 (32)
I0220 21:12:06.284301   123 net.cpp:159] Memory required for data: 19787264
I0220 21:12:06.284312   123 layer_factory.hpp:77] Creating layer label_val-data_1_split
I0220 21:12:06.284334   123 net.cpp:94] Creating Layer label_val-data_1_split
I0220 21:12:06.284343   123 net.cpp:435] label_val-data_1_split <- label
I0220 21:12:06.284354   123 net.cpp:409] label_val-data_1_split -> label_val-data_1_split_0
I0220 21:12:06.284369   123 net.cpp:409] label_val-data_1_split -> label_val-data_1_split_1
I0220 21:12:06.284725   123 net.cpp:144] Setting up label_val-data_1_split
I0220 21:12:06.284755   123 net.cpp:151] Top shape: 32 (32)
I0220 21:12:06.284763   123 net.cpp:151] Top shape: 32 (32)
I0220 21:12:06.284768   123 net.cpp:159] Memory required for data: 19787520
I0220 21:12:06.284775   123 layer_factory.hpp:77] Creating layer conv1
I0220 21:12:06.284797   123 net.cpp:94] Creating Layer conv1
I0220 21:12:06.284804   123 net.cpp:435] conv1 <- data
I0220 21:12:06.284816   123 net.cpp:409] conv1 -> conv1
I0220 21:12:06.286216   123 net.cpp:144] Setting up conv1
I0220 21:12:06.286232   123 net.cpp:151] Top shape: 32 96 55 55 (9292800)
I0220 21:12:06.286239   123 net.cpp:159] Memory required for data: 56958720
I0220 21:12:06.286253   123 layer_factory.hpp:77] Creating layer relu1
I0220 21:12:06.286265   123 net.cpp:94] Creating Layer relu1
I0220 21:12:06.286273   123 net.cpp:435] relu1 <- conv1
I0220 21:12:06.286281   123 net.cpp:396] relu1 -> conv1 (in-place)
I0220 21:12:06.286295   123 net.cpp:144] Setting up relu1
I0220 21:12:06.286303   123 net.cpp:151] Top shape: 32 96 55 55 (9292800)
I0220 21:12:06.286309   123 net.cpp:159] Memory required for data: 94129920
I0220 21:12:06.286315   123 layer_factory.hpp:77] Creating layer norm1
I0220 21:12:06.286327   123 net.cpp:94] Creating Layer norm1
I0220 21:12:06.286334   123 net.cpp:435] norm1 <- conv1
I0220 21:12:06.286342   123 net.cpp:409] norm1 -> norm1
I0220 21:12:06.286396   123 net.cpp:144] Setting up norm1
I0220 21:12:06.286406   123 net.cpp:151] Top shape: 32 96 55 55 (9292800)
I0220 21:12:06.286412   123 net.cpp:159] Memory required for data: 131301120
I0220 21:12:06.286417   123 layer_factory.hpp:77] Creating layer pool1
I0220 21:12:06.286428   123 net.cpp:94] Creating Layer pool1
I0220 21:12:06.286434   123 net.cpp:435] pool1 <- norm1
I0220 21:12:06.286444   123 net.cpp:409] pool1 -> pool1
I0220 21:12:06.286497   123 net.cpp:144] Setting up pool1
I0220 21:12:06.286506   123 net.cpp:151] Top shape: 32 96 27 27 (2239488)
I0220 21:12:06.286512   123 net.cpp:159] Memory required for data: 140259072
I0220 21:12:06.286518   123 layer_factory.hpp:77] Creating layer conv2
I0220 21:12:06.286531   123 net.cpp:94] Creating Layer conv2
I0220 21:12:06.286537   123 net.cpp:435] conv2 <- pool1
I0220 21:12:06.286550   123 net.cpp:409] conv2 -> conv2
I0220 21:12:06.291033   123 net.cpp:144] Setting up conv2
I0220 21:12:06.291052   123 net.cpp:151] Top shape: 32 256 27 27 (5971968)
I0220 21:12:06.291059   123 net.cpp:159] Memory required for data: 164146944
I0220 21:12:06.291070   123 layer_factory.hpp:77] Creating layer relu2
I0220 21:12:06.291081   123 net.cpp:94] Creating Layer relu2
I0220 21:12:06.291088   123 net.cpp:435] relu2 <- conv2
I0220 21:12:06.291097   123 net.cpp:396] relu2 -> conv2 (in-place)
I0220 21:12:06.291108   123 net.cpp:144] Setting up relu2
I0220 21:12:06.291116   123 net.cpp:151] Top shape: 32 256 27 27 (5971968)
I0220 21:12:06.291131   123 net.cpp:159] Memory required for data: 188034816
I0220 21:12:06.291138   123 layer_factory.hpp:77] Creating layer norm2
I0220 21:12:06.291152   123 net.cpp:94] Creating Layer norm2
I0220 21:12:06.291158   123 net.cpp:435] norm2 <- conv2
I0220 21:12:06.291169   123 net.cpp:409] norm2 -> norm2
I0220 21:12:06.291222   123 net.cpp:144] Setting up norm2
I0220 21:12:06.291234   123 net.cpp:151] Top shape: 32 256 27 27 (5971968)
I0220 21:12:06.291239   123 net.cpp:159] Memory required for data: 211922688
I0220 21:12:06.291247   123 layer_factory.hpp:77] Creating layer pool2
I0220 21:12:06.291257   123 net.cpp:94] Creating Layer pool2
I0220 21:12:06.291265   123 net.cpp:435] pool2 <- norm2
I0220 21:12:06.291273   123 net.cpp:409] pool2 -> pool2
I0220 21:12:06.291313   123 net.cpp:144] Setting up pool2
I0220 21:12:06.291322   123 net.cpp:151] Top shape: 32 256 13 13 (1384448)
I0220 21:12:06.291328   123 net.cpp:159] Memory required for data: 217460480
I0220 21:12:06.291334   123 layer_factory.hpp:77] Creating layer conv3
I0220 21:12:06.291347   123 net.cpp:94] Creating Layer conv3
I0220 21:12:06.291353   123 net.cpp:435] conv3 <- pool2
I0220 21:12:06.291368   123 net.cpp:409] conv3 -> conv3
I0220 21:12:06.302899   123 net.cpp:144] Setting up conv3
I0220 21:12:06.302922   123 net.cpp:151] Top shape: 32 384 13 13 (2076672)
I0220 21:12:06.302929   123 net.cpp:159] Memory required for data: 225767168
I0220 21:12:06.302943   123 layer_factory.hpp:77] Creating layer relu3
I0220 21:12:06.302954   123 net.cpp:94] Creating Layer relu3
I0220 21:12:06.302961   123 net.cpp:435] relu3 <- conv3
I0220 21:12:06.302970   123 net.cpp:396] relu3 -> conv3 (in-place)
I0220 21:12:06.302981   123 net.cpp:144] Setting up relu3
I0220 21:12:06.302989   123 net.cpp:151] Top shape: 32 384 13 13 (2076672)
I0220 21:12:06.302994   123 net.cpp:159] Memory required for data: 234073856
I0220 21:12:06.303000   123 layer_factory.hpp:77] Creating layer conv4
I0220 21:12:06.303014   123 net.cpp:94] Creating Layer conv4
I0220 21:12:06.303020   123 net.cpp:435] conv4 <- conv3
I0220 21:12:06.303030   123 net.cpp:409] conv4 -> conv4
I0220 21:12:06.322233   123 net.cpp:144] Setting up conv4
I0220 21:12:06.322259   123 net.cpp:151] Top shape: 32 384 13 13 (2076672)
I0220 21:12:06.322266   123 net.cpp:159] Memory required for data: 242380544
I0220 21:12:06.322278   123 layer_factory.hpp:77] Creating layer relu4
I0220 21:12:06.322291   123 net.cpp:94] Creating Layer relu4
I0220 21:12:06.322299   123 net.cpp:435] relu4 <- conv4
I0220 21:12:06.322309   123 net.cpp:396] relu4 -> conv4 (in-place)
I0220 21:12:06.322322   123 net.cpp:144] Setting up relu4
I0220 21:12:06.322330   123 net.cpp:151] Top shape: 32 384 13 13 (2076672)
I0220 21:12:06.322353   123 net.cpp:159] Memory required for data: 250687232
I0220 21:12:06.322360   123 layer_factory.hpp:77] Creating layer conv5
I0220 21:12:06.322388   123 net.cpp:94] Creating Layer conv5
I0220 21:12:06.322394   123 net.cpp:435] conv5 <- conv4
I0220 21:12:06.322403   123 net.cpp:409] conv5 -> conv5
I0220 21:12:06.328438   123 net.cpp:144] Setting up conv5
I0220 21:12:06.328456   123 net.cpp:151] Top shape: 32 256 13 13 (1384448)
I0220 21:12:06.328462   123 net.cpp:159] Memory required for data: 256225024
I0220 21:12:06.328478   123 layer_factory.hpp:77] Creating layer relu5
I0220 21:12:06.328488   123 net.cpp:94] Creating Layer relu5
I0220 21:12:06.328495   123 net.cpp:435] relu5 <- conv5
I0220 21:12:06.328529   123 net.cpp:396] relu5 -> conv5 (in-place)
I0220 21:12:06.328541   123 net.cpp:144] Setting up relu5
I0220 21:12:06.328549   123 net.cpp:151] Top shape: 32 256 13 13 (1384448)
I0220 21:12:06.328554   123 net.cpp:159] Memory required for data: 261762816
I0220 21:12:06.328560   123 layer_factory.hpp:77] Creating layer pool5
I0220 21:12:06.328573   123 net.cpp:94] Creating Layer pool5
I0220 21:12:06.328595   123 net.cpp:435] pool5 <- conv5
I0220 21:12:06.328603   123 net.cpp:409] pool5 -> pool5
I0220 21:12:06.328655   123 net.cpp:144] Setting up pool5
I0220 21:12:06.328665   123 net.cpp:151] Top shape: 32 256 6 6 (294912)
I0220 21:12:06.328671   123 net.cpp:159] Memory required for data: 262942464
I0220 21:12:06.328677   123 layer_factory.hpp:77] Creating layer fc6
I0220 21:12:06.328689   123 net.cpp:94] Creating Layer fc6
I0220 21:12:06.328696   123 net.cpp:435] fc6 <- pool5
I0220 21:12:06.328732   123 net.cpp:409] fc6 -> fc6
I0220 21:12:06.849028   123 net.cpp:144] Setting up fc6
I0220 21:12:06.849076   123 net.cpp:151] Top shape: 32 4096 (131072)
I0220 21:12:06.849083   123 net.cpp:159] Memory required for data: 263466752
I0220 21:12:06.849097   123 layer_factory.hpp:77] Creating layer relu6
I0220 21:12:06.849110   123 net.cpp:94] Creating Layer relu6
I0220 21:12:06.849118   123 net.cpp:435] relu6 <- fc6
I0220 21:12:06.849129   123 net.cpp:396] relu6 -> fc6 (in-place)
I0220 21:12:06.849145   123 net.cpp:144] Setting up relu6
I0220 21:12:06.849153   123 net.cpp:151] Top shape: 32 4096 (131072)
I0220 21:12:06.849159   123 net.cpp:159] Memory required for data: 263991040
I0220 21:12:06.849164   123 layer_factory.hpp:77] Creating layer drop6
I0220 21:12:06.849174   123 net.cpp:94] Creating Layer drop6
I0220 21:12:06.849179   123 net.cpp:435] drop6 <- fc6
I0220 21:12:06.849187   123 net.cpp:396] drop6 -> fc6 (in-place)
I0220 21:12:06.849221   123 net.cpp:144] Setting up drop6
I0220 21:12:06.849239   123 net.cpp:151] Top shape: 32 4096 (131072)
I0220 21:12:06.849246   123 net.cpp:159] Memory required for data: 264515328
I0220 21:12:06.849251   123 layer_factory.hpp:77] Creating layer fc7
I0220 21:12:06.849263   123 net.cpp:94] Creating Layer fc7
I0220 21:12:06.849269   123 net.cpp:435] fc7 <- fc6
I0220 21:12:06.849278   123 net.cpp:409] fc7 -> fc7
I0220 21:12:07.074821   123 net.cpp:144] Setting up fc7
I0220 21:12:07.074860   123 net.cpp:151] Top shape: 32 4096 (131072)
I0220 21:12:07.074867   123 net.cpp:159] Memory required for data: 265039616
I0220 21:12:07.074880   123 layer_factory.hpp:77] Creating layer relu7
I0220 21:12:07.074895   123 net.cpp:94] Creating Layer relu7
I0220 21:12:07.074903   123 net.cpp:435] relu7 <- fc7
I0220 21:12:07.074913   123 net.cpp:396] relu7 -> fc7 (in-place)
I0220 21:12:07.074930   123 net.cpp:144] Setting up relu7
I0220 21:12:07.074937   123 net.cpp:151] Top shape: 32 4096 (131072)
I0220 21:12:07.074942   123 net.cpp:159] Memory required for data: 265563904
I0220 21:12:07.074949   123 layer_factory.hpp:77] Creating layer drop7
I0220 21:12:07.074957   123 net.cpp:94] Creating Layer drop7
I0220 21:12:07.074964   123 net.cpp:435] drop7 <- fc7
I0220 21:12:07.074971   123 net.cpp:396] drop7 -> fc7 (in-place)
I0220 21:12:07.075006   123 net.cpp:144] Setting up drop7
I0220 21:12:07.075016   123 net.cpp:151] Top shape: 32 4096 (131072)
I0220 21:12:07.075021   123 net.cpp:159] Memory required for data: 266088192
I0220 21:12:07.075026   123 layer_factory.hpp:77] Creating layer fc8
I0220 21:12:07.075038   123 net.cpp:94] Creating Layer fc8
I0220 21:12:07.075044   123 net.cpp:435] fc8 <- fc7
I0220 21:12:07.075053   123 net.cpp:409] fc8 -> fc8
I0220 21:12:07.075335   123 net.cpp:144] Setting up fc8
I0220 21:12:07.075347   123 net.cpp:151] Top shape: 32 3 (96)
I0220 21:12:07.075352   123 net.cpp:159] Memory required for data: 266088576
I0220 21:12:07.075361   123 layer_factory.hpp:77] Creating layer fc8_fc8_0_split
I0220 21:12:07.075371   123 net.cpp:94] Creating Layer fc8_fc8_0_split
I0220 21:12:07.075376   123 net.cpp:435] fc8_fc8_0_split <- fc8
I0220 21:12:07.075386   123 net.cpp:409] fc8_fc8_0_split -> fc8_fc8_0_split_0
I0220 21:12:07.075428   123 net.cpp:409] fc8_fc8_0_split -> fc8_fc8_0_split_1
I0220 21:12:07.075474   123 net.cpp:144] Setting up fc8_fc8_0_split
I0220 21:12:07.075484   123 net.cpp:151] Top shape: 32 3 (96)
I0220 21:12:07.075489   123 net.cpp:151] Top shape: 32 3 (96)
I0220 21:12:07.075495   123 net.cpp:159] Memory required for data: 266089344
I0220 21:12:07.075500   123 layer_factory.hpp:77] Creating layer accuracy
I0220 21:12:07.075510   123 net.cpp:94] Creating Layer accuracy
I0220 21:12:07.075517   123 net.cpp:435] accuracy <- fc8_fc8_0_split_0
I0220 21:12:07.075525   123 net.cpp:435] accuracy <- label_val-data_1_split_0
I0220 21:12:07.075533   123 net.cpp:409] accuracy -> accuracy
…
