…
I0205 01:22:49.795099   178 net.cpp:323] The NetState phase (0) differed from the phase (1) specified by a rule in layer loss3/top-1
I0205 01:22:49.795812   178 net.cpp:52] Initializing net from parameters:
state {
phase: TRAIN
}
layer {
name: "train-data"
type: "Data"
top: "data"
top: "label"
include {
phase: TRAIN
}
transform_param {
mirror: true
crop_size: 224
mean_file: "/opt/DIGITS/digits/jobs/20190205-011337-459c/mean.binaryproto"
}
data_param {
source: "/opt/DIGITS/digits/jobs/20190205-011337-459c/train_db"
batch_size: 32
backend: LMDB
}
}
layer {
name: "conv1/7x7_s2"
type: "Convolution"
bottom: "data"
top: "conv1/7x7_s2"
param {
lr_mult: 1
decay_mult: 1
}
param {
lr_mult: 2
decay_mult: 0
}
convolution_param {
num_output: 64
pad: 3
kernel_size: 7
stride: 2
weight_filler {
type: "xavier"
std: 0.1
}
bias_filler {
type: "constant"
value: 0.2
}
}
}
layer {
name: "conv1/relu_7x7"
type: "ReLU"
bottom: "conv1/7x7_s2"
top: "conv1/7x7_s2"
}
layer {
name: "pool1/3x3_s2"
type: "Pooling"
bottom: "conv1/7x7_s2"
top: "pool1/3x3_s2"
pooling_param {
pool: MAX
kernel_size: 3
stride: 2
}
}
layer {
name: "pool1/norm1"
type: "LRN"
bottom: "pool1/3x3_s2"
top: "pool1/norm1"
lrn_param {
local_size: 5
alpha: 0.0001
beta: 0.75
}
}
layer {
name: "conv2/3x3_reduce"
type: "Convolution"
bottom: "pool1/norm1"
top: "conv2/3x3_reduce"
param {
lr_mult: 1
decay_mult: 1
}
param {
lr_mult: 2
decay_mult: 0
}
convolution_param {
num_output: 64
kernel_size: 1
weight_filler {
type: "xavier"
std: 0.1
}
bias_filler {
type: "constant"
value: 0.2
}
}
}
layer {
name: "conv2/relu_3x3_reduce"
type: "ReLU"
bottom: "conv2/3x3_reduce"
top: "conv2/3x3_reduce"
}
layer {
name: "conv2/3x3"
type: "Convolution"
bottom: "conv2/3x3_reduce"
top: "conv2/3x3"
param {
lr_mult: 1
decay_mult: 1
}
param {
lr_mult: 2
decay_mult: 0
}
convolution_param {
num_output: 192
pad: 1
kernel_size: 3
weight_filler {
type: "xavier"
std: 0.03
}
bias_filler {
type: "constant"
value: 0.2
}
}
}
layer {
name: "conv2/relu_3x3"
type: "ReLU"
bottom: "conv2/3x3"
top: "conv2/3x3"
}
layer {
name: "conv2/norm2"
type: "LRN"
bottom: "conv2/3x3"
top: "conv2/norm2"
lrn_param {
local_size: 5
alpha: 0.0001
beta: 0.75
}
}
layer {
name: "pool2/3x3_s2"
type: "Pooling"
bottom: "conv2/norm2"
top: "pool2/3x3_s2"
pooling_param {
pool: MAX
kernel_size: 3
stride: 2
}
}
layer {
name: "inception_3a/1x1"
type: "Convolution"
bottom: "pool2/3x3_s2"
top: "inception_3a/1x1"
param {
lr_mult: 1
decay_mult: 1
}
param {
lr_mult: 2
decay_mult: 0
}
convolution_param {
num_output: 64
kernel_size: 1
weight_filler {
type: "xavier"
std: 0.03
}
bias_filler {
type: "constant"
value: 0.2
}
}
}
layer {
name: "inception_3a/relu_1x1"
type: "ReLU"
bottom: "inception_3a/1x1"
top: "inception_3a/1x1"
}
layer {
name: "inception_3a/3x3_reduce"
type: "Convolution"
bottom: "pool2/3x3_s2"
top: "inception_3a/3x3_reduce"
param {
lr_mult: 1
decay_mult: 1
}
param {
lr_mult: 2
decay_mult: 0
}
convolution_param {
num_output: 96
kernel_size: 1
weight_filler {
type: "xavier"
std: 0.09
}
bias_filler {
type: "constant"
value: 0.2
}
}
}
layer {
name: "inception_3a/relu_3x3_reduce"
type: "ReLU"
bottom: "inception_3a/3x3_reduce"
top: "inception_3a/3x3_reduce"
}
layer {
name: "inception_3a/3x3"
type: "Convolution"
bottom: "inception_3a/3x3_reduce"
top: "inception_3a/3x3"
param {
lr_mult: 1
decay_mult: 1
}
param {
lr_mult: 2
decay_mult: 0
}
convolution_param {
num_output: 128
pad: 1
kernel_size: 3
weight_filler {
type: "xavier"
std: 0.03
}
bias_filler {
type: "constant"
value: 0.2
}
}
}
layer {
name: "inception_3a/relu_3x3"
type: "ReLU"
bottom: "inception_3a/3x3"
top: "inception_3a/3x3"
}
layer {
name: "inception_3a/5x5_reduce"
type: "Convolution"
bottom: "pool2/3x3_s2"
top: "inception_3a/5x5_reduce"
param {
lr_mult: 1
decay_mult: 1
}
param {
lr_mult: 2
decay_mult: 0
}
convolution_param {
num_output: 16
kernel_size: 1
weight_filler {
type: "xavier"
std: 0.2
}
bias_filler {
type: "constant"
value: 0.2
}
}
}
layer {
name: "inception_3a/relu_5x5_reduce"
type: "ReLU"
bottom: "inception_3a/5x5_reduce"
top: "inception_3a/5x5_reduce"
}
layer {
name: "inception_3a/5x5"
type: "Convolution"
bottom: "inception_3a/5x5_reduce"
top: "inception_3a/5x5"
param {
lr_mult: 1
decay_mult: 1
}
param {
lr_mult: 2
decay_mult: 0
}
convolution_param {
num_output: 32
pad: 2
kernel_size: 5
weight_filler {
type: "xavier"
std: 0.03
}
bias_filler {
type: "constant"
value: 0.2
}
}
}
layer {
name: "inception_3a/relu_5x5"
type: "ReLU"
bottom: "inception_3a/5x5"
top: "inception_3a/5x5"
}
layer {
name: "inception_3a/pool"
type: "Pooling"
bottom: "pool2/3x3_s2"
top: "inception_3a/pool"
pooling_param {
pool: MAX
kernel_size: 3
stride: 1
pad: 1
}
}
layer {
name: "inception_3a/pool_proj"
type: "Convolution"
bottom: "inception_3a/pool"
top: "inception_3a/pool_proj"
param {
lr_mult: 1
decay_mult: 1
}
param {
lr_mult: 2
decay_mult: 0
}
convolution_param {
num_output: 32
kernel_size: 1
weight_filler {
type: "xavier"
std: 0.1
}
bias_filler {
type: "constant"
value: 0.2
}
}
}
layer {
name: "inception_3a/relu_pool_proj"
type: "ReLU"
bottom: "inception_3a/pool_proj"
top: "inception_3a/pool_proj"
}
layer {
name: "inception_3a/output"
type: "Concat"
bottom: "inception_3a/1x1"
bottom: "inception_3a/3x3"
bottom: "inception_3a/5x5"
bottom: "inception_3a/pool_proj"
top: "inception_3a/output"
}
layer {
name: "inception_3b/1x1"
type: "Convolution"
bottom: "inception_3a/output"
top: "inception_3b/1x1"
param {
lr_mult: 1
decay_mult: 1
}
param {
lr_mult: 2
decay_mult: 0
}
convolution_param {
num_output: 128
kernel_size: 1
weight_filler {
type: "xavier"
std: 0.03
}
bias_filler {
type: "constant"
value: 0.2
}
}
}
layer {
name: "inception_3b/relu_1x1"
type: "ReLU"
bottom: "inception_3b/1x1"
top: "inception_3b/1x1"
}
layer {
name: "inception_3b/3x3_reduce"
type: "Convolution"
bottom: "inception_3a/output"
top: "inception_3b/3x3_reduce"
param {
lr_mult: 1
decay_mult: 1
}
param {
lr_mult: 2
decay_mult: 0
}
convolution_param {
num_output: 128
kernel_size: 1
weight_filler {
type: "xavier"
std: 0.09
}
bias_filler {
type: "constant"
value: 0.2
}
}
}
layer {
name: "inception_3b/relu_3x3_reduce"
type: "ReLU"
bottom: "inception_3b/3x3_reduce"
top: "inception_3b/3x3_reduce"
}
layer {
name: "inception_3b/3x3"
type: "Convolution"
bottom: "inception_3b/3x3_reduce"
top: "inception_3b/3x3"
param {
lr_mult: 1
decay_mult: 1
}
param {
lr_mult: 2
decay_mult: 0
}
convolution_param {
num_output: 192
pad: 1
kernel_size: 3
weight_filler {
type: "xavier"
std: 0.03
}
bias_filler {
type: "constant"
value: 0.2
}
}
}
layer {
name: "inception_3b/relu_3x3"
type: "ReLU"
bottom: "inception_3b/3x3"
top: "inception_3b/3x3"
}
layer {
name: "inception_3b/5x5_reduce"
type: "Convolution"
bottom: "inception_3a/output"
top: "inception_3b/5x5_reduce"
param {
lr_mult: 1
decay_mult: 1
}
param {
lr_mult: 2
decay_mult: 0
}
convolution_param {
num_output: 32
kernel_size: 1
weight_filler {
type: "xavier"
std: 0.2
}
bias_filler {
type: "constant"
value: 0.2
}
}
}
layer {
name: "inception_3b/relu_5x5_reduce"
type: "ReLU"
bottom: "inception_3b/5x5_reduce"
top: "inception_3b/5x5_reduce"
}
layer {
name: "inception_3b/5x5"
type: "Convolution"
bottom: "inception_3b/5x5_reduce"
top: "inception_3b/5x5"
param {
lr_mult: 1
decay_mult: 1
}
param {
lr_mult: 2
decay_mult: 0
}
convolution_param {
num_output: 96
pad: 2
kernel_size: 5
weight_filler {
type: "xavier"
std: 0.03
}
bias_filler {
type: "constant"
value: 0.2
}
}
}
layer {
name: "inception_3b/relu_5x5"
type: "ReLU"
bottom: "inception_3b/5x5"
top: "inception_3b/5x5"
}
layer {
name: "inception_3b/pool"
type: "Pooling"
bottom: "inception_3a/output"
top: "inception_3b/pool"
pooling_param {
pool: MAX
kernel_size: 3
stride: 1
pad: 1
}
}
layer {
name: "inception_3b/pool_proj"
type: "Convolution"
bottom: "inception_3b/pool"
top: "inception_3b/pool_proj"
param {
lr_mult: 1
decay_mult: 1
}
param {
lr_mult: 2
decay_mult: 0
}
convolution_param {
num_output: 64
kernel_size: 1
weight_filler {
type: "xavier"
std: 0.1
}
bias_filler {
type: "constant"
value: 0.2
}
}
}
layer {
name: "inception_3b/relu_pool_proj"
type: "ReLU"
bottom: "inception_3b/pool_proj"
top: "inception_3b/pool_proj"
}
layer {
name: "inception_3b/output"
type: "Concat"
bottom: "inception_3b/1x1"
bottom: "inception_3b/3x3"
bottom: "inception_3b/5x5"
bottom: "inception_3b/pool_proj"
top: "inception_3b/output"
}
layer {
name: "pool3/3x3_s2"
type: "Pooling"
bottom: "inception_3b/output"
top: "pool3/3x3_s2"
pooling_param {
pool: MAX
kernel_size: 3
stride: 2
}
}
layer {
name: "inception_4a/1x1"
type: "Convolution"
bottom: "pool3/3x3_s2"
top: "inception_4a/1x1"
param {
lr_mult: 1
decay_mult: 1
}
param {
lr_mult: 2
decay_mult: 0
}
convolution_param {
num_output: 192
kernel_size: 1
weight_filler {
type: "xavier"
std: 0.03
}
bias_filler {
type: "constant"
value: 0.2
}
}
}
layer {
name: "inception_4a/relu_1x1"
type: "ReLU"
bottom: "inception_4a/1x1"
top: "inception_4a/1x1"
}
layer {
name: "inception_4a/3x3_reduce"
type: "Convolution"
bottom: "pool3/3x3_s2"
top: "inception_4a/3x3_reduce"
param {
lr_mult: 1
decay_mult: 1
}
param {
lr_mult: 2
decay_mult: 0
}
convolution_param {
num_output: 96
kernel_size: 1
weight_filler {
type: "xavier"
std: 0.09
}
bias_filler {
type: "constant"
value: 0.2
}
}
}
layer {
name: "inception_4a/relu_3x3_reduce"
type: "ReLU"
bottom: "inception_4a/3x3_reduce"
top: "inception_4a/3x3_reduce"
}
layer {
name: "inception_4a/3x3"
type: "Convolution"
bottom: "inception_4a/3x3_reduce"
top: "inception_4a/3x3"
param {
lr_mult: 1
decay_mult: 1
}
param {
lr_mult: 2
decay_mult: 0
}
convolution_param {
num_output: 208
pad: 1
kernel_size: 3
weight_filler {
type: "xavier"
std: 0.03
}
bias_filler {
type: "constant"
value: 0.2
}
}
}
layer {
name: "inception_4a/relu_3x3"
type: "ReLU"
bottom: "inception_4a/3x3"
top: "inception_4a/3x3"
}
layer {
name: "inception_4a/5x5_reduce"
type: "Convolution"
bottom: "pool3/3x3_s2"
top: "inception_4a/5x5_reduce"
param {
lr_mult: 1
decay_mult: 1
}
param {
lr_mult: 2
decay_mult: 0
}
convolution_param {
num_output: 16
kernel_size: 1
weight_filler {
type: "xavier"
std: 0.2
}
bias_filler {
type: "constant"
value: 0.2
}
}
}
layer {
name: "inception_4a/relu_5x5_reduce"
type: "ReLU"
bottom: "inception_4a/5x5_reduce"
top: "inception_4a/5x5_reduce"
}
layer {
name: "inception_4a/5x5"
type: "Convolution"
bottom: "inception_4a/5x5_reduce"
top: "inception_4a/5x5"
param {
lr_mult: 1
decay_mult: 1
}
param {
lr_mult: 2
decay_mult: 0
}
convolution_param {
num_output: 48
pad: 2
kernel_size: 5
weight_filler {
type: "xavier"
std: 0.03
}
bias_filler {
type: "constant"
value: 0.2
}
}
}
layer {
name: "inception_4a/relu_5x5"
type: "ReLU"
bottom: "inception_4a/5x5"
top: "inception_4a/5x5"
}
layer {
name: "inception_4a/pool"
type: "Pooling"
bottom: "pool3/3x3_s2"
top: "inception_4a/pool"
pooling_param {
pool: MAX
kernel_size: 3
stride: 1
pad: 1
}
}
layer {
name: "inception_4a/pool_proj"
type: "Convolution"
bottom: "inception_4a/pool"
top: "inception_4a/pool_proj"
param {
lr_mult: 1
decay_mult: 1
}
param {
lr_mult: 2
decay_mult: 0
}
convolution_param {
num_output: 64
kernel_size: 1
weight_filler {
type: "xavier"
std: 0.1
}
bias_filler {
type: "constant"
value: 0.2
}
}
}
layer {
name: "inception_4a/relu_pool_proj"
type: "ReLU"
bottom: "inception_4a/pool_proj"
top: "inception_4a/pool_proj"
}
layer {
name: "inception_4a/output"
type: "Concat"
bottom: "inception_4a/1x1"
bottom: "inception_4a/3x3"
bottom: "inception_4a/5x5"
bottom: "inception_4a/pool_proj"
top: "inception_4a/output"
}
layer {
name: "loss1/ave_pool"
type: "Pooling"
bottom: "inception_4a/output"
top: "loss1/ave_pool"
pooling_param {
pool: AVE
kernel_size: 5
stride: 3
}
}
layer {
name: "loss1/conv"
type: "Convolution"
bottom: "loss1/ave_pool"
top: "loss1/conv"
param {
lr_mult: 1
decay_mult: 1
}
param {
lr_mult: 2
decay_mult: 0
}
convolution_param {
num_output: 128
kernel_size: 1
weight_filler {
type: "xavier"
std: 0.08
}
bias_filler {
type: "constant"
value: 0.2
}
}
}
layer {
name: "loss1/relu_conv"
type: "ReLU"
bottom: "loss1/conv"
top: "loss1/conv"
}
layer {
name: "loss1/fc"
type: "InnerProduct"
bottom: "loss1/conv"
top: "loss1/fc"
param {
lr_mult: 1
decay_mult: 1
}
param {
lr_mult: 2
decay_mult: 0
}
inner_product_param {
num_output: 1024
weight_filler {
type: "xavier"
std: 0.02
}
bias_filler {
type: "constant"
value: 0.2
}
}
}
layer {
name: "loss1/relu_fc"
type: "ReLU"
bottom: "loss1/fc"
top: "loss1/fc"
}
layer {
name: "loss1/drop_fc"
type: "Dropout"
bottom: "loss1/fc"
top: "loss1/fc"
dropout_param {
dropout_ratio: 0.7
}
}
layer {
name: "loss1/classifier"
type: "InnerProduct"
bottom: "loss1/fc"
top: "loss1/classifier"
param {
lr_mult: 1
decay_mult: 1
}
param {
lr_mult: 2
decay_mult: 0
}
inner_product_param {
num_output: 3
weight_filler {
type: "xavier"
std: 0.0009765625
}
bias_filler {
type: "constant"
value: 0
}
}
}
layer {
name: "loss1/loss"
type: "SoftmaxWithLoss"
bottom: "loss1/classifier"
bottom: "label"
top: "loss1/loss"
loss_weight: 0.3
}
layer {
name: "inception_4b/1x1"
type: "Convolution"
bottom: "inception_4a/output"
top: "inception_4b/1x1"
param {
lr_mult: 1
decay_mult: 1
}
param {
lr_mult: 2
decay_mult: 0
}
convolution_param {
num_output: 160
kernel_size: 1
weight_filler {
type: "xavier"
std: 0.03
}
bias_filler {
type: "constant"
value: 0.2
}
}
}
layer {
name: "inception_4b/relu_1x1"
type: "ReLU"
bottom: "inception_4b/1x1"
top: "inception_4b/1x1"
}
layer {
name: "inception_4b/3x3_reduce"
type: "Convolution"
bottom: "inception_4a/output"
top: "inception_4b/3x3_reduce"
param {
lr_mult: 1
decay_mult: 1
}
param {
lr_mult: 2
decay_mult: 0
}
convolution_param {
num_output: 112
kernel_size: 1
weight_filler {
type: "xavier"
std: 0.09
}
bias_filler {
type: "constant"
value: 0.2
}
}
}
layer {
name: "inception_4b/relu_3x3_reduce"
type: "ReLU"
bottom: "inception_4b/3x3_reduce"
top: "inception_4b/3x3_reduce"
}
layer {
name: "inception_4b/3x3"
type: "Convolution"
bottom: "inception_4b/3x3_reduce"
top: "inception_4b/3x3"
param {
lr_mult: 1
decay_mult: 1
}
param {
lr_mult: 2
decay_mult: 0
}
convolution_param {
num_output: 224
pad: 1
kernel_size: 3
weight_filler {
type: "xavier"
std: 0.03
}
bias_filler {
type: "constant"
value: 0.2
}
}
}
layer {
name: "inception_4b/relu_3x3"
type: "ReLU"
bottom: "inception_4b/3x3"
top: "inception_4b/3x3"
}
layer {
name: "inception_4b/5x5_reduce"
type: "Convolution"
bottom: "inception_4a/output"
top: "inception_4b/5x5_reduce"
param {
lr_mult: 1
decay_mult: 1
}
param {
lr_mult: 2
decay_mult: 0
}
convolution_param {
num_output: 24
kernel_size: 1
weight_filler {
type: "xavier"
std: 0.2
}
bias_filler {
type: "constant"
value: 0.2
}
}
}
layer {
name: "inception_4b/relu_5x5_reduce"
type: "ReLU"
bottom: "inception_4b/5x5_reduce"
top: "inception_4b/5x5_reduce"
}
layer {
name: "inception_4b/5x5"
type: "Convolution"
bottom: "inception_4b/5x5_reduce"
top: "inception_4b/5x5"
param {
lr_mult: 1
decay_mult: 1
}
param {
lr_mult: 2
decay_mult: 0
}
convolution_param {
num_output: 64
pad: 2
kernel_size: 5
weight_filler {
type: "xavier"
std: 0.03
}
bias_filler {
type: "constant"
value: 0.2
}
}
}
layer {
name: "inception_4b/relu_5x5"
type: "ReLU"
bottom: "inception_4b/5x5"
top: "inception_4b/5x5"
}
layer {
name: "inception_4b/pool"
type: "Pooling"
bottom: "inception_4a/output"
top: "inception_4b/pool"
pooling_param {
pool: MAX
kernel_size: 3
stride: 1
pad: 1
}
}
layer {
name: "inception_4b/pool_proj"
type: "Convolution"
bottom: "inception_4b/pool"
top: "inception_4b/pool_proj"
param {
lr_mult: 1
decay_mult: 1
}
param {
lr_mult: 2
decay_mult: 0
}
convolution_param {
num_output: 64
kernel_size: 1
weight_filler {
type: "xavier"
std: 0.1
}
bias_filler {
type: "constant"
value: 0.2
}
}
}
layer {
name: "inception_4b/relu_pool_proj"
type: "ReLU"
bottom: "inception_4b/pool_proj"
top: "inception_4b/pool_proj"
}
layer {
name: "inception_4b/output"
type: "Concat"
bottom: "inception_4b/1x1"
bottom: "inception_4b/3x3"
bottom: "inception_4b/5x5"
bottom: "inception_4b/pool_proj"
top: "inception_4b/output"
}
layer {
name: "inception_4c/1x1"
type: "Convolution"
bottom: "inception_4b/output"
top: "inception_4c/1x1"
param {
lr_mult: 1
decay_mult: 1
}
param {
lr_mult: 2
decay_mult: 0
}
convolution_param {
num_output: 128
kernel_size: 1
weight_filler {
type: "xavier"
std: 0.03
}
bias_filler {
type: "constant"
value: 0.2
}
}
}
layer {
name: "inception_4c/relu_1x1"
type: "ReLU"
bottom: "inception_4c/1x1"
top: "inception_4c/1x1"
}
layer {
name: "inception_4c/3x3_reduce"
type: "Convolution"
bottom: "inception_4b/output"
top: "inception_4c/3x3_reduce"
param {
lr_mult: 1
decay_mult: 1
}
param {
lr_mult: 2
decay_mult: 0
}
convolution_param {
num_output: 128
kernel_size: 1
weight_filler {
type: "xavier"
std: 0.09
}
bias_filler {
type: "constant"
value: 0.2
}
}
}
layer {
name: "inception_4c/relu_3x3_reduce"
type: "ReLU"
bottom: "inception_4c/3x3_reduce"
top: "inception_4c/3x3_reduce"
}
layer {
name: "inception_4c/3x3"
type: "Convolution"
bottom: "inception_4c/3x3_reduce"
top: "inception_4c/3x3"
param {
lr_mult: 1
decay_mult: 1
}
param {
lr_mult: 2
decay_mult: 0
}
convolution_param {
num_output: 256
pad: 1
kernel_size: 3
weight_filler {
type: "xavier"
std: 0.03
}
bias_filler {
type: "constant"
value: 0.2
}
}
}
layer {
name: "inception_4c/relu_3x3"
type: "ReLU"
bottom: "inception_4c/3x3"
top: "inception_4c/3x3"
}
layer {
name: "inception_4c/5x5_reduce"
type: "Convolution"
bottom: "inception_4b/output"
top: "inception_4c/5x5_reduce"
param {
lr_mult: 1
decay_mult: 1
}
param {
lr_mult: 2
decay_mult: 0
}
convolution_param {
num_output: 24
kernel_size: 1
weight_filler {
type: "xavier"
std: 0.2
}
bias_filler {
type: "constant"
value: 0.2
}
}
}
layer {
name: "inception_4c/relu_5x5_reduce"
type: "ReLU"
bottom: "inception_4c/5x5_reduce"
top: "inception_4c/5x5_reduce"
}
layer {
name: "inception_4c/5x5"
type: "Convolution"
bottom: "inception_4c/5x5_reduce"
top: "inception_4c/5x5"
param {
lr_mult: 1
decay_mult: 1
}
param {
lr_mult: 2
decay_mult: 0
}
convolution_param {
num_output: 64
pad: 2
kernel_size: 5
weight_filler {
type: "xavier"
std: 0.03
}
bias_filler {
type: "constant"
value: 0.2
}
}
}
layer {
name: "inception_4c/relu_5x5"
type: "ReLU"
bottom: "inception_4c/5x5"
top: "inception_4c/5x5"
}
layer {
name: "inception_4c/pool"
type: "Pooling"
bottom: "inception_4b/output"
top: "inception_4c/pool"
pooling_param {
pool: MAX
kernel_size: 3
stride: 1
pad: 1
}
}
layer {
name: "inception_4c/pool_proj"
type: "Convolution"
bottom: "inception_4c/pool"
top: "inception_4c/pool_proj"
param {
lr_mult: 1
decay_mult: 1
}
param {
lr_mult: 2
decay_mult: 0
}
convolution_param {
num_output: 64
kernel_size: 1
weight_filler {
type: "xavier"
std: 0.1
}
bias_filler {
type: "constant"
value: 0.2
}
}
}
layer {
name: "inception_4c/relu_pool_proj"
type: "ReLU"
bottom: "inception_4c/pool_proj"
top: "inception_4c/pool_proj"
}
layer {
name: "inception_4c/output"
type: "Concat"
bottom: "inception_4c/1x1"
bottom: "inception_4c/3x3"
bottom: "inception_4c/5x5"
bottom: "inception_4c/pool_proj"
top: "inception_4c/output"
}
layer {
name: "inception_4d/1x1"
type: "Convolution"
bottom: "inception_4c/output"
top: "inception_4d/1x1"
param {
lr_mult: 1
decay_mult: 1
}
param {
lr_mult: 2
decay_mult: 0
}
convolution_param {
num_output: 112
kernel_size: 1
weight_filler {
type: "xavier"
std: 0.03
}
bias_filler {
type: "constant"
value: 0.2
}
}
}
layer {
name: "inception_4d/relu_1x1"
type: "ReLU"
bottom: "inception_4d/1x1"
top: "inception_4d/1x1"
}
layer {
name: "inception_4d/3x3_reduce"
type: "Convolution"
bottom: "inception_4c/output"
top: "inception_4d/3x3_reduce"
param {
lr_mult: 1
decay_mult: 1
}
param {
lr_mult: 2
decay_mult: 0
}
convolution_param {
num_output: 144
kernel_size: 1
weight_filler {
type: "xavier"
std: 0.09
}
bias_filler {
type: "constant"
value: 0.2
}
}
}
layer {
name: "inception_4d/relu_3x3_reduce"
type: "ReLU"
bottom: "inception_4d/3x3_reduce"
top: "inception_4d/3x3_reduce"
}
layer {
name: "inception_4d/3x3"
type: "Convolution"
bottom: "inception_4d/3x3_reduce"
top: "inception_4d/3x3"
param {
lr_mult: 1
decay_mult: 1
}
param {
lr_mult: 2
decay_mult: 0
}
convolution_param {
num_output: 288
pad: 1
kernel_size: 3
weight_filler {
type: "xavier"
std: 0.03
}
bias_filler {
type: "constant"
value: 0.2
}
}
}
layer {
name: "inception_4d/relu_3x3"
type: "ReLU"
bottom: "inception_4d/3x3"
top: "inception_4d/3x3"
}
layer {
name: "inception_4d/5x5_reduce"
type: "Convolution"
bottom: "inception_4c/output"
top: "inception_4d/5x5_reduce"
param {
lr_mult: 1
decay_mult: 1
}
param {
lr_mult: 2
decay_mult: 0
}
convolution_param {
num_output: 32
kernel_size: 1
weight_filler {
type: "xavier"
std: 0.2
}
bias_filler {
type: "constant"
value: 0.2
}
}
}
layer {
name: "inception_4d/relu_5x5_reduce"
type: "ReLU"
bottom: "inception_4d/5x5_reduce"
top: "inception_4d/5x5_reduce"
}
layer {
name: "inception_4d/5x5"
type: "Convolution"
bottom: "inception_4d/5x5_reduce"
top: "inception_4d/5x5"
param {
lr_mult: 1
decay_mult: 1
}
param {
lr_mult: 2
decay_mult: 0
}
convolution_param {
num_output: 64
pad: 2
kernel_size: 5
weight_filler {
type: "xavier"
std: 0.03
}
bias_filler {
type: "constant"
value: 0.2
}
}
}
layer {
name: "inception_4d/relu_5x5"
type: "ReLU"
bottom: "inception_4d/5x5"
top: "inception_4d/5x5"
}
layer {
name: "inception_4d/pool"
type: "Pooling"
bottom: "inception_4c/output"
top: "inception_4d/pool"
pooling_param {
pool: MAX
kernel_size: 3
stride: 1
pad: 1
}
}
layer {
name: "inception_4d/pool_proj"
type: "Convolution"
bottom: "inception_4d/pool"
top: "inception_4d/pool_proj"
param {
lr_mult: 1
decay_mult: 1
}
param {
lr_mult: 2
decay_mult: 0
}
convolution_param {
num_output: 64
kernel_size: 1
weight_filler {
type: "xavier"
std: 0.1
}
bias_filler {
type: "constant"
value: 0.2
}
}
}
layer {
name: "inception_4d/relu_pool_proj"
type: "ReLU"
bottom: "inception_4d/pool_proj"
top: "inception_4d/pool_proj"
}
layer {
name: "inception_4d/output"
type: "Concat"
bottom: "inception_4d/1x1"
bottom: "inception_4d/3x3"
bottom: "inception_4d/5x5"
bottom: "inception_4d/pool_proj"
top: "inception_4d/output"
}
layer {
name: "loss2/ave_pool"
type: "Pooling"
bottom: "inception_4d/output"
top: "loss2/ave_pool"
pooling_param {
pool: AVE
kernel_size: 5
stride: 3
}
}
layer {
name: "loss2/conv"
type: "Convolution"
bottom: "loss2/ave_pool"
top: "loss2/conv"
param {
lr_mult: 1
decay_mult: 1
}
param {
lr_mult: 2
decay_mult: 0
}
convolution_param {
num_output: 128
kernel_size: 1
weight_filler {
type: "xavier"
std: 0.08
}
bias_filler {
type: "constant"
value: 0.2
}
}
}
layer {
name: "loss2/relu_conv"
type: "ReLU"
bottom: "loss2/conv"
top: "loss2/conv"
}
layer {
name: "loss2/fc"
type: "InnerProduct"
bottom: "loss2/conv"
top: "loss2/fc"
param {
lr_mult: 1
decay_mult: 1
}
param {
lr_mult: 2
decay_mult: 0
}
inner_product_param {
num_output: 1024
weight_filler {
type: "xavier"
std: 0.02
}
bias_filler {
type: "constant"
value: 0.2
}
}
}
layer {
name: "loss2/relu_fc"
type: "ReLU"
bottom: "loss2/fc"
top: "loss2/fc"
}
layer {
name: "loss2/drop_fc"
type: "Dropout"
bottom: "loss2/fc"
top: "loss2/fc"
dropout_param {
dropout_ratio: 0.7
}
}
layer {
name: "loss2/classifier"
type: "InnerProduct"
bottom: "loss2/fc"
top: "loss2/classifier"
param {
lr_mult: 1
decay_mult: 1
}
param {
lr_mult: 2
decay_mult: 0
}
inner_product_param {
num_output: 3
weight_filler {
type: "xavier"
std: 0.0009765625
}
bias_filler {
type: "constant"
value: 0
}
}
}
layer {
name: "loss2/loss"
type: "SoftmaxWithLoss"
bottom: "loss2/classifier"
bottom: "label"
top: "loss2/loss"
loss_weight: 0.3
}
layer {
name: "inception_4e/1x1"
type: "Convolution"
bottom: "inception_4d/output"
top: "inception_4e/1x1"
param {
lr_mult: 1
decay_mult: 1
}
param {
lr_mult: 2
decay_mult: 0
}
convolution_param {
num_output: 256
kernel_size: 1
weight_filler {
type: "xavier"
std: 0.03
}
bias_filler {
type: "constant"
value: 0.2
}
}
}
layer {
name: "inception_4e/relu_1x1"
type: "ReLU"
bottom: "inception_4e/1x1"
top: "inception_4e/1x1"
}
layer {
name: "inception_4e/3x3_reduce"
type: "Convolution"
bottom: "inception_4d/output"
top: "inception_4e/3x3_reduce"
param {
lr_mult: 1
decay_mult: 1
}
param {
lr_mult: 2
decay_mult: 0
}
convolution_param {
num_output: 160
kernel_size: 1
weight_filler {
type: "xavier"
std: 0.09
}
bias_filler {
type: "constant"
value: 0.2
}
}
}
layer {
name: "inception_4e/relu_3x3_reduce"
type: "ReLU"
bottom: "inception_4e/3x3_reduce"
top: "inception_4e/3x3_reduce"
}
layer {
name: "inception_4e/3x3"
type: "Convolution"
bottom: "inception_4e/3x3_reduce"
top: "inception_4e/3x3"
param {
lr_mult: 1
decay_mult: 1
}
param {
lr_mult: 2
decay_mult: 0
}
convolution_param {
num_output: 320
pad: 1
kernel_size: 3
weight_filler {
type: "xavier"
std: 0.03
}
bias_filler {
type: "constant"
value: 0.2
}
}
}
layer {
name: "inception_4e/relu_3x3"
type: "ReLU"
bottom: "inception_4e/3x3"
top: "inception_4e/3x3"
}
layer {
name: "inception_4e/5x5_reduce"
type: "Convolution"
bottom: "inception_4d/output"
top: "inception_4e/5x5_reduce"
param {
lr_mult: 1
decay_mult: 1
}
param {
lr_mult: 2
decay_mult: 0
}
convolution_param {
num_output: 32
kernel_size: 1
weight_filler {
type: "xavier"
std: 0.2
}
bias_filler {
type: "constant"
value: 0.2
}
}
}
layer {
name: "inceptio
I0205 01:22:49.796475   178 layer_factory.hpp:77] Creating layer train-data
I0205 01:22:49.798853   178 net.cpp:94] Creating Layer train-data
I0205 01:22:49.798878   178 net.cpp:409] train-data -> data
I0205 01:22:49.799656   181 db_lmdb.cpp:35] Opened lmdb /opt/DIGITS/digits/jobs/20190205-011337-459c/train_db
I0205 01:22:49.799733   178 net.cpp:409] train-data -> label
I0205 01:22:49.799765   178 data_transformer.cpp:25] Loading mean file from: /opt/DIGITS/digits/jobs/20190205-011337-459c/mean.binaryproto
I0205 01:22:49.820722   178 data_layer.cpp:78] ReshapePrefetch 32, 3, 224, 224
I0205 01:22:49.820778   178 data_layer.cpp:83] output data size: 32,3,224,224
I0205 01:22:49.860822   178 net.cpp:144] Setting up train-data
I0205 01:22:49.860864   178 net.cpp:151] Top shape: 32 3 224 224 (4816896)
I0205 01:22:49.860872   178 net.cpp:151] Top shape: 32 (32)
I0205 01:22:49.860878   178 net.cpp:159] Memory required for data: 19267712
I0205 01:22:49.860896   178 layer_factory.hpp:77] Creating layer label_train-data_1_split
I0205 01:22:49.860924   178 net.cpp:94] Creating Layer label_train-data_1_split
I0205 01:22:49.860936   178 net.cpp:435] label_train-data_1_split <- label
I0205 01:22:49.860967   178 net.cpp:409] label_train-data_1_split -> label_train-data_1_split_0
I0205 01:22:49.860999   178 net.cpp:409] label_train-data_1_split -> label_train-data_1_split_1
I0205 01:22:49.861053   178 net.cpp:409] label_train-data_1_split -> label_train-data_1_split_2
I0205 01:22:49.861156   178 net.cpp:144] Setting up label_train-data_1_split
I0205 01:22:49.861166   178 net.cpp:151] Top shape: 32 (32)
I0205 01:22:49.861173   178 net.cpp:151] Top shape: 32 (32)
I0205 01:22:49.861181   178 net.cpp:151] Top shape: 32 (32)
I0205 01:22:49.861186   178 net.cpp:159] Memory required for data: 19268096
I0205 01:22:49.861192   178 layer_factory.hpp:77] Creating layer conv1/7x7_s2
I0205 01:22:49.861229   178 net.cpp:94] Creating Layer conv1/7x7_s2
I0205 01:22:49.861238   178 net.cpp:435] conv1/7x7_s2 <- data
I0205 01:22:49.861250   178 net.cpp:409] conv1/7x7_s2 -> conv1/7x7_s2
I0205 01:22:49.863847   178 net.cpp:144] Setting up conv1/7x7_s2
I0205 01:22:49.863873   178 net.cpp:151] Top shape: 32 64 112 112 (25690112)
I0205 01:22:49.863879   178 net.cpp:159] Memory required for data: 122028544
I0205 01:22:49.863905   178 layer_factory.hpp:77] Creating layer conv1/relu_7x7
I0205 01:22:49.863919   178 net.cpp:94] Creating Layer conv1/relu_7x7
I0205 01:22:49.863926   178 net.cpp:435] conv1/relu_7x7 <- conv1/7x7_s2
I0205 01:22:49.863937   178 net.cpp:396] conv1/relu_7x7 -> conv1/7x7_s2 (in-place)
I0205 01:22:49.863965   178 net.cpp:144] Setting up conv1/relu_7x7
I0205 01:22:49.863976   178 net.cpp:151] Top shape: 32 64 112 112 (25690112)
I0205 01:22:49.863981   178 net.cpp:159] Memory required for data: 224788992
I0205 01:22:49.863987   178 layer_factory.hpp:77] Creating layer pool1/3x3_s2
I0205 01:22:49.864002   178 net.cpp:94] Creating Layer pool1/3x3_s2
I0205 01:22:49.864009   178 net.cpp:435] pool1/3x3_s2 <- conv1/7x7_s2
I0205 01:22:49.864017   178 net.cpp:409] pool1/3x3_s2 -> pool1/3x3_s2
I0205 01:22:49.864087   178 net.cpp:144] Setting up pool1/3x3_s2
I0205 01:22:49.864099   178 net.cpp:151] Top shape: 32 64 56 56 (6422528)
I0205 01:22:49.864106   178 net.cpp:159] Memory required for data: 250479104
I0205 01:22:49.864112   178 layer_factory.hpp:77] Creating layer pool1/norm1
I0205 01:22:49.864127   178 net.cpp:94] Creating Layer pool1/norm1
I0205 01:22:49.864135   178 net.cpp:435] pool1/norm1 <- pool1/3x3_s2
I0205 01:22:49.864145   178 net.cpp:409] pool1/norm1 -> pool1/norm1
I0205 01:22:49.864202   178 net.cpp:144] Setting up pool1/norm1
I0205 01:22:49.864212   178 net.cpp:151] Top shape: 32 64 56 56 (6422528)
I0205 01:22:49.864217   178 net.cpp:159] Memory required for data: 276169216
I0205 01:22:49.864223   178 layer_factory.hpp:77] Creating layer conv2/3x3_reduce
I0205 01:22:49.864240   178 net.cpp:94] Creating Layer conv2/3x3_reduce
I0205 01:22:49.864248   178 net.cpp:435] conv2/3x3_reduce <- pool1/norm1
I0205 01:22:49.864259   178 net.cpp:409] conv2/3x3_reduce -> conv2/3x3_reduce
I0205 01:22:49.868279   178 net.cpp:144] Setting up conv2/3x3_reduce
I0205 01:22:49.868311   178 net.cpp:151] Top shape: 32 64 56 56 (6422528)
I0205 01:22:49.868319   178 net.cpp:159] Memory required for data: 301859328
I0205 01:22:49.868346   178 layer_factory.hpp:77] Creating layer conv2/relu_3x3_reduce
I0205 01:22:49.868360   178 net.cpp:94] Creating Layer conv2/relu_3x3_reduce
I0205 01:22:49.868368   178 net.cpp:435] conv2/relu_3x3_reduce <- conv2/3x3_reduce
I0205 01:22:49.868378   178 net.cpp:396] conv2/relu_3x3_reduce -> conv2/3x3_reduce (in-place)
I0205 01:22:49.868392   178 net.cpp:144] Setting up conv2/relu_3x3_reduce
I0205 01:22:49.868402   178 net.cpp:151] Top shape: 32 64 56 56 (6422528)
I0205 01:22:49.868408   178 net.cpp:159] Memory required for data: 327549440
I0205 01:22:49.868414   178 layer_factory.hpp:77] Creating layer conv2/3x3
I0205 01:22:49.868433   178 net.cpp:94] Creating Layer conv2/3x3
I0205 01:22:49.868439   178 net.cpp:435] conv2/3x3 <- conv2/3x3_reduce
I0205 01:22:49.868449   178 net.cpp:409] conv2/3x3 -> conv2/3x3
I0205 01:22:49.870709   178 net.cpp:144] Setting up conv2/3x3
I0205 01:22:49.870736   178 net.cpp:151] Top shape: 32 192 56 56 (19267584)
I0205 01:22:49.870743   178 net.cpp:159] Memory required for data: 404619776
I0205 01:22:49.870761   178 layer_factory.hpp:77] Creating layer conv2/relu_3x3
I0205 01:22:49.870796   178 net.cpp:94] Creating Layer conv2/relu_3x3
I0205 01:22:49.870805   178 net.cpp:435] conv2/relu_3x3 <- conv2/3x3
I0205 01:22:49.870816   178 net.cpp:396] conv2/relu_3x3 -> conv2/3x3 (in-place)
I0205 01:22:49.870832   178 net.cpp:144] Setting up conv2/relu_3x3
I0205 01:22:49.870841   178 net.cpp:151] Top shape: 32 192 56 56 (19267584)
I0205 01:22:49.870846   178 net.cpp:159] Memory required for data: 481690112
I0205 01:22:49.870852   178 layer_factory.hpp:77] Creating layer conv2/norm2
I0205 01:22:49.870863   178 net.cpp:94] Creating Layer conv2/norm2
I0205 01:22:49.870870   178 net.cpp:435] conv2/norm2 <- conv2/3x3
I0205 01:22:49.870879   178 net.cpp:409] conv2/norm2 -> conv2/norm2
I0205 01:22:49.870930   178 net.cpp:144] Setting up conv2/norm2
I0205 01:22:49.870940   178 net.cpp:151] Top shape: 32 192 56 56 (19267584)
I0205 01:22:49.870945   178 net.cpp:159] Memory required for data: 558760448
I0205 01:22:49.870952   178 layer_factory.hpp:77] Creating layer pool2/3x3_s2
I0205 01:22:49.870961   178 net.cpp:94] Creating Layer pool2/3x3_s2
I0205 01:22:49.870968   178 net.cpp:435] pool2/3x3_s2 <- conv2/norm2
I0205 01:22:49.870978   178 net.cpp:409] pool2/3x3_s2 -> pool2/3x3_s2
I0205 01:22:49.871019   178 net.cpp:144] Setting up pool2/3x3_s2
I0205 01:22:49.871031   178 net.cpp:151] Top shape: 32 192 28 28 (4816896)
I0205 01:22:49.871037   178 net.cpp:159] Memory required for data: 578028032
I0205 01:22:49.871062   178 layer_factory.hpp:77] Creating layer pool2/3x3_s2_pool2/3x3_s2_0_split
I0205 01:22:49.871075   178 net.cpp:94] Creating Layer pool2/3x3_s2_pool2/3x3_s2_0_split
I0205 01:22:49.871081   178 net.cpp:435] pool2/3x3_s2_pool2/3x3_s2_0_split <- pool2/3x3_s2
I0205 01:22:49.871093   178 net.cpp:409] pool2/3x3_s2_pool2/3x3_s2_0_split -> pool2/3x3_s2_pool2/3x3_s2_0_split_0
I0205 01:22:49.871103   178 net.cpp:409] pool2/3x3_s2_pool2/3x3_s2_0_split -> pool2/3x3_s2_pool2/3x3_s2_0_split_1
I0205 01:22:49.871114   178 net.cpp:409] pool2/3x3_s2_pool2/3x3_s2_0_split -> pool2/3x3_s2_pool2/3x3_s2_0_split_2
I0205 01:22:49.871122   178 net.cpp:409] pool2/3x3_s2_pool2/3x3_s2_0_split -> pool2/3x3_s2_pool2/3x3_s2_0_split_3
I0205 01:22:49.871182   178 net.cpp:144] Setting up pool2/3x3_s2_pool2/3x3_s2_0_split
I0205 01:22:49.871192   178 net.cpp:151] Top shape: 32 192 28 28 (4816896)
I0205 01:22:49.871199   178 net.cpp:151] Top shape: 32 192 28 28 (4816896)
I0205 01:22:49.871206   178 net.cpp:151] Top shape: 32 192 28 28 (4816896)
I0205 01:22:49.871212   178 net.cpp:151] Top shape: 32 192 28 28 (4816896)
I0205 01:22:49.871217   178 net.cpp:159] Memory required for data: 655098368
I0205 01:22:49.871223   178 layer_factory.hpp:77] Creating layer inception_3a/1x1
I0205 01:22:49.871239   178 net.cpp:94] Creating Layer inception_3a/1x1
I0205 01:22:49.871246   178 net.cpp:435] inception_3a/1x1 <- pool2/3x3_s2_pool2/3x3_s2_0_split_0
I0205 01:22:49.871259   178 net.cpp:409] inception_3a/1x1 -> inception_3a/1x1
I0205 01:22:49.872802   178 net.cpp:144] Setting up inception_3a/1x1
I0205 01:22:49.872840   178 net.cpp:151] Top shape: 32 64 28 28 (1605632)
I0205 01:22:49.872848   178 net.cpp:159] Memory required for data: 661520896
I0205 01:22:49.872864   178 layer_factory.hpp:77] Creating layer inception_3a/relu_1x1
I0205 01:22:49.872881   178 net.cpp:94] Creating Layer inception_3a/relu_1x1
I0205 01:22:49.872890   178 net.cpp:435] inception_3a/relu_1x1 <- inception_3a/1x1
I0205 01:22:49.872905   178 net.cpp:396] inception_3a/relu_1x1 -> inception_3a/1x1 (in-place)
I0205 01:22:49.872922   178 net.cpp:144] Setting up inception_3a/relu_1x1
I0205 01:22:49.872931   178 net.cpp:151] Top shape: 32 64 28 28 (1605632)
I0205 01:22:49.872937   178 net.cpp:159] Memory required for data: 667943424
I0205 01:22:49.872944   178 layer_factory.hpp:77] Creating layer inception_3a/3x3_reduce
I0205 01:22:49.872962   178 net.cpp:94] Creating Layer inception_3a/3x3_reduce
I0205 01:22:49.872970   178 net.cpp:435] inception_3a/3x3_reduce <- pool2/3x3_s2_pool2/3x3_s2_0_split_1
I0205 01:22:49.872982   178 net.cpp:409] inception_3a/3x3_reduce -> inception_3a/3x3_reduce
I0205 01:22:49.874490   178 net.cpp:144] Setting up inception_3a/3x3_reduce
I0205 01:22:49.874512   178 net.cpp:151] Top shape: 32 96 28 28 (2408448)
I0205 01:22:49.874518   178 net.cpp:159] Memory required for data: 677577216
I0205 01:22:49.874533   178 layer_factory.hpp:77] Creating layer inception_3a/relu_3x3_reduce
I0205 01:22:49.874549   178 net.cpp:94] Creating Layer inception_3a/relu_3x3_reduce
I0205 01:22:49.874557   178 net.cpp:435] inception_3a/relu_3x3_reduce <- inception_3a/3x3_reduce
I0205 01:22:49.874567   178 net.cpp:396] inception_3a/relu_3x3_reduce -> inception_3a/3x3_reduce (in-place)
I0205 01:22:49.874579   178 net.cpp:144] Setting up inception_3a/relu_3x3_reduce
I0205 01:22:49.874586   178 net.cpp:151] Top shape: 32 96 28 28 (2408448)
I0205 01:22:49.874593   178 net.cpp:159] Memory required for data: 687211008
I0205 01:22:49.874598   178 layer_factory.hpp:77] Creating layer inception_3a/3x3
I0205 01:22:49.874611   178 net.cpp:94] Creating Layer inception_3a/3x3
I0205 01:22:49.874617   178 net.cpp:435] inception_3a/3x3 <- inception_3a/3x3_reduce
I0205 01:22:49.874627   178 net.cpp:409] inception_3a/3x3 -> inception_3a/3x3
I0205 01:22:49.875622   178 net.cpp:144] Setting up inception_3a/3x3
I0205 01:22:49.875638   178 net.cpp:151] Top shape: 32 128 28 28 (3211264)
I0205 01:22:49.875645   178 net.cpp:159] Memory required for data: 700056064
I0205 01:22:49.875654   178 layer_factory.hpp:77] Creating layer inception_3a/relu_3x3
I0205 01:22:49.875665   178 net.cpp:94] Creating Layer inception_3a/relu_3x3
I0205 01:22:49.875672   178 net.cpp:435] inception_3a/relu_3x3 <- inception_3a/3x3
I0205 01:22:49.875681   178 net.cpp:396] inception_3a/relu_3x3 -> inception_3a/3x3 (in-place)
I0205 01:22:49.875692   178 net.cpp:144] Setting up inception_3a/relu_3x3
I0205 01:22:49.875700   178 net.cpp:151] Top shape: 32 128 28 28 (3211264)
I0205 01:22:49.875706   178 net.cpp:159] Memory required for data: 712901120
I0205 01:22:49.875712   178 layer_factory.hpp:77] Creating layer inception_3a/5x5_reduce
I0205 01:22:49.875725   178 net.cpp:94] Creating Layer inception_3a/5x5_reduce
I0205 01:22:49.875731   178 net.cpp:435] inception_3a/5x5_reduce <- pool2/3x3_s2_pool2/3x3_s2_0_split_2
I0205 01:22:49.875742   178 net.cpp:409] inception_3a/5x5_reduce -> inception_3a/5x5_reduce
I0205 01:22:49.876000   178 net.cpp:144] Setting up inception_3a/5x5_reduce
I0205 01:22:49.876013   178 net.cpp:151] Top shape: 32 16 28 28 (401408)
I0205 01:22:49.876019   178 net.cpp:159] Memory required for data: 714506752
I0205 01:22:49.876026   178 layer_factory.hpp:77] Creating layer inception_3a/relu_5x5_reduce
I0205 01:22:49.876036   178 net.cpp:94] Creating Layer inception_3a/relu_5x5_reduce
I0205 01:22:49.876055   178 net.cpp:435] inception_3a/relu_5x5_reduce <- inception_3a/5x5_reduce
I0205 01:22:49.876065   178 net.cpp:396] inception_3a/relu_5x5_reduce -> inception_3a/5x5_reduce (in-place)
I0205 01:22:49.876075   178 net.cpp:144] Setting up inception_3a/relu_5x5_reduce
I0205 01:22:49.876082   178 net.cpp:151] Top shape: 32 16 28 28 (401408)
I0205 01:22:49.876088   178 net.cpp:159] Memory required for data: 716112384
I0205 01:22:49.876094   178 layer_factory.hpp:77] Creating layer inception_3a/5x5
I0205 01:22:49.876106   178 net.cpp:94] Creating Layer inception_3a/5x5
I0205 01:22:49.876114   178 net.cpp:435] inception_3a/5x5 <- inception_3a/5x5_reduce
I0205 01:22:49.876123   178 net.cpp:409] inception_3a/5x5 -> inception_3a/5x5
I0205 01:22:49.876426   178 net.cpp:144] Setting up inception_3a/5x5
I0205 01:22:49.876440   178 net.cpp:151] Top shape: 32 32 28 28 (802816)
I0205 01:22:49.876444   178 net.cpp:159] Memory required for data: 719323648
I0205 01:22:49.876453   178 layer_factory.hpp:77] Creating layer inception_3a/relu_5x5
I0205 01:22:49.876462   178 net.cpp:94] Creating Layer inception_3a/relu_5x5
I0205 01:22:49.876469   178 net.cpp:435] inception_3a/relu_5x5 <- inception_3a/5x5
I0205 01:22:49.876477   178 net.cpp:396] inception_3a/relu_5x5 -> inception_3a/5x5 (in-place)
I0205 01:22:49.876487   178 net.cpp:144] Setting up inception_3a/relu_5x5
I0205 01:22:49.876524   178 net.cpp:151] Top shape: 32 32 28 28 (802816)
I0205 01:22:49.876530   178 net.cpp:159] Memory required for data: 722534912
I0205 01:22:49.876536   178 layer_factory.hpp:77] Creating layer inception_3a/pool
I0205 01:22:49.876546   178 net.cpp:94] Creating Layer inception_3a/pool
I0205 01:22:49.876554   178 net.cpp:435] inception_3a/pool <- pool2/3x3_s2_pool2/3x3_s2_0_split_3
I0205 01:22:49.876561   178 net.cpp:409] inception_3a/pool -> inception_3a/pool
I0205 01:22:49.876605   178 net.cpp:144] Setting up inception_3a/pool
I0205 01:22:49.876616   178 net.cpp:151] Top shape: 32 192 28 28 (4816896)
I0205 01:22:49.876621   178 net.cpp:159] Memory required for data: 741802496
I0205 01:22:49.876628   178 layer_factory.hpp:77] Creating layer inception_3a/pool_proj
I0205 01:22:49.876641   178 net.cpp:94] Creating Layer inception_3a/pool_proj
I0205 01:22:49.876646   178 net.cpp:435] inception_3a/pool_proj <- inception_3a/pool
I0205 01:22:49.876657   178 net.cpp:409] inception_3a/pool_proj -> inception_3a/pool_proj
I0205 01:22:49.876906   178 net.cpp:144] Setting up inception_3a/pool_proj
I0205 01:22:49.876919   178 net.cpp:151] Top shape: 32 32 28 28 (802816)
I0205 01:22:49.876924   178 net.cpp:159] Memory required for data: 745013760
I0205 01:22:49.876938   178 layer_factory.hpp:77] Creating layer inception_3a/relu_pool_proj
I0205 01:22:49.876948   178 net.cpp:94] Creating Layer inception_3a/relu_pool_proj
I0205 01:22:49.876955   178 net.cpp:435] inception_3a/relu_pool_proj <- inception_3a/pool_proj
I0205 01:22:49.876965   178 net.cpp:396] inception_3a/relu_pool_proj -> inception_3a/pool_proj (in-place)
I0205 01:22:49.876976   178 net.cpp:144] Setting up inception_3a/relu_pool_proj
I0205 01:22:49.876982   178 net.cpp:151] Top shape: 32 32 28 28 (802816)
I0205 01:22:49.876988   178 net.cpp:159] Memory required for data: 748225024
I0205 01:22:49.876994   178 layer_factory.hpp:77] Creating layer inception_3a/output
I0205 01:22:49.877003   178 net.cpp:94] Creating Layer inception_3a/output
I0205 01:22:49.877009   178 net.cpp:435] inception_3a/output <- inception_3a/1x1
I0205 01:22:49.877017   178 net.cpp:435] inception_3a/output <- inception_3a/3x3
I0205 01:22:49.877024   178 net.cpp:435] inception_3a/output <- inception_3a/5x5
I0205 01:22:49.877030   178 net.cpp:435] inception_3a/output <- inception_3a/pool_proj
I0205 01:22:49.877053   178 net.cpp:409] inception_3a/output -> inception_3a/output
I0205 01:22:49.877086   178 net.cpp:144] Setting up inception_3a/output
I0205 01:22:49.877095   178 net.cpp:151] Top shape: 32 256 28 28 (6422528)
I0205 01:22:49.877101   178 net.cpp:159] Memory required for data: 773915136
I0205 01:22:49.877108   178 layer_factory.hpp:77] Creating layer inception_3a/output_inception_3a/output_0_split
I0205 01:22:49.877117   178 net.cpp:94] Creating Layer inception_3a/output_inception_3a/output_0_split
I0205 01:22:49.877125   178 net.cpp:435] inception_3a/output_inception_3a/output_0_split <- inception_3a/output
I0205 01:22:49.877133   178 net.cpp:409] inception_3a/output_inception_3a/output_0_split -> inception_3a/output_inception_3a/output_0_split_0
I0205 01:22:49.877143   178 net.cpp:409] inception_3a/output_inception_3a/output_0_split -> inception_3a/output_inception_3a/output_0_split_1
I0205 01:22:49.877154   178 net.cpp:409] inception_3a/output_inception_3a/output_0_split -> inception_3a/output_inception_3a/output_0_split_2
I0205 01:22:49.877164   178 net.cpp:409] inception_3a/output_inception_3a/output_0_split -> inception_3a/output_inception_3a/output_0_split_3
I0205 01:22:49.877221   178 net.cpp:144] Setting up inception_3a/output_inception_3a/output_0_split
I0205 01:22:49.877231   178 net.cpp:151] Top shape: 32 256 28 28 (6422528)
I0205 01:22:49.877238   178 net.cpp:151] Top shape: 32 256 28 28 (6422528)
I0205 01:22:49.877244   178 net.cpp:151] Top shape: 32 256 28 28 (6422528)
I0205 01:22:49.877251   178 net.cpp:151] Top shape: 32 256 28 28 (6422528)
I0205 01:22:49.877257   178 net.cpp:159] Memory required for data: 876675584
I0205 01:22:49.877264   178 layer_factory.hpp:77] Creating layer inception_3b/1x1
I0205 01:22:49.877290   178 net.cpp:94] Creating Layer inception_3b/1x1
I0205 01:22:49.877296   178 net.cpp:435] inception_3b/1x1 <- inception_3a/output_inception_3a/output_0_split_0
I0205 01:22:49.877306   178 net.cpp:409] inception_3b/1x1 -> inception_3b/1x1
I0205 01:22:49.877739   178 net.cpp:144] Setting up inception_3b/1x1
I0205 01:22:49.877768   178 net.cpp:151] Top shape: 32 128 28 28 (3211264)
I0205 01:22:49.877774   178 net.cpp:159] Memory required for data: 889520640
I0205 01:22:49.877781   178 layer_factory.hpp:77] Creating layer inception_3b/relu_1x1
I0205 01:22:49.877791   178 net.cpp:94] Creating Layer inception_3b/relu_1x1
I0205 01:22:49.877799   178 net.cpp:435] inception_3b/relu_1x1 <- inception_3b/1x1
I0205 01:22:49.877806   178 net.cpp:396] inception_3b/relu_1x1 -> inception_3b/1x1 (in-place)
I0205 01:22:49.877816   178 net.cpp:144] Setting up inception_3b/relu_1x1
I0205 01:22:49.877825   178 net.cpp:151] Top shape: 32 128 28 28 (3211264)
I0205 01:22:49.877830   178 net.cpp:159] Memory required for data: 902365696
I0205 01:22:49.877835   178 layer_factory.hpp:77] Creating layer inception_3b/3x3_reduce
I0205 01:22:49.877846   178 net.cpp:94] Creating Layer inception_3b/3x3_reduce
I0205 01:22:49.877852   178 net.cpp:435] inception_3b/3x3_reduce <- inception_3a/output_inception_3a/output_0_split_1
I0205 01:22:49.877864   178 net.cpp:409] inception_3b/3x3_reduce -> inception_3b/3x3_reduce
I0205 01:22:49.878283   178 net.cpp:144] Setting up inception_3b/3x3_reduce
I0205 01:22:49.878296   178 net.cpp:151] Top shape: 32 128 28 28 (3211264)
I0205 01:22:49.878302   178 net.cpp:159] Memory required for data: 915210752
I0205 01:22:49.878311   178 layer_factory.hpp:77] Creating layer inception_3b/relu_3x3_reduce
I0205 01:22:49.878320   178 net.cpp:94] Creating Layer inception_3b/relu_3x3_reduce
I0205 01:22:49.878326   178 net.cpp:435] inception_3b/relu_3x3_reduce <- inception_3b/3x3_reduce
I0205 01:22:49.878335   178 net.cpp:396] inception_3b/relu_3x3_reduce -> inception_3b/3x3_reduce (in-place)
I0205 01:22:49.878345   178 net.cpp:144] Setting up inception_3b/relu_3x3_reduce
I0205 01:22:49.878353   178 net.cpp:151] Top shape: 32 128 28 28 (3211264)
I0205 01:22:49.878367   178 net.cpp:159] Memory required for data: 928055808
I0205 01:22:49.878374   178 layer_factory.hpp:77] Creating layer inception_3b/3x3
I0205 01:22:49.878391   178 net.cpp:94] Creating Layer inception_3b/3x3
I0205 01:22:49.878397   178 net.cpp:435] inception_3b/3x3 <- inception_3b/3x3_reduce
I0205 01:22:49.878407   178 net.cpp:409] inception_3b/3x3 -> inception_3b/3x3
I0205 01:22:49.889315   178 net.cpp:144] Setting up inception_3b/3x3
I0205 01:22:49.889364   178 net.cpp:151] Top shape: 32 192 28 28 (4816896)
I0205 01:22:49.889370   178 net.cpp:159] Memory required for data: 947323392
I0205 01:22:49.889386   178 layer_factory.hpp:77] Creating layer inception_3b/relu_3x3
I0205 01:22:49.889405   178 net.cpp:94] Creating Layer inception_3b/relu_3x3
I0205 01:22:49.889415   178 net.cpp:435] inception_3b/relu_3x3 <- inception_3b/3x3
I0205 01:22:49.889428   178 net.cpp:396] inception_3b/relu_3x3 -> inception_3b/3x3 (in-place)
I0205 01:22:49.889448   178 net.cpp:144] Setting up inception_3b/relu_3x3
I0205 01:22:49.889457   178 net.cpp:151] Top shape: 32 192 28 28 (4816896)
I0205 01:22:49.889463   178 net.cpp:159] Memory required for data: 966590976
I0205 01:22:49.889469   178 layer_factory.hpp:77] Creating layer inception_3b/5x5_reduce
I0205 01:22:49.889487   178 net.cpp:94] Creating Layer inception_3b/5x5_reduce
I0205 01:22:49.889494   178 net.cpp:435] inception_3b/5x5_reduce <- inception_3a/output_inception_3a/output_0_split_2
I0205 01:22:49.889506   178 net.cpp:409] inception_3b/5x5_reduce -> inception_3b/5x5_reduce
I0205 01:22:49.889818   178 net.cpp:144] Setting up inception_3b/5x5_reduce
I0205 01:22:49.889832   178 net.cpp:151] Top shape: 32 32 28 28 (802816)
I0205 01:22:49.889839   178 net.cpp:159] Memory required for data: 969802240
I0205 01:22:49.889848   178 layer_factory.hpp:77] Creating layer inception_3b/relu_5x5_reduce
I0205 01:22:49.889880   178 net.cpp:94] Creating Layer inception_3b/relu_5x5_reduce
I0205 01:22:49.889889   178 net.cpp:435] inception_3b/relu_5x5_reduce <- inception_3b/5x5_reduce
I0205 01:22:49.889899   178 net.cpp:396] inception_3b/relu_5x5_reduce -> inception_3b/5x5_reduce (in-place)
I0205 01:22:49.889909   178 net.cpp:144] Setting up inception_3b/relu_5x5_reduce
I0205 01:22:49.889917   178 net.cpp:151] Top shape: 32 32 28 28 (802816)
I0205 01:22:49.889923   178 net.cpp:159] Memory required for data: 973013504
I0205 01:22:49.889930   178 layer_factory.hpp:77] Creating layer inception_3b/5x5
I0205 01:22:49.889940   178 net.cpp:94] Creating Layer inception_3b/5x5
I0205 01:22:49.889947   178 net.cpp:435] inception_3b/5x5 <- inception_3b/5x5_reduce
I0205 01:22:49.889958   178 net.cpp:409] inception_3b/5x5 -> inception_3b/5x5
I0205 01:22:49.893401   178 net.cpp:144] Setting up inception_3b/5x5
I0205 01:22:49.893429   178 net.cpp:151] Top shape: 32 96 28 28 (2408448)
I0205 01:22:49.893435   178 net.cpp:159] Memory required for data: 982647296
I0205 01:22:49.893447   178 layer_factory.hpp:77] Creating layer inception_3b/relu_5x5
I0205 01:22:49.893460   178 net.cpp:94] Creating Layer inception_3b/relu_5x5
I0205 01:22:49.893468   178 net.cpp:435] inception_3b/relu_5x5 <- inception_3b/5x5
I0205 01:22:49.893479   178 net.cpp:396] inception_3b/relu_5x5 -> inception_3b/5x5 (in-place)
I0205 01:22:49.893493   178 net.cpp:144] Setting up inception_3b/relu_5x5
I0205 01:22:49.893501   178 net.cpp:151] Top shape: 32 96 28 28 (2408448)
I0205 01:22:49.893507   178 net.cpp:159] Memory required for data: 992281088
I0205 01:22:49.893514   178 layer_factory.hpp:77] Creating layer inception_3b/pool
I0205 01:22:49.893525   178 net.cpp:94] Creating Layer inception_3b/pool
I0205 01:22:49.893532   178 net.cpp:435] inception_3b/pool <- inception_3a/output_inception_3a/output_0_split_3
I0205 01:22:49.893541   178 net.cpp:409] inception_3b/pool -> inception_3b/pool
I0205 01:22:49.893592   178 net.cpp:144] Setting up inception_3b/pool
I0205 01:22:49.893602   178 net.cpp:151] Top shape: 32 256 28 28 (6422528)
I0205 01:22:49.893609   178 net.cpp:159] Memory required for data: 1017971200
I0205 01:22:49.893615   178 layer_factory.hpp:77] Creating layer inception_3b/pool_proj
I0205 01:22:49.893630   178 net.cpp:94] Creating Layer inception_3b/pool_proj
I0205 01:22:49.893637   178 net.cpp:435] inception_3b/pool_proj <- inception_3b/pool
I0205 01:22:49.893649   178 net.cpp:409] inception_3b/pool_proj -> inception_3b/pool_proj
I0205 01:22:49.894032   178 net.cpp:144] Setting up inception_3b/pool_proj
I0205 01:22:49.894057   178 net.cpp:151] Top shape: 32 64 28 28 (1605632)
I0205 01:22:49.894064   178 net.cpp:159] Memory required for data: 1024393728
I0205 01:22:49.894073   178 layer_factory.hpp:77] Creating layer inception_3b/relu_pool_proj
I0205 01:22:49.894085   178 net.cpp:94] Creating Layer inception_3b/relu_pool_proj
I0205 01:22:49.894093   178 net.cpp:435] inception_3b/relu_pool_proj <- inception_3b/pool_proj
I0205 01:22:49.894104   178 net.cpp:396] inception_3b/relu_pool_proj -> inception_3b/pool_proj (in-place)
I0205 01:22:49.894115   178 net.cpp:144] Setting up inception_3b/relu_pool_proj
I0205 01:22:49.894122   178 net.cpp:151] Top shape: 32 64 28 28 (1605632)
I0205 01:22:49.894129   178 net.cpp:159] Memory required for data: 1030816256
I0205 01:22:49.894134   178 layer_factory.hpp:77] Creating layer inception_3b/output
I0205 01:22:49.894145   178 net.cpp:94] Creating Layer inception_3b/output
I0205 01:22:49.894152   178 net.cpp:435] inception_3b/output <- inception_3b/1x1
I0205 01:22:49.894160   178 net.cpp:435] inception_3b/output <- inception_3b/3x3
I0205 01:22:49.894168   178 net.cpp:435] inception_3b/output <- inception_3b/5x5
I0205 01:22:49.894176   178 net.cpp:435] inception_3b/output <- inception_3b/pool_proj
I0205 01:22:49.894184   178 net.cpp:409] inception_3b/output -> inception_3b/output
I0205 01:22:49.894220   178 net.cpp:144] Setting up inception_3b/output
I0205 01:22:49.894229   178 net.cpp:151] Top shape: 32 480 28 28 (12042240)
I0205 01:22:49.894258   178 net.cpp:159] Memory required for data: 1078985216
I0205 01:22:49.894264   178 layer_factory.hpp:77] Creating layer pool3/3x3_s2
I0205 01:22:49.894275   178 net.cpp:94] Creating Layer pool3/3x3_s2
I0205 01:22:49.894282   178 net.cpp:435] pool3/3x3_s2 <- inception_3b/output
I0205 01:22:49.894292   178 net.cpp:409] pool3/3x3_s2 -> pool3/3x3_s2
I0205 01:22:49.894345   178 net.cpp:144] Setting up pool3/3x3_s2
I0205 01:22:49.894356   178 net.cpp:151] Top shape: 32 480 14 14 (3010560)
I0205 01:22:49.894361   178 net.cpp:159] Memory required for data: 1091027456
I0205 01:22:49.894368   178 layer_factory.hpp:77] Creating layer pool3/3x3_s2_pool3/3x3_s2_0_split
I0205 01:22:49.894379   178 net.cpp:94] Creating Layer pool3/3x3_s2_pool3/3x3_s2_0_split
I0205 01:22:49.894387   178 net.cpp:435] pool3/3x3_s2_pool3/3x3_s2_0_split <- pool3/3x3_s2
I0205 01:22:49.894397   178 net.cpp:409] pool3/3x3_s2_pool3/3x3_s2_0_split -> pool3/3x3_s2_pool3/3x3_s2_0_split_0
I0205 01:22:49.894407   178 net.cpp:409] pool3/3x3_s2_pool3/3x3_s2_0_split -> pool3/3x3_s2_pool3/3x3_s2_0_split_1
I0205 01:22:49.894417   178 net.cpp:409] pool3/3x3_s2_pool3/3x3_s2_0_split -> pool3/3x3_s2_pool3/3x3_s2_0_split_2
I0205 01:22:49.894426   178 net.cpp:409] pool3/3x3_s2_pool3/3x3_s2_0_split -> pool3/3x3_s2_pool3/3x3_s2_0_split_3
I0205 01:22:49.894480   178 net.cpp:144] Setting up pool3/3x3_s2_pool3/3x3_s2_0_split
I0205 01:22:49.894490   178 net.cpp:151] Top shape: 32 480 14 14 (3010560)
I0205 01:22:49.894496   178 net.cpp:151] Top shape: 32 480 14 14 (3010560)
I0205 01:22:49.894503   178 net.cpp:151] Top shape: 32 480 14 14 (3010560)
I0205 01:22:49.894510   178 net.cpp:151] Top shape: 32 480 14 14 (3010560)
I0205 01:22:49.894515   178 net.cpp:159] Memory required for data: 1139196416
I0205 01:22:49.894521   178 layer_factory.hpp:77] Creating layer inception_4a/1x1
I0205 01:22:49.894533   178 net.cpp:94] Creating Layer inception_4a/1x1
I0205 01:22:49.894541   178 net.cpp:435] inception_4a/1x1 <- pool3/3x3_s2_pool3/3x3_s2_0_split_0
I0205 01:22:49.894552   178 net.cpp:409] inception_4a/1x1 -> inception_4a/1x1
I0205 01:22:49.895457   178 net.cpp:144] Setting up inception_4a/1x1
I0205 01:22:49.895470   178 net.cpp:151] Top shape: 32 192 14 14 (1204224)
I0205 01:22:49.895476   178 net.cpp:159] Memory required for data: 1144013312
I0205 01:22:49.895485   178 layer_factory.hpp:77] Creating layer inception_4a/relu_1x1
I0205 01:22:49.895494   178 net.cpp:94] Creating Layer inception_4a/relu_1x1
I0205 01:22:49.895501   178 net.cpp:435] inception_4a/relu_1x1 <- inception_4a/1x1
I0205 01:22:49.895510   178 net.cpp:396] inception_4a/relu_1x1 -> inception_4a/1x1 (in-place)
I0205 01:22:49.895520   178 net.cpp:144] Setting up inception_4a/relu_1x1
I0205 01:22:49.895527   178 net.cpp:151] Top shape: 32 192 14 14 (1204224)
I0205 01:22:49.895534   178 net.cpp:159] Memory required for data: 1148830208
I0205 01:22:49.895539   178 layer_factory.hpp:77] Creating layer inception_4a/3x3_reduce
I0205 01:22:49.895550   178 net.cpp:94] Creating Layer inception_4a/3x3_reduce
I0205 01:22:49.895556   178 net.cpp:435] inception_4a/3x3_reduce <- pool3/3x3_s2_pool3/3x3_s2_0_split_1
I0205 01:22:49.895566   178 net.cpp:409] inception_4a/3x3_reduce -> inception_4a/3x3_reduce
I0205 01:22:49.896127   178 net.cpp:144] Setting up inception_4a/3x3_reduce
I0205 01:22:49.896139   178 net.cpp:151] Top shape: 32 96 14 14 (602112)
I0205 01:22:49.896144   178 net.cpp:159] Memory required for data: 1151238656
I0205 01:22:49.896162   178 layer_factory.hpp:77] Creating layer inception_4a/relu_3x3_reduce
I0205 01:22:49.896172   178 net.cpp:94] Creating Layer inception_4a/relu_3x3_reduce
I0205 01:22:49.896178   178 net.cpp:435] inception_4a/relu_3x3_reduce <- inception_4a/3x3_reduce
I0205 01:22:49.896188   178 net.cpp:396] inception_4a/relu_3x3_reduce -> inception_4a/3x3_reduce (in-place)
I0205 01:22:49.896198   178 net.cpp:144] Setting up inception_4a/relu_3x3_reduce
I0205 01:22:49.896204   178 net.cpp:151] Top shape: 32 96 14 14 (602112)
I0205 01:22:49.896209   178 net.cpp:159] Memory required for data: 1153647104
I0205 01:22:49.896231   178 layer_factory.hpp:77] Creating layer inception_4a/3x3
I0205 01:22:49.896244   178 net.cpp:94] Creating Layer inception_4a/3x3
I0205 01:22:49.896250   178 net.cpp:435] inception_4a/3x3 <- inception_4a/3x3_reduce
I0205 01:22:49.896260   178 net.cpp:409] inception_4a/3x3 -> inception_4a/3x3
I0205 01:22:49.908715   178 net.cpp:144] Setting up inception_4a/3x3
I0205 01:22:49.908737   178 net.cpp:151] Top shape: 32 208 14 14 (1304576)
I0205 01:22:49.908744   178 net.cpp:159] Memory required for data: 1158865408
I0205 01:22:49.908754   178 layer_factory.hpp:77] Creating layer inception_4a/relu_3x3
I0205 01:22:49.908767   178 net.cpp:94] Creating Layer inception_4a/relu_3x3
I0205 01:22:49.908776   178 net.cpp:435] inception_4a/relu_3x3 <- inception_4a/3x3
I0205 01:22:49.908787   178 net.cpp:396] inception_4a/relu_3x3 -> inception_4a/3x3 (in-place)
I0205 01:22:49.908798   178 net.cpp:144] Setting up inception_4a/relu_3x3
I0205 01:22:49.908807   178 net.cpp:151] Top shape: 32 208 14 14 (1304576)
I0205 01:22:49.908812   178 net.cpp:159] Memory required for data: 1164083712
I0205 01:22:49.908818   178 layer_factory.hpp:77] Creating layer inception_4a/5x5_reduce
I0205 01:22:49.908830   178 net.cpp:94] Creating Layer inception_4a/5x5_reduce
I0205 01:22:49.908838   178 net.cpp:435] inception_4a/5x5_reduce <- pool3/3x3_s2_pool3/3x3_s2_0_split_2
I0205 01:22:49.908849   178 net.cpp:409] inception_4a/5x5_reduce -> inception_4a/5x5_reduce
I0205 01:22:49.909166   178 net.cpp:144] Setting up inception_4a/5x5_reduce
I0205 01:22:49.909179   178 net.cpp:151] Top shape: 32 16 14 14 (100352)
I0205 01:22:49.909185   178 net.cpp:159] Memory required for data: 1164485120
I0205 01:22:49.909194   178 layer_factory.hpp:77] Creating layer inception_4a/relu_5x5_reduce
I0205 01:22:49.909204   178 net.cpp:94] Creating Layer inception_4a/relu_5x5_reduce
I0205 01:22:49.909212   178 net.cpp:435] inception_4a/relu_5x5_reduce <- inception_4a/5x5_reduce
I0205 01:22:49.909221   178 net.cpp:396] inception_4a/relu_5x5_reduce -> inception_4a/5x5_reduce (in-place)
I0205 01:22:49.909231   178 net.cpp:144] Setting up inception_4a/relu_5x5_reduce
I0205 01:22:49.909240   178 net.cpp:151] Top shape: 32 16 14 14 (100352)
I0205 01:22:49.909245   178 net.cpp:159] Memory required for data: 1164886528
I0205 01:22:49.909251   178 layer_factory.hpp:77] Creating layer inception_4a/5x5
I0205 01:22:49.909262   178 net.cpp:94] Creating Layer inception_4a/5x5
I0205 01:22:49.909270   178 net.cpp:435] inception_4a/5x5 <- inception_4a/5x5_reduce
I0205 01:22:49.909279   178 net.cpp:409] inception_4a/5x5 -> inception_4a/5x5
I0205 01:22:49.909629   178 net.cpp:144] Setting up inception_4a/5x5
I0205 01:22:49.909641   178 net.cpp:151] Top shape: 32 48 14 14 (301056)
I0205 01:22:49.909647   178 net.cpp:159] Memory required for data: 1166090752
I0205 01:22:49.909656   178 layer_factory.hpp:77] Creating layer inception_4a/relu_5x5
I0205 01:22:49.909664   178 net.cpp:94] Creating Layer inception_4a/relu_5x5
I0205 01:22:49.909672   178 net.cpp:435] inception_4a/relu_5x5 <- inception_4a/5x5
I0205 01:22:49.909680   178 net.cpp:396] inception_4a/relu_5x5 -> inception_4a/5x5 (in-place)
I0205 01:22:49.909690   178 net.cpp:144] Setting up inception_4a/relu_5x5
I0205 01:22:49.909698   178 net.cpp:151] Top shape: 32 48 14 14 (301056)
I0205 01:22:49.909703   178 net.cpp:159] Memory required for data: 1167294976
I0205 01:22:49.909709   178 layer_factory.hpp:77] Creating layer inception_4a/pool
I0205 01:22:49.909718   178 net.cpp:94] Creating Layer inception_4a/pool
I0205 01:22:49.909725   178 net.cpp:435] inception_4a/pool <- pool3/3x3_s2_pool3/3x3_s2_0_split_3
I0205 01:22:49.909734   178 net.cpp:409] inception_4a/pool -> inception_4a/pool
I0205 01:22:49.909780   178 net.cpp:144] Setting up inception_4a/pool
I0205 01:22:49.909790   178 net.cpp:151] Top shape: 32 480 14 14 (3010560)
I0205 01:22:49.909795   178 net.cpp:159] Memory required for data: 1179337216
I0205 01:22:49.909801   178 layer_factory.hpp:77] Creating layer inception_4a/pool_proj
I0205 01:22:49.909832   178 net.cpp:94] Creating Layer inception_4a/pool_proj
I0205 01:22:49.909840   178 net.cpp:435] inception_4a/pool_proj <- inception_4a/pool
I0205 01:22:49.909852   178 net.cpp:409] inception_4a/pool_proj -> inception_4a/pool_proj
I0205 01:22:49.910290   178 net.cpp:144] Setting up inception_4a/pool_proj
I0205 01:22:49.910302   178 net.cpp:151] Top shape: 32 64 14 14 (401408)
I0205 01:22:49.910310   178 net.cpp:159] Memory required for data: 1180942848
I0205 01:22:49.910320   178 layer_factory.hpp:77] Creating layer inception_4a/relu_pool_proj
I0205 01:22:49.910328   178 net.cpp:94] Creating Layer inception_4a/relu_pool_proj
I0205 01:22:49.910336   178 net.cpp:435] inception_4a/relu_pool_proj <- inception_4a/pool_proj
I0205 01:22:49.910346   178 net.cpp:396] inception_4a/relu_pool_proj -> inception_4a/pool_proj (in-place)
I0205 01:22:49.910356   178 net.cpp:144] Setting up inception_4a/relu_pool_proj
I0205 01:22:49.910362   178 net.cpp:151] Top shape: 32 64 14 14 (401408)
I0205 01:22:49.910368   178 net.cpp:159] Memory required for data: 1182548480
I0205 01:22:49.910374   178 layer_factory.hpp:77] Creating layer inception_4a/output
I0205 01:22:49.910383   178 net.cpp:94] Creating Layer inception_4a/output
I0205 01:22:49.910389   178 net.cpp:435] inception_4a/output <- inception_4a/1x1
I0205 01:22:49.910398   178 net.cpp:435] inception_4a/output <- inception_4a/3x3
I0205 01:22:49.910404   178 net.cpp:435] inception_4a/output <- inception_4a/5x5
I0205 01:22:49.910411   178 net.cpp:435] inception_4a/output <- inception_4a/pool_proj
I0205 01:22:49.910420   178 net.cpp:409] inception_4a/output -> inception_4a/output
I0205 01:22:49.910451   178 net.cpp:144] Setting up inception_4a/output
I0205 01:22:49.910461   178 net.cpp:151] Top shape: 32 512 14 14 (3211264)
I0205 01:22:49.910467   178 net.cpp:159] Memory required for data: 1195393536
I0205 01:22:49.910473   178 layer_factory.hpp:77] Creating layer inception_4a/output_inception_4a/output_0_split
I0205 01:22:49.910485   178 net.cpp:94] Creating Layer inception_4a/output_inception_4a/output_0_split
I0205 01:22:49.910490   178 net.cpp:435] inception_4a/output_inception_4a/output_0_split <- inception_4a/output
I0205 01:22:49.910499   178 net.cpp:409] inception_4a/output_inception_4a/output_0_split -> inception_4a/output_inception_4a/output_0_split_0
I0205 01:22:49.910511   178 net.cpp:409] inception_4a/output_inception_4a/output_0_split -> inception_4a/output_inception_4a/output_0_split_1
I0205 01:22:49.910521   178 net.cpp:409] inception_4a/output_inception_4a/output_0_split -> inception_4a/output_inception_4a/output_0_split_2
I0205 01:22:49.910531   178 net.cpp:409] inception_4a/output_inception_4a/output_0_split -> inception_4a/output_inception_4a/output_0_split_3
I0205 01:22:49.910540   178 net.cpp:409] inception_4a/output_inception_4a/output_0_split -> inception_4a/output_inception_4a/output_0_split_4
I0205 01:22:49.910609   178 net.cpp:144] Setting up inception_4a/output_inception_4a/output_0_split
I0205 01:22:49.910617   178 net.cpp:151] Top shape: 32 512 14 14 (3211264)
I0205 01:22:49.910624   178 net.cpp:151] Top shape: 32 512 14 14 (3211264)
I0205 01:22:49.910631   178 net.cpp:151] Top shape: 32 512 14 14 (3211264)
I0205 01:22:49.910637   178 net.cpp:151] Top shape: 32 512 14 14 (3211264)
I0205 01:22:49.910645   178 net.cpp:151] Top shape: 32 512 14 14 (3211264)
I0205 01:22:49.910650   178 net.cpp:159] Memory required for data: 1259618816
I0205 01:22:49.910679   178 layer_factory.hpp:77] Creating layer loss1/ave_pool
I0205 01:22:49.910691   178 net.cpp:94] Creating Layer loss1/ave_pool
I0205 01:22:49.910698   178 net.cpp:435] loss1/ave_pool <- inception_4a/output_inception_4a/output_0_split_0
I0205 01:22:49.910708   178 net.cpp:409] loss1/ave_pool -> loss1/ave_pool
I0205 01:22:49.910750   178 net.cpp:144] Setting up loss1/ave_pool
I0205 01:22:49.910760   178 net.cpp:151] Top shape: 32 512 4 4 (262144)
I0205 01:22:49.910766   178 net.cpp:159] Memory required for data: 1260667392
I0205 01:22:49.910773   178 layer_factory.hpp:77] Creating layer loss1/conv
I0205 01:22:49.910801   178 net.cpp:94] Creating Layer loss1/conv
I0205 01:22:49.910809   178 net.cpp:435] loss1/conv <- loss1/ave_pool
I0205 01:22:49.910820   178 net.cpp:409] loss1/conv -> loss1/conv
I0205 01:22:49.911475   178 net.cpp:144] Setting up loss1/conv
I0205 01:22:49.911489   178 net.cpp:151] Top shape: 32 128 4 4 (65536)
I0205 01:22:49.911495   178 net.cpp:159] Memory required for data: 1260929536
I0205 01:22:49.911504   178 layer_factory.hpp:77] Creating layer loss1/relu_conv
I0205 01:22:49.911514   178 net.cpp:94] Creating Layer loss1/relu_conv
I0205 01:22:49.911520   178 net.cpp:435] loss1/relu_conv <- loss1/conv
I0205 01:22:49.911530   178 net.cpp:396] loss1/relu_conv -> loss1/conv (in-place)
I0205 01:22:49.911540   178 net.cpp:144] Setting up loss1/relu_conv
I0205 01:22:49.911548   178 net.cpp:151] Top shape: 32 128 4 4 (65536)
I0205 01:22:49.911553   178 net.cpp:159] Memory required for data: 1261191680
I0205 01:22:49.911559   178 layer_factory.hpp:77] Creating layer loss1/fc
I0205 01:22:49.911572   178 net.cpp:94] Creating Layer loss1/fc
I0205 01:22:49.911578   178 net.cpp:435] loss1/fc <- loss1/conv
I0205 01:22:49.911588   178 net.cpp:409] loss1/fc -> loss1/fc
I0205 01:22:49.930773   178 net.cpp:144] Setting up loss1/fc
I0205 01:22:49.930791   178 net.cpp:151] Top shape: 32 1024 (32768)
I0205 01:22:49.930797   178 net.cpp:159] Memory required for data: 1261322752
I0205 01:22:49.930809   178 layer_factory.hpp:77] Creating layer loss1/relu_fc
I0205 01:22:49.930819   178 net.cpp:94] Creating Layer loss1/relu_fc
I0205 01:22:49.930826   178 net.cpp:435] loss1/relu_fc <- loss1/fc
I0205 01:22:49.930836   178 net.cpp:396] loss1/relu_fc -> loss1/fc (in-place)
I0205 01:22:49.930850   178 net.cpp:144] Setting up loss1/relu_fc
I0205 01:22:49.930856   178 net.cpp:151] Top shape: 32 1024 (32768)
I0205 01:22:49.930861   178 net.cpp:159] Memory required for data: 1261453824
I0205 01:22:49.930867   178 layer_factory.hpp:77] Creating layer loss1/drop_fc
I0205 01:22:49.930896   178 net.cpp:94] Creating Layer loss1/drop_fc
I0205 01:22:49.930902   178 net.cpp:435] loss1/drop_fc <- loss1/fc
I0205 01:22:49.930910   178 net.cpp:396] loss1/drop_fc -> loss1/fc (in-place)
I0205 01:22:49.930944   178 net.cpp:144] Setting up loss1/drop_fc
I0205 01:22:49.930953   178 net.cpp:151] Top shape: 32 1024 (32768)
I0205 01:22:49.930958   178 net.cpp:159] Memory required for data: 1261584896
I0205 01:22:49.930965   178 layer_factory.hpp:77] Creating layer loss1/classifier
I0205 01:22:49.930977   178 net.cpp:94] Creating Layer loss1/classifier
I0205 01:22:49.930984   178 net.cpp:435] loss1/classifier <- loss1/fc
I0205 01:22:49.930994   178 net.cpp:409] loss1/classifier -> loss1/classifier
I0205 01:22:49.931134   178 net.cpp:144] Setting up loss1/classifier
I0205 01:22:49.931145   178 net.cpp:151] Top shape: 32 3 (96)
I0205 01:22:49.931151   178 net.cpp:159] Memory required for data: 1261585280
I0205 01:22:49.931159   178 layer_factory.hpp:77] Creating layer loss1/loss
I0205 01:22:49.931171   178 net.cpp:94] Creating Layer loss1/loss
I0205 01:22:49.931179   178 net.cpp:435] loss1/loss <- loss1/classifier
I0205 01:22:49.931185   178 net.cpp:435] loss1/loss <- label_train-data_1_split_0
I0205 01:22:49.931195   178 net.cpp:409] loss1/loss -> loss1/loss
I0205 01:22:49.931215   178 layer_factory.hpp:77] Creating layer loss1/loss
I0205 01:22:49.931313   178 net.cpp:144] Setting up loss1/loss
I0205 01:22:49.931322   178 net.cpp:151] Top shape: (1)
I0205 01:22:49.931329   178 net.cpp:154]     with loss weight 0.3
I0205 01:22:49.931350   178 net.cpp:159] Memory required for data: 1261585284
I0205 01:22:49.931357   178 layer_factory.hpp:77] Creating layer inception_4b/1x1
I0205 01:22:49.931371   178 net.cpp:94] Creating Layer inception_4b/1x1
I0205 01:22:49.931378   178 net.cpp:435] inception_4b/1x1 <- inception_4a/output_inception_4a/output_0_split_1
I0205 01:22:49.931388   178 net.cpp:409] inception_4b/1x1 -> inception_4b/1x1
I0205 01:22:49.932153   178 net.cpp:144] Setting up inception_4b/1x1
I0205 01:22:49.932166   178 net.cpp:151] Top shape: 32 160 14 14 (1003520)
I0205 01:22:49.932191   178 net.cpp:159] Memory required for data: 1265599364
I0205 01:22:49.932201   178 layer_factory.hpp:77] Creating layer inception_4b/relu_1x1
I0205 01:22:49.932210   178 net.cpp:94] Creating Layer inception_4b/relu_1x1
I0205 01:22:49.932217   178 net.cpp:435] inception_4b/relu_1x1 <- inception_4b/1x1
I0205 01:22:49.932229   178 net.cpp:396] inception_4b/relu_1x1 -> inception_4b/1x1 (in-place)
I0205 01:22:49.932240   178 net.cpp:144] Setting up inception_4b/relu_1x1
I0205 01:22:49.932246   178 net.cpp:151] Top shape: 32 160 14 14 (1003520)
I0205 01:22:49.932252   178 net.cpp:159] Memory required for data: 1269613444
I0205 01:22:49.932258   178 layer_factory.hpp:77] Creating layer inception_4b/3x3_reduce
I0205 01:22:49.932271   178 net.cpp:94] Creating Layer inception_4b/3x3_reduce
I0205 01:22:49.932278   178 net.cpp:435] inception_4b/3x3_reduce <- inception_4a/output_inception_4a/output_0_split_2
I0205 01:22:49.932289   178 net.cpp:409] inception_4b/3x3_reduce -> inception_4b/3x3_reduce
I0205 01:22:49.933568   178 net.cpp:144] Setting up inception_4b/3x3_reduce
I0205 01:22:49.933584   178 net.cpp:151] Top shape: 32 112 14 14 (702464)
I0205 01:22:49.933590   178 net.cpp:159] Memory required for data: 1272423300
I0205 01:22:49.933599   178 layer_factory.hpp:77] Creating layer inception_4b/relu_3x3_reduce
I0205 01:22:49.933610   178 net.cpp:94] Creating Layer inception_4b/relu_3x3_reduce
I0205 01:22:49.933617   178 net.cpp:435] inception_4b/relu_3x3_reduce <- inception_4b/3x3_reduce
I0205 01:22:49.933627   178 net.cpp:396] inception_4b/relu_3x3_reduce -> inception_4b/3x3_reduce (in-place)
I0205 01:22:49.933638   178 net.cpp:144] Setting up inception_4b/relu_3x3_reduce
I0205 01:22:49.933645   178 net.cpp:151] Top shape: 32 112 14 14 (702464)
I0205 01:22:49.933651   178 net.cpp:159] Memory required for data: 1275233156
I0205 01:22:49.933657   178 layer_factory.hpp:77] Creating layer inception_4b/3x3
I0205 01:22:49.933671   178 net.cpp:94] Creating Layer inception_4b/3x3
I0205 01:22:49.933677   178 net.cpp:435] inception_4b/3x3 <- inception_4b/3x3_reduce
I0205 01:22:49.933688   178 net.cpp:409] inception_4b/3x3 -> inception_4b/3x3
I0205 01:22:49.935973   178 net.cpp:144] Setting up inception_4b/3x3
I0205 01:22:49.935991   178 net.cpp:151] Top shape: 32 224 14 14 (1404928)
I0205 01:22:49.935997   178 net.cpp:159] Memory required for data: 1280852868
I0205 01:22:49.936007   178 layer_factory.hpp:77] Creating layer inception_4b/relu_3x3
I0205 01:22:49.936017   178 net.cpp:94] Creating Layer inception_4b/relu_3x3
I0205 01:22:49.936023   178 net.cpp:435] inception_4b/relu_3x3 <- inception_4b/3x3
I0205 01:22:49.936033   178 net.cpp:396] inception_4b/relu_3x3 -> inception_4b/3x3 (in-place)
I0205 01:22:49.936062   178 net.cpp:144] Setting up inception_4b/relu_3x3
I0205 01:22:49.936072   178 net.cpp:151] Top shape: 32 224 14 14 (1404928)
I0205 01:22:49.936077   178 net.cpp:159] Memory required for data: 1286472580
I0205 01:22:49.936084   178 layer_factory.hpp:77] Creating layer inception_4b/5x5_reduce
I0205 01:22:49.936096   178 net.cpp:94] Creating Layer inception_4b/5x5_reduce
I0205 01:22:49.936103   178 net.cpp:435] inception_4b/5x5_reduce <- inception_4a/output_inception_4a/output_0_split_3
I0205 01:22:49.936115   178 net.cpp:409] inception_4b/5x5_reduce -> inception_4b/5x5_reduce
I0205 01:22:49.936425   178 net.cpp:144] Setting up inception_4b/5x5_reduce
I0205 01:22:49.936437   178 net.cpp:151] Top shape: 32 24 14 14 (150528)
I0205 01:22:49.936444   178 net.cpp:159] Memory required for data: 1287074692
I0205 01:22:49.936451   178 layer_factory.hpp:77] Creating layer inception_4b/relu_5x5_reduce
I0205 01:22:49.936461   178 net.cpp:94] Creating Layer inception_4b/relu_5x5_reduce
I0205 01:22:49.936468   178 net.cpp:435] inception_4b/relu_5x5_reduce <- inception_4b/5x5_reduce
I0205 01:22:49.936478   178 net.cpp:396] inception_4b/relu_5x5_reduce -> inception_4b/5x5_reduce (in-place)
I0205 01:22:49.936487   178 net.cpp:144] Setting up inception_4b/relu_5x5_reduce
I0205 01:22:49.936511   178 net.cpp:151] Top shape: 32 24 14 14 (150528)
I0205 01:22:49.936517   178 net.cpp:159] Memory required for data: 1287676804
I0205 01:22:49.936522   178 layer_factory.hpp:77] Creating layer inception_4b/5x5
I0205 01:22:49.936534   178 net.cpp:94] Creating Layer inception_4b/5x5
I0205 01:22:49.936543   178 net.cpp:435] inception_4b/5x5 <- inception_4b/5x5_reduce
I0205 01:22:49.936554   178 net.cpp:409] inception_4b/5x5 -> inception_4b/5x5
I0205 01:22:49.937014   178 net.cpp:144] Setting up inception_4b/5x5
I0205 01:22:49.937026   178 net.cpp:151] Top shape: 32 64 14 14 (401408)
I0205 01:22:49.937032   178 net.cpp:159] Memory required for data: 1289282436
I0205 01:22:49.937057   178 layer_factory.hpp:77] Creating layer inception_4b/relu_5x5
I0205 01:22:49.937069   178 net.cpp:94] Creating Layer inception_4b/relu_5x5
I0205 01:22:49.937075   178 net.cpp:435] inception_4b/relu_5x5 <- inception_4b/5x5
I0205 01:22:49.937084   178 net.cpp:396] inception_4b/relu_5x5 -> inception_4b/5x5 (in-place)
I0205 01:22:49.937095   178 net.cpp:144] Setting up inception_4b/relu_5x5
I0205 01:22:49.937103   178 net.cpp:151] Top shape: 32 64 14 14 (401408)
I0205 01:22:49.937109   178 net.cpp:159] Memory required for data: 1290888068
I0205 01:22:49.937115   178 layer_factory.hpp:77] Creating layer inception_4b/pool
I0205 01:22:49.937124   178 net.cpp:94] Creating Layer inception_4b/pool
I0205 01:22:49.937131   178 net.cpp:435] inception_4b/pool <- inception_4a/output_inception_4a/output_0_split_4
I0205 01:22:49.937140   178 net.cpp:409] inception_4b/pool -> inception_4b/pool
I0205 01:22:49.937201   178 net.cpp:144] Setting up inception_4b/pool
I0205 01:22:49.937212   178 net.cpp:151] Top shape: 32 512 14 14 (3211264)
I0205 01:22:49.937218   178 net.cpp:159] Memory required for data: 1303733124
I0205 01:22:49.937224   178 layer_factory.hpp:77] Creating layer inception_4b/pool_proj
I0205 01:22:49.937237   178 net.cpp:94] Creating Layer inception_4b/pool_proj
I0205 01:22:49.937243   178 net.cpp:435] inception_4b/pool_proj <- inception_4b/pool
I0205 01:22:49.937253   178 net.cpp:409] inception_4b/pool_proj -> inception_4b/pool_proj
I0205 01:22:49.937672   178 net.cpp:144] Setting up inception_4b/pool_proj
I0205 01:22:49.937685   178 net.cpp:151] Top shape: 32 64 14 14 (401408)
I0205 01:22:49.937690   178 net.cpp:159] Memory required for data: 1305338756
I0205 01:22:49.937698   178 layer_factory.hpp:77] Creating layer inception_4b/relu_pool_proj
I0205 01:22:49.937708   178 net.cpp:94] Creating Layer inception_4b/relu_pool_proj
I0205 01:22:49.937716   178 net.cpp:435] inception_4b/relu_pool_proj <- inception_4b/pool_proj
I0205 01:22:49.937724   178 net.cpp:396] inception_4b/relu_pool_proj -> inception_4b/pool_proj (in-place)
I0205 01:22:49.937734   178 net.cpp:144] Setting up inception_4b/relu_pool_proj
I0205 01:22:49.937741   178 net.cpp:151] Top shape: 32 64 14 14 (401408)
I0205 01:22:49.937747   178 net.cpp:159] Memory required for data: 1306944388
I0205 01:22:49.937752   178 layer_factory.hpp:77] Creating layer inception_4b/output
I0205 01:22:49.937762   178 net.cpp:94] Creating Layer inception_4b/output
I0205 01:22:49.937767   178 net.cpp:435] inception_4b/output <- inception_4b/1x1
I0205 01:22:49.937775   178 net.cpp:435] inception_4b/output <- inception_4b/3x3
I0205 01:22:49.937781   178 net.cpp:435] inception_4b/output <- inception_4b/5x5
I0205 01:22:49.937788   178 net.cpp:435] inception_4b/output <- inception_4b/pool_proj
I0205 01:22:49.937798   178 net.cpp:409] inception_4b/output -> inception_4b/output
I0205 01:22:49.937829   178 net.cpp:144] Setting up inception_4b/output
I0205 01:22:49.937839   178 net.cpp:151] Top shape: 32 512 14 14 (3211264)
I0205 01:22:49.937844   178 net.cpp:159] Memory required for data: 1319789444
I0205 01:22:49.937850   178 layer_factory.hpp:77] Creating layer inception_4b/output_inception_4b/output_0_split
I0205 01:22:49.937860   178 net.cpp:94] Creating Layer inception_4b/output_inception_4b/output_0_split
I0205 01:22:49.937867   178 net.cpp:435] inception_4b/output_inception_4b/output_0_split <- inception_4b/output
I0205 01:22:49.937889   178 net.cpp:409] inception_4b/output_inception_4b/output_0_split -> inception_4b/output_inception_4b/output_0_split_0
I0205 01:22:49.937901   178 net.cpp:409] inception_4b/output_inception_4b/output_0_split -> inception_4b/output_inception_4b/output_0_split_1
I0205 01:22:49.937912   178 net.cpp:409] inception_4b/output_inception_4b/output_0_split -> inception_4b/output_inception_4b/output_0_split_2
I0205 01:22:49.937922   178 net.cpp:409] inception_4b/output_inception_4b/output_0_split -> inception_4b/output_inception_4b/output_0_split_3
I0205 01:22:49.937983   178 net.cpp:144] Setting up inception_4b/output_inception_4b/output_0_split
I0205 01:22:49.937992   178 net.cpp:151] Top shape: 32 512 14 14 (3211264)
I0205 01:22:49.937999   178 net.cpp:151] Top shape: 32 512 14 14 (3211264)
I0205 01:22:49.938006   178 net.cpp:151] Top shape: 32 512 14 14 (3211264)
I0205 01:22:49.938012   178 net.cpp:151] Top shape: 32 512 14 14 (3211264)
I0205 01:22:49.938019   178 net.cpp:159] Memory required for data: 1371169668
I0205 01:22:49.938024   178 layer_factory.hpp:77] Creating layer inception_4c/1x1
I0205 01:22:49.938035   178 net.cpp:94] Creating Layer inception_4c/1x1
I0205 01:22:49.938060   178 net.cpp:435] inception_4c/1x1 <- inception_4b/output_inception_4b/output_0_split_0
I0205 01:22:49.938071   178 net.cpp:409] inception_4c/1x1 -> inception_4c/1x1
I0205 01:22:49.938714   178 net.cpp:144] Setting up inception_4c/1x1
I0205 01:22:49.938726   178 net.cpp:151] Top shape: 32 128 14 14 (802816)
I0205 01:22:49.938731   178 net.cpp:159] Memory required for data: 1374380932
I0205 01:22:49.938741   178 layer_factory.hpp:77] Creating layer inception_4c/relu_1x1
I0205 01:22:49.938751   178 net.cpp:94] Creating Layer inception_4c/relu_1x1
I0205 01:22:49.938758   178 net.cpp:435] inception_4c/relu_1x1 <- inception_4c/1x1
I0205 01:22:49.938768   178 net.cpp:396] inception_4c/relu_1x1 -> inception_4c/1x1 (in-place)
I0205 01:22:49.938778   178 net.cpp:144] Setting up inception_4c/relu_1x1
I0205 01:22:49.938786   178 net.cpp:151] Top shape: 32 128 14 14 (802816)
I0205 01:22:49.938791   178 net.cpp:159] Memory required for data: 1377592196
I0205 01:22:49.938797   178 layer_factory.hpp:77] Creating layer inception_4c/3x3_reduce
I0205 01:22:49.938809   178 net.cpp:94] Creating Layer inception_4c/3x3_reduce
I0205 01:22:49.938815   178 net.cpp:435] inception_4c/3x3_reduce <- inception_4b/output_inception_4b/output_0_split_1
I0205 01:22:49.938827   178 net.cpp:409] inception_4c/3x3_reduce -> inception_4c/3x3_reduce
I0205 01:22:49.939456   178 net.cpp:144] Setting up inception_4c/3x3_reduce
I0205 01:22:49.939469   178 net.cpp:151] Top shape: 32 128 14 14 (802816)
I0205 01:22:49.939476   178 net.cpp:159] Memory required for data: 1380803460
I0205 01:22:49.939483   178 layer_factory.hpp:77] Creating layer inception_4c/relu_3x3_reduce
I0205 01:22:49.939492   178 net.cpp:94] Creating Layer inception_4c/relu_3x3_reduce
I0205 01:22:49.939499   178 net.cpp:435] inception_4c/relu_3x3_reduce <- inception_4c/3x3_reduce
I0205 01:22:49.939509   178 net.cpp:396] inception_4c/relu_3x3_reduce -> inception_4c/3x3_reduce (in-place)
I0205 01:22:49.939518   178 net.cpp:144] Setting up inception_4c/relu_3x3_reduce
I0205 01:22:49.939525   178 net.cpp:151] Top shape: 32 128 14 14 (802816)
I0205 01:22:49.939532   178 net.cpp:159] Memory required for data: 1384014724
I0205 01:22:49.939538   178 layer_factory.hpp:77] Creating layer inception_4c/3x3
I0205 01:22:49.939550   178 net.cpp:94] Creating Layer inception_4c/3x3
I0205 01:22:49.939558   178 net.cpp:435] inception_4c/3x3 <- inception_4c/3x3_reduce
I0205 01:22:49.939566   178 net.cpp:409] inception_4c/3x3 -> inception_4c/3x3
I0205 01:22:49.942294   178 net.cpp:144] Setting up inception_4c/3x3
I0205 01:22:49.942311   178 net.cpp:151] Top shape: 32 256 14 14 (1605632)
I0205 01:22:49.942317   178 net.cpp:159] Memory required for data: 1390437252
I0205 01:22:49.942338   178 layer_factory.hpp:77] Creating layer inception_4c/relu_3x3
I0205 01:22:49.942349   178 net.cpp:94] Creating Layer inception_4c/relu_3x3
I0205 01:22:49.942373   178 net.cpp:435] inception_4c/relu_3x3 <- inception_4c/3x3
I0205 01:22:49.942384   178 net.cpp:396] inception_4c/relu_3x3 -> inception_4c/3x3 (in-place)
I0205 01:22:49.942396   178 net.cpp:144] Setting up inception_4c/relu_3x3
I0205 01:22:49.942404   178 net.cpp:151] Top shape: 32 256 14 14 (1605632)
I0205 01:22:49.942410   178 net.cpp:159] Memory required for data: 1396859780
I0205 01:22:49.942416   178 layer_factory.hpp:77] Creating layer inception_4c/5x5_reduce
I0205 01:22:49.942428   178 net.cpp:94] Creating Layer inception_4c/5x5_reduce
I0205 01:22:49.942435   178 net.cpp:435] inception_4c/5x5_reduce <- inception_4b/output_inception_4b/output_0_split_2
I0205 01:22:49.942446   178 net.cpp:409] inception_4c/5x5_reduce -> inception_4c/5x5_reduce
I0205 01:22:49.942811   178 net.cpp:144] Setting up inception_4c/5x5_reduce
I0205 01:22:49.942824   178 net.cpp:151] Top shape: 32 24 14 14 (150528)
I0205 01:22:49.942831   178 net.cpp:159] Memory required for data: 1397461892
I0205 01:22:49.942839   178 layer_factory.hpp:77] Creating layer inception_4c/relu_5x5_reduce
I0205 01:22:49.942848   178 net.cpp:94] Creating Layer inception_4c/relu_5x5_reduce
I0205 01:22:49.942855   178 net.cpp:435] inception_4c/relu_5x5_reduce <- inception_4c/5x5_reduce
I0205 01:22:49.942865   178 net.cpp:396] inception_4c/relu_5x5_reduce -> inception_4c/5x5_reduce (in-place)
I0205 01:22:49.942875   178 net.cpp:144] Setting up inception_4c/relu_5x5_reduce
I0205 01:22:49.942883   178 net.cpp:151] Top shape: 32 24 14 14 (150528)
I0205 01:22:49.942888   178 net.cpp:159] Memory required for data: 1398064004
I0205 01:22:49.942894   178 layer_factory.hpp:77] Creating layer inception_4c/5x5
I0205 01:22:49.942905   178 net.cpp:94] Creating Layer inception_4c/5x5
I0205 01:22:49.942911   178 net.cpp:435] inception_4c/5x5 <- inception_4c/5x5_reduce
I0205 01:22:49.942921   178 net.cpp:409] inception_4c/5x5 -> inception_4c/5x5
I0205 01:22:49.944068   178 net.cpp:144] Setting up inception_4c/5x5
I0205 01:22:49.944084   178 net.cpp:151] Top shape: 32 64 14 14 (401408)
I0205 01:22:49.944092   178 net.cpp:159] Memory required for data: 1399669636
I0205 01:22:49.944100   178 layer_factory.hpp:77] Creating layer inception_4c/relu_5x5
I0205 01:22:49.944110   178 net.cpp:94] Creating Layer inception_4c/relu_5x5
I0205 01:22:49.944118   178 net.cpp:435] inception_4c/relu_5x5 <- inception_4c/5x5
I0205 01:22:49.944128   178 net.cpp:396] inception_4c/relu_5x5 -> inception_4c/5x5 (in-place)
I0205 01:22:49.944139   178 net.cpp:144] Setting up inception_4c/relu_5x5
I0205 01:22:49.944146   178 net.cpp:151] Top shape: 32 64 14 14 (401408)
I0205 01:22:49.944151   178 net.cpp:159] Memory required for data: 1401275268
I0205 01:22:49.944157   178 layer_factory.hpp:77] Creating layer inception_4c/pool
I0205 01:22:49.944167   178 net.cpp:94] Creating Layer inception_4c/pool
I0205 01:22:49.944175   178 net.cpp:435] inception_4c/pool <- inception_4b/output_inception_4b/output_0_split_3
I0205 01:22:49.944185   178 net.cpp:409] inception_4c/pool -> inception_4c/pool
I0205 01:22:49.944232   178 net.cpp:144] Setting up inception_4c/pool
I0205 01:22:49.944242   178 net.cpp:151] Top shape: 32 512 14 14 (3211264)
I0205 01:22:49.944247   178 net.cpp:159] Memory required for data: 1414120324
I0205 01:22:49.944253   178 layer_factory.hpp:77] Creating layer inception_4c/pool_proj
I0205 01:22:49.944267   178 net.cpp:94] Creating Layer inception_4c/pool_proj
I0205 01:22:49.944273   178 net.cpp:435] inception_4c/pool_proj <- inception_4c/pool
I0205 01:22:49.944283   178 net.cpp:409] inception_4c/pool_proj -> inception_4c/pool_proj
I0205 01:22:49.944705   178 net.cpp:144] Setting up inception_4c/pool_proj
I0205 01:22:49.944717   178 net.cpp:151] Top shape: 32 64 14 14 (401408)
I0205 01:22:49.944723   178 net.cpp:159] Memory required for data: 1415725956
I0205 01:22:49.944731   178 layer_factory.hpp:77] Creating layer inception_4c/relu_pool_proj
I0205 01:22:49.944741   178 net.cpp:94] Creating Layer inception_4c/relu_pool_proj
I0205 01:22:49.944748   178 net.cpp:435] inception_4c/relu_pool_proj <- inception_4c/pool_proj
I0205 01:22:49.944772   178 net.cpp:396] inception_4c/relu_pool_proj -> inception_4c/pool_proj (in-place)
I0205 01:22:49.944785   178 net.cpp:144] Setting up inception_4c/relu_pool_proj
I0205 01:22:49.944792   178 net.cpp:151] Top shape: 32 64 14 14 (401408)
I0205 01:22:49.944798   178 net.cpp:159] Memory required for data: 1417331588
I0205 01:22:49.944804   178 layer_factory.hpp:77] Creating layer inception_4c/output
I0205 01:22:49.944815   178 net.cpp:94] Creating Layer inception_4c/output
I0205 01:22:49.944821   178 net.cpp:435] inception_4c/output <- inception_4c/1x1
I0205 01:22:49.944829   178 net.cpp:435] inception_4c/output <- inception_4c/3x3
I0205 01:22:49.944836   178 net.cpp:435] inception_4c/output <- inception_4c/5x5
I0205 01:22:49.944844   178 net.cpp:435] inception_4c/output <- inception_4c/pool_proj
I0205 01:22:49.944851   178 net.cpp:409] inception_4c/output -> inception_4c/output
I0205 01:22:49.944886   178 net.cpp:144] Setting up inception_4c/output
I0205 01:22:49.944895   178 net.cpp:151] Top shape: 32 512 14 14 (3211264)
I0205 01:22:49.944901   178 net.cpp:159] Memory required for data: 1430176644
I0205 01:22:49.944907   178 layer_factory.hpp:77] Creating layer inception_4c/output_inception_4c/output_0_split
I0205 01:22:49.944917   178 net.cpp:94] Creating Layer inception_4c/output_inception_4c/output_0_split
I0205 01:22:49.944924   178 net.cpp:435] inception_4c/output_inception_4c/output_0_split <- inception_4c/output
I0205 01:22:49.944933   178 net.cpp:409] inception_4c/output_inception_4c/output_0_split -> inception_4c/output_inception_4c/output_0_split_0
I0205 01:22:49.944944   178 net.cpp:409] inception_4c/output_inception_4c/output_0_split -> inception_4c/output_inception_4c/output_0_split_1
I0205 01:22:49.944954   178 net.cpp:409] inception_4c/output_inception_4c/output_0_split -> inception_4c/output_inception_4c/output_0_split_2
I0205 01:22:49.944964   178 net.cpp:409] inception_4c/output_inception_4c/output_0_split -> inception_4c/output_inception_4c/output_0_split_3
I0205 01:22:49.945024   178 net.cpp:144] Setting up inception_4c/output_inception_4c/output_0_split
I0205 01:22:49.945032   178 net.cpp:151] Top shape: 32 512 14 14 (3211264)
I0205 01:22:49.945056   178 net.cpp:151] Top shape: 32 512 14 14 (3211264)
I0205 01:22:49.945065   178 net.cpp:151] Top shape: 32 512 14 14 (3211264)
I0205 01:22:49.945071   178 net.cpp:151] Top shape: 32 512 14 14 (3211264)
I0205 01:22:49.945077   178 net.cpp:159] Memory required for data: 1481556868
I0205 01:22:49.945083   178 layer_factory.hpp:77] Creating layer inception_4d/1x1
I0205 01:22:49.945096   178 net.cpp:94] Creating Layer inception_4d/1x1
I0205 01:22:49.945102   178 net.cpp:435] inception_4d/1x1 <- inception_4c/output_inception_4c/output_0_split_0
I0205 01:22:49.945113   178 net.cpp:409] inception_4d/1x1 -> inception_4d/1x1
I0205 01:22:49.945683   178 net.cpp:144] Setting up inception_4d/1x1
I0205 01:22:49.945694   178 net.cpp:151] Top shape: 32 112 14 14 (702464)
I0205 01:22:49.945700   178 net.cpp:159] Memory required for data: 1484366724
I0205 01:22:49.945708   178 layer_factory.hpp:77] Creating layer inception_4d/relu_1x1
I0205 01:22:49.945719   178 net.cpp:94] Creating Layer inception_4d/relu_1x1
I0205 01:22:49.945725   178 net.cpp:435] inception_4d/relu_1x1 <- inception_4d/1x1
I0205 01:22:49.945734   178 net.cpp:396] inception_4d/relu_1x1 -> inception_4d/1x1 (in-place)
I0205 01:22:49.945744   178 net.cpp:144] Setting up inception_4d/relu_1x1
I0205 01:22:49.945751   178 net.cpp:151] Top shape: 32 112 14 14 (702464)
I0205 01:22:49.945757   178 net.cpp:159] Memory required for data: 1487176580
I0205 01:22:49.945763   178 layer_factory.hpp:77] Creating layer inception_4d/3x3_reduce
I0205 01:22:49.945775   178 net.cpp:94] Creating Layer inception_4d/3x3_reduce
I0205 01:22:49.945781   178 net.cpp:435] inception_4d/3x3_reduce <- inception_4c/output_inception_4c/output_0_split_1
I0205 01:22:49.945792   178 net.cpp:409] inception_4d/3x3_reduce -> inception_4d/3x3_reduce
I0205 01:22:49.946525   178 net.cpp:144] Setting up inception_4d/3x3_reduce
I0205 01:22:49.946538   178 net.cpp:151] Top shape: 32 144 14 14 (903168)
I0205 01:22:49.946548   178 net.cpp:159] Memory required for data: 1490789252
I0205 01:22:49.946557   178 layer_factory.hpp:77] Creating layer inception_4d/relu_3x3_reduce
I0205 01:22:49.946566   178 net.cpp:94] Creating Layer inception_4d/relu_3x3_reduce
I0205 01:22:49.946573   178 net.cpp:435] inception_4d/relu_3x3_reduce <- inception_4d/3x3_reduce
I0205 01:22:49.946583   178 net.cpp:396] inception_4d/relu_3x3_reduce -> inception_4d/3x3_reduce (in-place)
I0205 01:22:49.946593   178 net.cpp:144] Setting up inception_4d/relu_3x3_reduce
I0205 01:22:49.946600   178 net.cpp:151] Top shape: 32 144 14 14 (903168)
I0205 01:22:49.946605   178 net.cpp:159] Memory required for data: 1494401924
I0205 01:22:49.946611   178 layer_factory.hpp:77] Creating layer inception_4d/3x3
I0205 01:22:49.946622   178 net.cpp:94] Creating Layer inception_4d/3x3
I0205 01:22:49.946629   178 net.cpp:435] inception_4d/3x3 <- inception_4d/3x3_reduce
I0205 01:22:49.946637   178 net.cpp:409] inception_4d/3x3 -> inception_4d/3x3
I0205 01:22:49.950000   178 net.cpp:144] Setting up inception_4d/3x3
I0205 01:22:49.950016   178 net.cpp:151] Top shape: 32 288 14 14 (1806336)
I0205 01:22:49.950022   178 net.cpp:159] Memory required for data: 1501627268
I0205 01:22:49.950031   178 layer_factory.hpp:77] Creating layer inception_4d/relu_3x3
I0205 01:22:49.950057   178 net.cpp:94] Creating Layer inception_4d/relu_3x3
I0205 01:22:49.950067   178 net.cpp:435] inception_4d/relu_3x3 <- inception_4d/3x3
I0205 01:22:49.950076   178 net.cpp:396] inception_4d/relu_3x3 -> inception_4d/3x3 (in-place)
I0205 01:22:49.950088   178 net.cpp:144] Setting up inception_4d/relu_3x3
I0205 01:22:49.950095   178 net.cpp:151] Top shape: 32 288 14 14 (1806336)
I0205 01:22:49.950101   178 net.cpp:159] Memory required for data: 1508852612
I0205 01:22:49.950109   178 layer_factory.hpp:77] Creating layer inception_4d/5x5_reduce
I0205 01:22:49.950120   178 net.cpp:94] Creating Layer inception_4d/5x5_reduce
I0205 01:22:49.950126   178 net.cpp:435] inception_4d/5x5_reduce <- inception_4c/output_inception_4c/output_0_split_2
I0205 01:22:49.950137   178 net.cpp:409] inception_4d/5x5_reduce -> inception_4d/5x5_reduce
I0205 01:22:49.950476   178 net.cpp:144] Setting up inception_4d/5x5_reduce
I0205 01:22:49.950489   178 net.cpp:151] Top shape: 32 32 14 14 (200704)
I0205 01:22:49.950493   178 net.cpp:159] Memory required for data: 1509655428
I0205 01:22:49.950502   178 layer_factory.hpp:77] Creating layer inception_4d/relu_5x5_reduce
I0205 01:22:49.950512   178 net.cpp:94] Creating Layer inception_4d/relu_5x5_reduce
I0205 01:22:49.950520   178 net.cpp:435] inception_4d/relu_5x5_reduce <- inception_4d/5x5_reduce
I0205 01:22:49.950528   178 net.cpp:396] inception_4d/relu_5x5_reduce -> inception_4d/5x5_reduce (in-place)
I0205 01:22:49.950538   178 net.cpp:144] Setting up inception_4d/relu_5x5_reduce
I0205 01:22:49.950547   178 net.cpp:151] Top shape: 32 32 14 14 (200704)
I0205 01:22:49.950553   178 net.cpp:159] Memory required for data: 1510458244
I0205 01:22:49.950559   178 layer_factory.hpp:77] Creating layer inception_4d/5x5
I0205 01:22:49.950572   178 net.cpp:94] Creating Layer inception_4d/5x5
I0205 01:22:49.950577   178 net.cpp:435] inception_4d/5x5 <- inception_4d/5x5_reduce
I0205 01:22:49.950588   178 net.cpp:409] inception_4d/5x5 -> inception_4d/5x5
I0205 01:22:49.951181   178 net.cpp:144] Setting up inception_4d/5x5
I0205 01:22:49.951195   178 net.cpp:151] Top shape: 32 64 14 14 (401408)
I0205 01:22:49.951201   178 net.cpp:159] Memory required for data: 1512063876
I0205 01:22:49.951210   178 layer_factory.hpp:77] Creating layer inception_4d/relu_5x5
I0205 01:22:49.951218   178 net.cpp:94] Creating Layer inception_4d/relu_5x5
I0205 01:22:49.951225   178 net.cpp:435] inception_4d/relu_5x5 <- inception_4d/5x5
I0205 01:22:49.951234   178 net.cpp:396] inception_4d/relu_5x5 -> inception_4d/5x5 (in-place)
I0205 01:22:49.951246   178 net.cpp:144] Setting up inception_4d/relu_5x5
I0205 01:22:49.951267   178 net.cpp:151] Top shape: 32 64 14 14 (401408)
I0205 01:22:49.951274   178 net.cpp:159] Memory required for data: 1513669508
I0205 01:22:49.951282   178 layer_factory.hpp:77] Creating layer inception_4d/pool
I0205 01:22:49.951292   178 net.cpp:94] Creating Layer inception_4d/pool
I0205 01:22:49.951298   178 net.cpp:435] inception_4d/pool <- inception_4c/output_inception_4c/output_0_split_3
I0205 01:22:49.951308   178 net.cpp:409] inception_4d/pool -> inception_4d/pool
I0205 01:22:49.951356   178 net.cpp:144] Setting up inception_4d/pool
I0205 01:22:49.951366   178 net.cpp:151] Top shape: 32 512 14 14 (3211264)
I0205 01:22:49.951371   178 net.cpp:159] Memory required for data: 1526514564
I0205 01:22:49.951378   178 layer_factory.hpp:77] Creating layer inception_4d/pool_proj
I0205 01:22:49.951390   178 net.cpp:94] Creating Layer inception_4d/pool_proj
I0205 01:22:49.951397   178 net.cpp:435] inception_4d/pool_proj <- inception_4d/pool
I0205 01:22:49.951408   178 net.cpp:409] inception_4d/pool_proj -> inception_4d/pool_proj
I0205 01:22:49.951831   178 net.cpp:144] Setting up inception_4d/pool_proj
I0205 01:22:49.951843   178 net.cpp:151] Top shape: 32 64 14 14 (401408)
I0205 01:22:49.951849   178 net.cpp:159] Memory required for data: 1528120196
I0205 01:22:49.951858   178 layer_factory.hpp:77] Creating layer inception_4d/relu_pool_proj
I0205 01:22:49.951867   178 net.cpp:94] Creating Layer inception_4d/relu_pool_proj
I0205 01:22:49.951874   178 net.cpp:435] inception_4d/relu_pool_proj <- inception_4d/pool_proj
I0205 01:22:49.951884   178 net.cpp:396] inception_4d/relu_pool_proj -> inception_4d/pool_proj (in-place)
I0205 01:22:49.951894   178 net.cpp:144] Setting up inception_4d/relu_pool_proj
I0205 01:22:49.951900   178 net.cpp:151] Top shape: 32 64 14 14 (401408)
I0205 01:22:49.951906   178 net.cpp:159] Memory required for data: 1529725828
I0205 01:22:49.951912   178 layer_factory.hpp:77] Creating layer inception_4d/output
I0205 01:22:49.951921   178 net.cpp:94] Creating Layer inception_4d/output
I0205 01:22:49.951928   178 net.cpp:435] inception_4d/output <- inception_4d/1x1
I0205 01:22:49.951936   178 net.cpp:435] inception_4d/output <- inception_4d/3x3
I0205 01:22:49.951942   178 net.cpp:435] inception_4d/output <- inception_4d/5x5
I0205 01:22:49.951949   178 net.cpp:435] inception_4d/output <- inception_4d/pool_proj
I0205 01:22:49.951958   178 net.cpp:409] inception_4d/output -> inception_4d/output
I0205 01:22:49.951992   178 net.cpp:144] Setting up inception_4d/output
I0205 01:22:49.952000   178 net.cpp:151] Top shape: 32 528 14 14 (3311616)
I0205 01:22:49.952006   178 net.cpp:159] Memory required for data: 1542972292
I0205 01:22:49.952013   178 layer_factory.hpp:77] Creating layer inception_4d/output_inception_4d/output_0_split
I0205 01:22:49.952023   178 net.cpp:94] Creating Layer inception_4d/output_inception_4d/output_0_split
I0205 01:22:49.952030   178 net.cpp:435] inception_4d/output_inception_4d/output_0_split <- inception_4d/output
I0205 01:22:49.952055   178 net.cpp:409] inception_4d/output_inception_4d/output_0_split -> inception_4d/output_inception_4d/output_0_split_0
I0205 01:22:49.952069   178 net.cpp:409] inception_4d/output_inception_4d/output_0_split -> inception_4d/output_inception_4d/output_0_split_1
I0205 01:22:49.952080   178 net.cpp:409] inception_4d/output_inception_4d/output_0_split -> inception_4d/output_inception_4d/output_0_split_2
I0205 01:22:49.952090   178 net.cpp:409] inception_4d/output_inception_4d/output_0_split -> inception_4d/output_inception_4d/output_0_split_3
I0205 01:22:49.952100   178 net.cpp:409] inception_4d/output_inception_4d/output_0_split -> inception_4d/output_inception_4d/output_0_split_4
I0205 01:22:49.952172   178 net.cpp:144] Setting up inception_4d/output_inception_4d/output_0_split
I0205 01:22:49.952183   178 net.cpp:151] Top shape: 32 528 14 14 (3311616)
I0205 01:22:49.952189   178 net.cpp:151] Top shape: 32 528 14 14 (3311616)
I0205 01:22:49.952195   178 net.cpp:151] Top shape: 32 528 14 14 (3311616)
I0205 01:22:49.952203   178 net.cpp:151] Top shape: 32 528 14 14 (3311616)
I0205 01:22:49.952221   178 net.cpp:151] Top shape: 32 528 14 14 (3311616)
I0205 01:22:49.952227   178 net.cpp:159] Memory required for data: 1609204612
I0205 01:22:49.952234   178 layer_factory.hpp:77] Creating layer loss2/ave_pool
I0205 01:22:49.952242   178 net.cpp:94] Creating Layer loss2/ave_pool
I0205 01:22:49.952250   178 net.cpp:435] loss2/ave_pool <- inception_4d/output_inception_4d/output_0_split_0
I0205 01:22:49.952260   178 net.cpp:409] loss2/ave_pool -> loss2/ave_pool
I0205 01:22:49.952293   178 net.cpp:144] Setting up loss2/ave_pool
I0205 01:22:49.952303   178 net.cpp:151] Top shape: 32 528 4 4 (270336)
I0205 01:22:49.952309   178 net.cpp:159] Memory required for data: 1610285956
I0205 01:22:49.952316   178 layer_factory.hpp:77] Creating layer loss2/conv
I0205 01:22:49.952327   178 net.cpp:94] Creating Layer loss2/conv
I0205 01:22:49.952334   178 net.cpp:435] loss2/conv <- loss2/ave_pool
I0205 01:22:49.952344   178 net.cpp:409] loss2/conv -> loss2/conv
I0205 01:22:49.953655   178 net.cpp:144] Setting up loss2/conv
I0205 01:22:49.953670   178 net.cpp:151] Top shape: 32 128 4 4 (65536)
I0205 01:22:49.953676   178 net.cpp:159] Memory required for data: 1610548100
I0205 01:22:49.953686   178 layer_factory.hpp:77] Creating layer loss2/relu_conv
I0205 01:22:49.953696   178 net.cpp:94] Creating Layer loss2/relu_conv
I0205 01:22:49.953703   178 net.cpp:435] loss2/relu_conv <- loss2/conv
I0205 01:22:49.953713   178 net.cpp:396] loss2/relu_conv -> loss2/conv (in-place)
I0205 01:22:49.953724   178 net.cpp:144] Setting up loss2/relu_conv
I0205 01:22:49.953732   178 net.cpp:151] Top shape: 32 128 4 4 (65536)
I0205 01:22:49.953737   178 net.cpp:159] Memory required for data: 1610810244
I0205 01:22:49.953743   178 layer_factory.hpp:77] Creating layer loss2/fc
I0205 01:22:49.953753   178 net.cpp:94] Creating Layer loss2/fc
I0205 01:22:49.953760   178 net.cpp:435] loss2/fc <- loss2/conv
I0205 01:22:49.953769   178 net.cpp:409] loss2/fc -> loss2/fc
I0205 01:22:49.970710   178 net.cpp:144] Setting up loss2/fc
I0205 01:22:49.970726   178 net.cpp:151] Top shape: 32 1024 (32768)
I0205 01:22:49.970733   178 net.cpp:159] Memory required for data: 1610941316
I0205 01:22:49.970743   178 layer_factory.hpp:77] Creating layer loss2/relu_fc
I0205 01:22:49.970754   178 net.cpp:94] Creating Layer loss2/relu_fc
I0205 01:22:49.970762   178 net.cpp:435] loss2/relu_fc <- loss2/fc
I0205 01:22:49.970772   178 net.cpp:396] loss2/relu_fc -> loss2/fc (in-place)
I0205 01:22:49.970784   178 net.cpp:144] Setting up loss2/relu_fc
I0205 01:22:49.970791   178 net.cpp:151] Top shape: 32 1024 (32768)
I0205 01:22:49.970796   178 net.cpp:159] Memory required for data: 1611072388
I0205 01:22:49.970803   178 layer_factory.hpp:77] Creating layer loss2/drop_fc
I0205 01:22:49.970811   178 net.cpp:94] Creating Layer loss2/drop_fc
I0205 01:22:49.970818   178 net.cpp:435] loss2/drop_fc <- loss2/fc
I0205 01:22:49.970826   178 net.cpp:396] loss2/drop_fc -> loss2/fc (in-place)
I0205 01:22:49.970858   178 net.cpp:144] Setting up loss2/drop_fc
I0205 01:22:49.970868   178 net.cpp:151] Top shape: 32 1024 (32768)
I0205 01:22:49.970873   178 net.cpp:159] Memory required for data: 1611203460
I0205 01:22:49.970880   178 layer_factory.hpp:77] Creating layer loss2/classifier
I0205 01:22:49.970890   178 net.cpp:94] Creating Layer loss2/classifier
I0205 01:22:49.970897   178 net.cpp:435] loss2/classifier <- loss2/fc
I0205 01:22:49.970907   178 net.cpp:409] loss2/classifier -> loss2/classifier
I0205 01:22:49.971035   178 net.cpp:144] Setting up loss2/classifier
I0205 01:22:49.971063   178 net.cpp:151] Top shape: 32 3 (96)
I0205 01:22:49.971069   178 net.cpp:159] Memory required for data: 1611203844
I0205 01:22:49.971078   178 layer_factory.hpp:77] Creating layer loss2/loss
I0205 01:22:49.971089   178 net.cpp:94] Creating Layer loss2/loss
I0205 01:22:49.971096   178 net.cpp:435] loss2/loss <- loss2/classifier
I0205 01:22:49.971103   178 net.cpp:435] loss2/loss <- label_train-data_1_split_1
I0205 01:22:49.971113   178 net.cpp:409] loss2/loss -> loss2/loss
I0205 01:22:49.971143   178 layer_factory.hpp:77] Creating layer loss2/loss
I0205 01:22:49.971246   178 net.cpp:144] Setting up loss2/loss
I0205 01:22:49.971256   178 net.cpp:151] Top shape: (1)
I0205 01:22:49.971261   178 net.cpp:154]     with loss weight 0.3
I0205 01:22:49.971273   178 net.cpp:159] Memory required for data: 1611203848
I0205 01:22:49.971280   178 layer_factory.hpp:77] Creating layer inception_4e/1x1
I0205 01:22:49.971293   178 net.cpp:94] Creating Layer inception_4e/1x1
I0205 01:22:49.971302   178 net.cpp:435] inception_4e/1x1 <- inception_4d/output_inception_4d/output_0_split_1
I0205 01:22:49.971312   178 net.cpp:409] inception_4e/1x1 -> inception_4e/1x1
I0205 01:22:49.972400   178 net.cpp:144] Setting up inception_4e/1x1
I0205 01:22:49.972414   178 net.cpp:151] Top shape: 32 256 14 14 (1605632)
I0205 01:22:49.972419   178 net.cpp:159] Memory required for data: 1617626376
I0205 01:22:49.972429   178 layer_factory.hpp:77] Creating layer inception_4e/relu_1x1
I0205 01:22:49.972437   178 net.cpp:94] Creating Layer inception_4e/relu_1x1
I0205 01:22:49.972445   178 net.cpp:435] inception_4e/relu_1x1 <- inception_4e/1x1
I0205 01:22:49.972453   178 net.cpp:396] inception_4e/relu_1x1 -> inception_4e/1x1 (in-place)
I0205 01:22:49.972465   178 net.cpp:144] Setting up inception_4e/relu_1x1
I0205 01:22:49.972471   178 net.cpp:151] Top shape: 32 256 14 14 (1605632)
I0205 01:22:49.972477   178 net.cpp:159] Memory required for data: 1624048904
I0205 01:22:49.972483   178 layer_factory.hpp:77] Creating layer inception_4e/3x3_reduce
I0205 01:22:49.972499   178 net.cpp:94] Creating Layer inception_4e/3x3_reduce
I0205 01:22:49.972506   178 net.cpp:435] inception_4e/3x3_reduce <- inception_4d/output_inception_4d/output_0_split_2
I0205 01:22:49.972517   178 net.cpp:409] inception_4e/3x3_reduce -> inception_4e/3x3_reduce
I0205 01:22:49.973996   178 net.cpp:144] Setting up inception_4e/3x3_reduce
I0205 01:22:49.974012   178 net.cpp:151] Top shape: 32 160 14 14 (1003520)
I0205 01:22:49.974018   178 net.cpp:159] Memory required for data: 1628062984
I0205 01:22:49.974027   178 layer_factory.hpp:77] Creating layer inception_4e/relu_3x3_reduce
I0205 01:22:49.974038   178 net.cpp:94] Creating Layer inception_4e/relu_3x3_reduce
I0205 01:22:49.974064   178 net.cpp:435] inception_4e/relu_3x3_reduce <- inception_4e/3x3_reduce
I0205 01:22:49.974076   178 net.cpp:396] inception_4e/relu_3x3_reduce -> inception_4e/3x3_reduce (in-place)
I0205 01:22:49.974088   178 net.cpp:144] Setting up inception_4e/relu_3x3_reduce
I0205 01:22:49.974097   178 net.cpp:151] Top shape: 32 160 14 14 (1003520)
I0205 01:22:49.974102   178 net.cpp:159] Memory required for data: 1632077064
I0205 01:22:49.974108   178 layer_factory.hpp:77] Creating layer inception_4e/3x3
I0205 01:22:49.974123   178 net.cpp:94] Creating Layer inception_4e/3x3
I0205 01:22:49.974129   178 net.cpp:435] inception_4e/3x3 <- inception_4e/3x3_reduce
I0205 01:22:49.974143   178 net.cpp:409] inception_4e/3x3 -> inception_4e/3x3
I0205 01:22:49.978266   178 net.cpp:144] Setting up inception_4e/3x3
I0205 01:22:49.978282   178 net.cpp:151] Top shape: 32 320 14 14 (2007040)
I0205 01:22:49.978288   178 net.cpp:159] Memory required for data: 1640105224
I0205 01:22:49.978298   178 layer_factory.hpp:77] Creating layer inception_4e/relu_3x3
I0205 01:22:49.978308   178 net.cpp:94] Creating Layer inception_4e/relu_3x3
I0205 01:22:49.978315   178 net.cpp:435] inception_4e/relu_3x3 <- inception_4e/3x3
I0205 01:22:49.978327   178 net.cpp:396] inception_4e/relu_3x3 -> inception_4e/3x3 (in-place)
I0205 01:22:49.978339   178 net.cpp:144] Setting up inception_4e/relu_3x3
I0205 01:22:49.978346   178 net.cpp:151] Top shape: 32 320 14 14 (2007040)
I0205 01:22:49.978353   178 net.cpp:159] Memory required for data: 1648133384
I0205 01:22:49.978358   178 layer_factory.hpp:77] Creating layer inception_4e/5x5_reduce
I0205 01:22:49.978372   178 net.cpp:94] Creating Layer inception_4e/5x5_reduce
I0205 01:22:49.978379   178 net.cpp:435] inception_4e/5x5_reduce <- inception_4d/output_inception_4d/output_0_split_3
I0205 01:22:49.978408   178 net.cpp:409] inception_4e/5x5_reduce -> inception_4e/5x5_reduce
I0205 01:22:49.978833   178 net.cpp:144] Setting up inception_4e/5x5_reduce
I0205 01:22:49.978847   178 net.cpp:151] Top shape: 32 32 14 14 (200704)
I0205 01:22:49.978852   178 net.cpp:159] Memory required for data: 1648936200
I0205 01:22:49.978862   178 layer_factory.hpp:77] Creating layer inception_4e/relu_5x5_reduce
I0205 01:22:49.978870   178 net.cpp:94] Creating Layer inception_4e/relu_5x5_reduce
I0205 01:22:49.978878   178 net.cpp:435] inception_4e/relu_5x5_reduce <- inception_4e/5x5_reduce
I0205 01:22:49.978889   178 net.cpp:396] inception_4e/relu_5x5_reduce -> inception_4e/5x5_reduce (in-place)
I0205 01:22:49.978900   178 net.cpp:144] Setting up inception_4e/relu_5x5_reduce
I0205 01:22:49.978907   178 net.cpp:151] Top shape: 32 32 14 14 (200704)
I0205 01:22:49.978912   178 net.cpp:159] Memory required for data: 1649739016
I0205 01:22:49.978919   178 layer_factory.hpp:77] Creating layer inception_4e/5x5
I0205 01:22:49.978968   178 net.cpp:94] Creating Layer inception_4e/5x5
I0205 01:22:49.978976   178 net.cpp:435] inception_4e/5x5 <- inception_4e/5x5_reduce
I0205 01:22:49.978984   178 net.cpp:409] inception_4e/5x5 -> inception_4e/5x5
I0205 01:22:49.979890   178 net.cpp:144] Setting up inception_4e/5x5
I0205 01:22:49.979902   178 net.cpp:151] Top shape: 32 128 14 14 (802816)
I0205 01:22:49.979908   178 net.cpp:159] Memory required for data: 1652950280
I0205 01:22:49.979918   178 layer_factory.hpp:77] Creating layer inception_4e/relu_5x5
I0205 01:22:49.979925   178 net.cpp:94] Creating Layer inception_4e/relu_5x5
I0205 01:22:49.979933   178 net.cpp:435] inception_4e/relu_5x5 <- inception_4e/5x5
I0205 01:22:49.979945   178 net.cpp:396] inception_4e/relu_5x5 -> inception_4e/5x5 (in-place)
I0205 01:22:49.979955   178 net.cpp:144] Setting up inception_4e/relu_5x5
I0205 01:22:49.979962   178 net.cpp:151] Top shape: 32 128 14 14 (802816)
I0205 01:22:49.979969   178 net.cpp:159] Memory required for data: 1656161544
I0205 01:22:49.979974   178 layer_factory.hpp:77] Creating layer inception_4e/pool
I0205 01:22:49.979984   178 net.cpp:94] Creating Layer inception_4e/pool
I0205 01:22:49.979990   178 net.cpp:435] inception_4e/pool <- inception_4d/output_inception_4d/output_0_split_4
I0205 01:22:49.979998   178 net.cpp:409] inception_4e/pool -> inception_4e/pool
I0205 01:22:49.980064   178 net.cpp:144] Setting up inception_4e/pool
I0205 01:22:49.980078   178 net.cpp:151] Top shape: 32 528 14 14 (3311616)
I0205 01:22:49.980084   178 net.cpp:159] Memory required for data: 1669408008
I0205 01:22:49.980092   178 layer_factory.hpp:77] Creating layer inception_4e/pool_proj
I0205 01:22:49.980105   178 net.cpp:94] Creating Layer inception_4e/pool_proj
I0205 01:22:49.980113   178 net.cpp:435] inception_4e/pool_proj <- inception_4e/pool
I0205 01:22:49.980121   178 net.cpp:409] inception_4e/pool_proj -> inception_4e/pool_proj
I0205 01:22:49.980784   178 net.cpp:144] Setting up inception_4e/pool_proj
I0205 01:22:49.980795   178 net.cpp:151] Top shape: 32 128 14 14 (802816)
I0205 01:22:49.980801   178 net.cpp:159] Memory required for data: 1672619272
I0205 01:22:49.980809   178 layer_factory.hpp:77] Creating layer inception_4e/relu_pool_proj
I0205 01:22:49.980818   178 net.cpp:94] Creating Layer inception_4e/relu_pool_proj
I0205 01:22:49.980825   178 net.cpp:435] inception_4e/relu_pool_proj <- inception_4e/pool_proj
I0205 01:22:49.980836   178 net.cpp:396] inception_4e/relu_pool_proj -> inception_4e/pool_proj (in-place)
I0205 01:22:49.980847   178 net.cpp:144] Setting up inception_4e/relu_pool_proj
I0205 01:22:49.980854   178 net.cpp:151] Top shape: 32 128 14 14 (802816)
I0205 01:22:49.980859   178 net.cpp:159] Memory required for data: 1675830536
I0205 01:22:49.980865   178 layer_factory.hpp:77] Creating layer inception_4e/output
I0205 01:22:49.980875   178 net.cpp:94] Creating Layer inception_4e/output
I0205 01:22:49.980880   178 net.cpp:435] inception_4e/output <- inception_4e/1x1
I0205 01:22:49.980890   178 net.cpp:435] inception_4e/output <- inception_4e/3x3
I0205 01:22:49.980911   178 net.cpp:435] inception_4e/output <- inception_4e/5x5
I0205 01:22:49.980917   178 net.cpp:435] inception_4e/output <- inception_4e/pool_proj
I0205 01:22:49.980929   178 net.cpp:409] inception_4e/output -> inception_4e/output
I0205 01:22:49.980967   178 net.cpp:144] Setting up inception_4e/output
I0205 01:22:49.980976   178 net.cpp:151] Top shape: 32 832 14 14 (5218304)
I0205 01:22:49.980981   178 net.cpp:159] Memory required for data: 1696703752
I0205 01:22:49.980988   178 layer_factory.hpp:77] Creating layer pool4/3x3_s2
I0205 01:22:49.980996   178 net.cpp:94] Creating Layer pool4/3x3_s2
I0205 01:22:49.981003   178 net.cpp:435] pool4/3x3_s2 <- inception_4e/output
I0205 01:22:49.981011   178 net.cpp:409] pool4/3x3_s2 -> pool4/3x3_s2
I0205 01:22:49.981086   178 net.cpp:144] Setting up pool4/3x3_s2
I0205 01:22:49.981097   178 net.cpp:151] Top shape: 32 832 7 7 (1304576)
I0205 01:22:49.981103   178 net.cpp:159] Memory required for data: 1701922056
I0205 01:22:49.981109   178 layer_factory.hpp:77] Creating layer pool4/3x3_s2_pool4/3x3_s2_0_split
I0205 01:22:49.981122   178 net.cpp:94] Creating Layer pool4/3x3_s2_pool4/3x3_s2_0_split
I0205 01:22:49.981128   178 net.cpp:435] pool4/3x3_s2_pool4/3x3_s2_0_split <- pool4/3x3_s2
I0205 01:22:49.981137   178 net.cpp:409] pool4/3x3_s2_pool4/3x3_s2_0_split -> pool4/3x3_s2_pool4/3x3_s2_0_split_0
I0205 01:22:49.981150   178 net.cpp:409] pool4/3x3_s2_pool4/3x3_s2_0_split -> pool4/3x3_s2_pool4/3x3_s2_0_split_1
I0205 01:22:49.981160   178 net.cpp:409] pool4/3x3_s2_pool4/3x3_s2_0_split -> pool4/3x3_s2_pool4/3x3_s2_0_split_2
I0205 01:22:49.981169   178 net.cpp:409] pool4/3x3_s2_pool4/3x3_s2_0_split -> pool4/3x3_s2_pool4/3x3_s2_0_split_3
I0205 01:22:49.981240   178 net.cpp:144] Setting up pool4/3x3_s2_pool4/3x3_s2_0_split
I0205 01:22:49.981250   178 net.cpp:151] Top shape: 32 832 7 7 (1304576)
I0205 01:22:49.981256   178 net.cpp:151] Top shape: 32 832 7 7 (1304576)
I0205 01:22:49.981263   178 net.cpp:151] Top shape: 32 832 7 7 (1304576)
I0205 01:22:49.981269   178 net.cpp:151] Top shape: 32 832 7 7 (1304576)
I0205 01:22:49.981276   178 net.cpp:159] Memory required for data: 1722795272
I0205 01:22:49.981281   178 layer_factory.hpp:77] Creating layer inception_5a/1x1
I0205 01:22:49.981295   178 net.cpp:94] Creating Layer inception_5a/1x1
I0205 01:22:49.981302   178 net.cpp:435] inception_5a/1x1 <- pool4/3x3_s2_pool4/3x3_s2_0_split_0
I0205 01:22:49.981312   178 net.cpp:409] inception_5a/1x1 -> inception_5a/1x1
I0205 01:22:49.983641   178 net.cpp:144] Setting up inception_5a/1x1
I0205 01:22:49.983659   178 net.cpp:151] Top shape: 32 256 7 7 (401408)
I0205 01:22:49.983664   178 net.cpp:159] Memory required for data: 1724400904
I0205 01:22:49.983673   178 layer_factory.hpp:77] Creating layer inception_5a/relu_1x1
I0205 01:22:49.983683   178 net.cpp:94] Creating Layer inception_5a/relu_1x1
I0205 01:22:49.983690   178 net.cpp:435] inception_5a/relu_1x1 <- inception_5a/1x1
I0205 01:22:49.983702   178 net.cpp:396] inception_5a/relu_1x1 -> inception_5a/1x1 (in-place)
I0205 01:22:49.983714   178 net.cpp:144] Setting up inception_5a/relu_1x1
I0205 01:22:49.983721   178 net.cpp:151] Top shape: 32 256 7 7 (401408)
I0205 01:22:49.983727   178 net.cpp:159] Memory required for data: 1726006536
I0205 01:22:49.983733   178 layer_factory.hpp:77] Creating layer inception_5a/3x3_reduce
I0205 01:22:49.983747   178 net.cpp:94] Creating Layer inception_5a/3x3_reduce
I0205 01:22:49.983754   178 net.cpp:435] inception_5a/3x3_reduce <- pool4/3x3_s2_pool4/3x3_s2_0_split_1
I0205 01:22:49.983767   178 net.cpp:409] inception_5a/3x3_reduce -> inception_5a/3x3_reduce
I0205 01:22:49.985615   178 net.cpp:144] Setting up inception_5a/3x3_reduce
I0205 01:22:49.985630   178 net.cpp:151] Top shape: 32 160 7 7 (250880)
I0205 01:22:49.985636   178 net.cpp:159] Memory required for data: 1727010056
I0205 01:22:49.985646   178 layer_factory.hpp:77] Creating layer inception_5a/relu_3x3_reduce
I0205 01:22:49.985656   178 net.cpp:94] Creating Layer inception_5a/relu_3x3_reduce
I0205 01:22:49.985677   178 net.cpp:435] inception_5a/relu_3x3_reduce <- inception_5a/3x3_reduce
I0205 01:22:49.985690   178 net.cpp:396] inception_5a/relu_3x3_reduce -> inception_5a/3x3_reduce (in-place)
I0205 01:22:49.985702   178 net.cpp:144] Setting up inception_5a/relu_3x3_reduce
I0205 01:22:49.985710   178 net.cpp:151] Top shape: 32 160 7 7 (250880)
I0205 01:22:49.985715   178 net.cpp:159] Memory required for data: 1728013576
I0205 01:22:49.985721   178 layer_factory.hpp:77] Creating layer inception_5a/3x3
I0205 01:22:49.985738   178 net.cpp:94] Creating Layer inception_5a/3x3
I0205 01:22:49.985745   178 net.cpp:435] inception_5a/3x3 <- inception_5a/3x3_reduce
I0205 01:22:49.985754   178 net.cpp:409] inception_5a/3x3 -> inception_5a/3x3
I0205 01:22:49.990010   178 net.cpp:144] Setting up inception_5a/3x3
I0205 01:22:49.990026   178 net.cpp:151] Top shape: 32 320 7 7 (501760)
I0205 01:22:49.990032   178 net.cpp:159] Memory required for data: 1730020616
I0205 01:22:49.990058   178 layer_factory.hpp:77] Creating layer inception_5a/relu_3x3
I0205 01:22:49.990072   178 net.cpp:94] Creating Layer inception_5a/relu_3x3
I0205 01:22:49.990080   178 net.cpp:435] inception_5a/relu_3x3 <- inception_5a/3x3
I0205 01:22:49.990089   178 net.cpp:396] inception_5a/relu_3x3 -> inception_5a/3x3 (in-place)
I0205 01:22:49.990100   178 net.cpp:144] Setting up inception_5a/relu_3x3
I0205 01:22:49.990108   178 net.cpp:151] Top shape: 32 320 7 7 (501760)
I0205 01:22:49.990113   178 net.cpp:159] Memory required for data: 1732027656
I0205 01:22:49.990119   178 layer_factory.hpp:77] Creating layer inception_5a/5x5_reduce
I0205 01:22:49.990134   178 net.cpp:94] Creating Layer inception_5a/5x5_reduce
I0205 01:22:49.990141   178 net.cpp:435] inception_5a/5x5_reduce <- pool4/3x3_s2_pool4/3x3_s2_0_split_2
I0205 01:22:49.990154   178 net.cpp:409] inception_5a/5x5_reduce -> inception_5a/5x5_reduce
I0205 01:22:49.990612   178 net.cpp:144] Setting up inception_5a/5x5_reduce
I0205 01:22:49.990622   178 net.cpp:151] Top shape: 32 32 7 7 (50176)
I0205 01:22:49.990628   178 net.cpp:159] Memory required for data: 1732228360
I0205 01:22:49.990636   178 layer_factory.hpp:77] Creating layer inception_5a/relu_5x5_reduce
I0205 01:22:49.990645   178 net.cpp:94] Creating Layer inception_5a/relu_5x5_reduce
I0205 01:22:49.990653   178 net.cpp:435] inception_5a/relu_5x5_reduce <- inception_5a/5x5_reduce
I0205 01:22:49.990684   178 net.cpp:396] inception_5a/relu_5x5_reduce -> inception_5a/5x5_reduce (in-place)
I0205 01:22:49.990701   178 net.cpp:144] Setting up inception_5a/relu_5x5_reduce
I0205 01:22:49.990824   178 net.cpp:151] Top shape: 32 32 7 7 (50176)
I0205 01:22:49.990833   178 net.cpp:159] Memory required for data: 1732429064
I0205 01:22:49.990839   178 layer_factory.hpp:77] Creating layer inception_5a/5x5
I0205 01:22:49.990854   178 net.cpp:94] Creating Layer inception_5a/5x5
I0205 01:22:49.990861   178 net.cpp:435] inception_5a/5x5 <- inception_5a/5x5_reduce
I0205 01:22:49.990870   178 net.cpp:409] inception_5a/5x5 -> inception_5a/5x5
I0205 01:22:49.991823   178 net.cpp:144] Setting up inception_5a/5x5
I0205 01:22:49.991837   178 net.cpp:151] Top shape: 32 128 7 7 (200704)
I0205 01:22:49.991842   178 net.cpp:159] Memory required for data: 1733231880
I0205 01:22:49.991850   178 layer_factory.hpp:77] Creating layer inception_5a/relu_5x5
I0205 01:22:49.991859   178 net.cpp:94] Creating Layer inception_5a/relu_5x5
I0205 01:22:49.991866   178 net.cpp:435] inception_5a/relu_5x5 <- inception_5a/5x5
I0205 01:22:49.991878   178 net.cpp:396] inception_5a/relu_5x5 -> inception_5a/5x5 (in-place)
I0205 01:22:49.991888   178 net.cpp:144] Setting up inception_5a/relu_5x5
I0205 01:22:49.991895   178 net.cpp:151] Top shape: 32 128 7 7 (200704)
I0205 01:22:49.991901   178 net.cpp:159] Memory required for data: 1734034696
I0205 01:22:49.991907   178 layer_factory.hpp:77] Creating layer inception_5a/pool
I0205 01:22:49.991916   178 net.cpp:94] Creating Layer inception_5a/pool
I0205 01:22:49.991924   178 net.cpp:435] inception_5a/pool <- pool4/3x3_s2_pool4/3x3_s2_0_split_3
I0205 01:22:49.991950   178 net.cpp:409] inception_5a/pool -> inception_5a/pool
I0205 01:22:49.992002   178 net.cpp:144] Setting up inception_5a/pool
I0205 01:22:49.992013   178 net.cpp:151] Top shape: 32 832 7 7 (1304576)
I0205 01:22:49.992019   178 net.cpp:159] Memory required for data: 1739253000
I0205 01:22:49.992025   178 layer_factory.hpp:77] Creating layer inception_5a/pool_proj
I0205 01:22:49.992055   178 net.cpp:94] Creating Layer inception_5a/pool_proj
I0205 01:22:49.992065   178 net.cpp:435] inception_5a/pool_proj <- inception_5a/pool
I0205 01:22:49.992075   178 net.cpp:409] inception_5a/pool_proj -> inception_5a/pool_proj
I0205 01:22:49.993647   178 net.cpp:144] Setting up inception_5a/pool_proj
I0205 01:22:49.993662   178 net.cpp:151] Top shape: 32 128 7 7 (200704)
I0205 01:22:49.993669   178 net.cpp:159] Memory required for data: 1740055816
I0205 01:22:49.993679   178 layer_factory.hpp:77] Creating layer inception_5a/relu_pool_proj
I0205 01:22:49.993688   178 net.cpp:94] Creating Layer inception_5a/relu_pool_proj
I0205 01:22:49.993695   178 net.cpp:435] inception_5a/relu_pool_proj <- inception_5a/pool_proj
I0205 01:22:49.993707   178 net.cpp:396] inception_5a/relu_pool_proj -> inception_5a/pool_proj (in-place)
I0205 01:22:49.993718   178 net.cpp:144] Setting up inception_5a/relu_pool_proj
I0205 01:22:49.993726   178 net.cpp:151] Top shape: 32 128 7 7 (200704)
I0205 01:22:49.993731   178 net.cpp:159] Memory required for data: 1740858632
I0205 01:22:49.993737   178 layer_factory.hpp:77] Creating layer inception_5a/output
I0205 01:22:49.993746   178 net.cpp:94] Creating Layer inception_5a/output
I0205 01:22:49.993752   178 net.cpp:435] inception_5a/output <- inception_5a/1x1
I0205 01:22:49.993759   178 net.cpp:435] inception_5a/output <- inception_5a/3x3
I0205 01:22:49.993767   178 net.cpp:435] inception_5a/output <- inception_5a/5x5
I0205 01:22:49.993774   178 net.cpp:435] inception_5a/output <- inception_5a/pool_proj
I0205 01:22:49.993785   178 net.cpp:409] inception_5a/output -> inception_5a/output
I0205 01:22:49.993822   178 net.cpp:144] Setting up inception_5a/output
I0205 01:22:49.993831   178 net.cpp:151] Top shape: 32 832 7 7 (1304576)
I0205 01:22:49.993837   178 net.cpp:159] Memory required for data: 1746076936
I0205 01:22:49.993844   178 layer_factory.hpp:77] Creating layer inception_5a/output_inception_5a/output_0_split
I0205 01:22:49.993854   178 net.cpp:94] Creating Layer inception_5a/output_inception_5a/output_0_split
I0205 01:22:49.993860   178 net.cpp:435] inception_5a/output_inception_5a/output_0_split <- inception_5a/output
I0205 01:22:49.993871   178 net.cpp:409] inception_5a/output_inception_5a/output_0_split -> inception_5a/output_inception_5a/output_0_split_0
I0205 01:22:49.993881   178 net.cpp:409] inception_5a/output_inception_5a/output_0_split -> inception_5a/output_inception_5a/output_0_split_1
I0205 01:22:49.993891   178 net.cpp:409] inception_5a/output_inception_5a/output_0_split -> inception_5a/output_inception_5a/output_0_split_2
I0205 01:22:49.993903   178 net.cpp:409] inception_5a/output_inception_5a/output_0_split -> inception_5a/output_inception_5a/output_0_split_3
I0205 01:22:49.993980   178 net.cpp:144] Setting up inception_5a/output_inception_5a/output_0_split
I0205 01:22:49.993988   178 net.cpp:151] Top shape: 32 832 7 7 (1304576)
I0205 01:22:49.993995   178 net.cpp:151] Top shape: 32 832 7 7 (1304576)
I0205 01:22:49.994002   178 net.cpp:151] Top shape: 32 832 7 7 (1304576)
I0205 01:22:49.994009   178 net.cpp:151] Top shape: 32 832 7 7 (1304576)
I0205 01:22:49.994014   178 net.cpp:159] Memory required for data: 1766950152
I0205 01:22:49.994020   178 layer_factory.hpp:77] Creating layer inception_5b/1x1
I0205 01:22:49.994583   178 net.cpp:94] Creating Layer inception_5b/1x1
I0205 01:22:49.994594   178 net.cpp:435] inception_5b/1x1 <- inception_5a/output_inception_5a/output_0_split_0
I0205 01:22:49.994606   178 net.cpp:409] inception_5b/1x1 -> inception_5b/1x1
I0205 01:22:49.997650   178 net.cpp:144] Setting up inception_5b/1x1
I0205 01:22:49.997666   178 net.cpp:151] Top shape: 32 384 7 7 (602112)
I0205 01:22:49.997686   178 net.cpp:159] Memory required for data: 1769358600
I0205 01:22:49.997696   178 layer_factory.hpp:77] Creating layer inception_5b/relu_1x1
I0205 01:22:49.997706   178 net.cpp:94] Creating Layer inception_5b/relu_1x1
I0205 01:22:49.997714   178 net.cpp:435] inception_5b/relu_1x1 <- inception_5b/1x1
I0205 01:22:49.997725   178 net.cpp:396] inception_5b/relu_1x1 -> inception_5b/1x1 (in-place)
I0205 01:22:49.997737   178 net.cpp:144] Setting up inception_5b/relu_1x1
I0205 01:22:49.997745   178 net.cpp:151] Top shape: 32 384 7 7 (602112)
I0205 01:22:49.997750   178 net.cpp:159] Memory required for data: 1771767048
I0205 01:22:49.997756   178 layer_factory.hpp:77] Creating layer inception_5b/3x3_reduce
I0205 01:22:49.997771   178 net.cpp:94] Creating Layer inception_5b/3x3_reduce
I0205 01:22:49.997777   178 net.cpp:435] inception_5b/3x3_reduce <- inception_5a/output_inception_5a/output_0_split_1
I0205 01:22:49.997790   178 net.cpp:409] inception_5b/3x3_reduce -> inception_5b/3x3_reduce
I0205 01:22:49.999933   178 net.cpp:144] Setting up inception_5b/3x3_reduce
I0205 01:22:49.999948   178 net.cpp:151] Top shape: 32 192 7 7 (301056)
I0205 01:22:49.999955   178 net.cpp:159] Memory required for data: 1772971272
I0205 01:22:49.999964   178 layer_factory.hpp:77] Creating layer inception_5b/relu_3x3_reduce
I0205 01:22:49.999974   178 net.cpp:94] Creating Layer inception_5b/relu_3x3_reduce
I0205 01:22:49.999981   178 net.cpp:435] inception_5b/relu_3x3_reduce <- inception_5b/3x3_reduce
I0205 01:22:49.999994   178 net.cpp:396] inception_5b/relu_3x3_reduce -> inception_5b/3x3_reduce (in-place)
I0205 01:22:50.000006   178 net.cpp:144] Setting up inception_5b/relu_3x3_reduce
I0205 01:22:50.000013   178 net.cpp:151] Top shape: 32 192 7 7 (301056)
I0205 01:22:50.000020   178 net.cpp:159] Memory required for data: 1774175496
I0205 01:22:50.000025   178 layer_factory.hpp:77] Creating layer inception_5b/3x3
I0205 01:22:50.000056   178 net.cpp:94] Creating Layer inception_5b/3x3
I0205 01:22:50.000066   178 net.cpp:435] inception_5b/3x3 <- inception_5b/3x3_reduce
I0205 01:22:50.000077   178 net.cpp:409] inception_5b/3x3 -> inception_5b/3x3
I0205 01:22:50.006018   178 net.cpp:144] Setting up inception_5b/3x3
I0205 01:22:50.006036   178 net.cpp:151] Top shape: 32 384 7 7 (602112)
I0205 01:22:50.006060   178 net.cpp:159] Memory required for data: 1776583944
I0205 01:22:50.006069   178 layer_factory.hpp:77] Creating layer inception_5b/relu_3x3
I0205 01:22:50.006083   178 net.cpp:94] Creating Layer inception_5b/relu_3x3
I0205 01:22:50.006091   178 net.cpp:435] inception_5b/relu_3x3 <- inception_5b/3x3
I0205 01:22:50.006099   178 net.cpp:396] inception_5b/relu_3x3 -> inception_5b/3x3 (in-place)
I0205 01:22:50.006111   178 net.cpp:144] Setting up inception_5b/relu_3x3
I0205 01:22:50.006119   178 net.cpp:151] Top shape: 32 384 7 7 (602112)
I0205 01:22:50.006124   178 net.cpp:159] Memory required for data: 1778992392
I0205 01:22:50.006130   178 layer_factory.hpp:77] Creating layer inception_5b/5x5_reduce
I0205 01:22:50.006145   178 net.cpp:94] Creating Layer inception_5b/5x5_reduce
I0205 01:22:50.006152   178 net.cpp:435] inception_5b/5x5_reduce <- inception_5a/output_inception_5a/output_0_split_2
I0205 01:22:50.006165   178 net.cpp:409] inception_5b/5x5_reduce -> inception_5b/5x5_reduce
I0205 01:22:50.007612   178 net.cpp:144] Setting up inception_5b/5x5_reduce
I0205 01:22:50.007628   178 net.cpp:151] Top shape: 32 48 7 7 (75264)
I0205 01:22:50.007634   178 net.cpp:159] Memory required for data: 1779293448
I0205 01:22:50.007644   178 layer_factory.hpp:77] Creating layer inception_5b/relu_5x5_reduce
I0205 01:22:50.007654   178 net.cpp:94] Creating Layer inception_5b/relu_5x5_reduce
I0205 01:22:50.007661   178 net.cpp:435] inception_5b/relu_5x5_reduce <- inception_5b/5x5_reduce
I0205 01:22:50.007674   178 net.cpp:396] inception_5b/relu_5x5_reduce -> inception_5b/5x5_reduce (in-place)
I0205 01:22:50.007686   178 net.cpp:144] Setting up inception_5b/relu_5x5_reduce
I0205 01:22:50.007694   178 net.cpp:151] Top shape: 32 48 7 7 (75264)
I0205 01:22:50.007715   178 net.cpp:159] Memory required for data: 1779594504
I0205 01:22:50.007722   178 layer_factory.hpp:77] Creating layer inception_5b/5x5
I0205 01:22:50.007737   178 net.cpp:94] Creating Layer inception_5b/5x5
I0205 01:22:50.007745   178 net.cpp:435] inception_5b/5x5 <- inception_5b/5x5_reduce
I0205 01:22:50.007757   178 net.cpp:409] inception_5b/5x5 -> inception_5b/5x5
I0205 01:22:50.008980   178 net.cpp:144] Setting up inception_5b/5x5
I0205 01:22:50.008993   178 net.cpp:151] Top shape: 32 128 7 7 (200704)
I0205 01:22:50.008999   178 net.cpp:159] Memory required for data: 1780397320
I0205 01:22:50.009008   178 layer_factory.hpp:77] Creating layer inception_5b/relu_5x5
I0205 01:22:50.009021   178 net.cpp:94] Creating Layer inception_5b/relu_5x5
I0205 01:22:50.009028   178 net.cpp:435] inception_5b/relu_5x5 <- inception_5b/5x5
I0205 01:22:50.009037   178 net.cpp:396] inception_5b/relu_5x5 -> inception_5b/5x5 (in-place)
I0205 01:22:50.009064   178 net.cpp:144] Setting up inception_5b/relu_5x5
I0205 01:22:50.009073   178 net.cpp:151] Top shape: 32 128 7 7 (200704)
I0205 01:22:50.009078   178 net.cpp:159] Memory required for data: 1781200136
I0205 01:22:50.009084   178 layer_factory.hpp:77] Creating layer inception_5b/pool
I0205 01:22:50.009093   178 net.cpp:94] Creating Layer inception_5b/pool
I0205 01:22:50.009100   178 net.cpp:435] inception_5b/pool <- inception_5a/output_inception_5a/output_0_split_3
I0205 01:22:50.009112   178 net.cpp:409] inception_5b/pool -> inception_5b/pool
I0205 01:22:50.009169   178 net.cpp:144] Setting up inception_5b/pool
I0205 01:22:50.009179   178 net.cpp:151] Top shape: 32 832 7 7 (1304576)
I0205 01:22:50.009186   178 net.cpp:159] Memory required for data: 1786418440
I0205 01:22:50.009191   178 layer_factory.hpp:77] Creating layer inception_5b/pool_proj
I0205 01:22:50.009208   178 net.cpp:94] Creating Layer inception_5b/pool_proj
I0205 01:22:50.009215   178 net.cpp:435] inception_5b/pool_proj <- inception_5b/pool
I0205 01:22:50.009225   178 net.cpp:409] inception_5b/pool_proj -> inception_5b/pool_proj
I0205 01:22:50.011955   178 net.cpp:144] Setting up inception_5b/pool_proj
I0205 01:22:50.011970   178 net.cpp:151] Top shape: 32 128 7 7 (200704)
I0205 01:22:50.011977   178 net.cpp:159] Memory required for data: 1787221256
I0205 01:22:50.011987   178 layer_factory.hpp:77] Creating layer inception_5b/relu_pool_proj
I0205 01:22:50.012001   178 net.cpp:94] Creating Layer inception_5b/relu_pool_proj
I0205 01:22:50.012008   178 net.cpp:435] inception_5b/relu_pool_proj <- inception_5b/pool_proj
I0205 01:22:50.012017   178 net.cpp:396] inception_5b/relu_pool_proj -> inception_5b/pool_proj (in-place)
I0205 01:22:50.012029   178 net.cpp:144] Setting up inception_5b/relu_pool_proj
I0205 01:22:50.012037   178 net.cpp:151] Top shape: 32 128 7 7 (200704)
I0205 01:22:50.012061   178 net.cpp:159] Memory required for data: 1788024072
I0205 01:22:50.012068   178 layer_factory.hpp:77] Creating layer inception_5b/output
I0205 01:22:50.012078   178 net.cpp:94] Creating Layer inception_5b/output
I0205 01:22:50.012084   178 net.cpp:435] inception_5b/output <- inception_5b/1x1
I0205 01:22:50.012092   178 net.cpp:435] inception_5b/output <- inception_5b/3x3
I0205 01:22:50.012099   178 net.cpp:435] inception_5b/output <- inception_5b/5x5
I0205 01:22:50.012106   178 net.cpp:435] inception_5b/output <- inception_5b/pool_proj
I0205 01:22:50.012118   178 net.cpp:409] inception_5b/output -> inception_5b/output
I0205 01:22:50.012161   178 net.cpp:144] Setting up inception_5b/output
I0205 01:22:50.012169   178 net.cpp:151] Top shape: 32 1024 7 7 (1605632)
I0205 01:22:50.012176   178 net.cpp:159] Memory required for data: 1794446600
I0205 01:22:50.012181   178 layer_factory.hpp:77] Creating layer pool5/7x7_s1
I0205 01:22:50.012192   178 net.cpp:94] Creating Layer pool5/7x7_s1
I0205 01:22:50.012198   178 net.cpp:435] pool5/7x7_s1 <- inception_5b/output
I0205 01:22:50.012210   178 net.cpp:409] pool5/7x7_s1 -> pool5/7x7_s1
I0205 01:22:50.012250   178 net.cpp:144] Setting up pool5/7x7_s1
I0205 01:22:50.012274   178 net.cpp:151] Top shape: 32 1024 1 1 (32768)
I0205 01:22:50.012281   178 net.cpp:159] Memory required for data: 1794577672
I0205 01:22:50.012287   178 layer_factory.hpp:77] Creating layer pool5/drop_7x7_s1
I0205 01:22:50.012296   178 net.cpp:94] Creating Layer pool5/drop_7x7_s1
I0205 01:22:50.012303   178 net.cpp:435] pool5/drop_7x7_s1 <- pool5/7x7_s1
I0205 01:22:50.012311   178 net.cpp:396] pool5/drop_7x7_s1 -> pool5/7x7_s1 (in-place)
I0205 01:22:50.012347   178 net.cpp:144] Setting up pool5/drop_7x7_s1
I0205 01:22:50.012362   178 net.cpp:151] Top shape: 32 1024 1 1 (32768)
I0205 01:22:50.012367   178 net.cpp:159] Memory required for data: 1794708744
I0205 01:22:50.012373   178 layer_factory.hpp:77] Creating layer loss3/classifier
I0205 01:22:50.012383   178 net.cpp:94] Creating Layer loss3/classifier
I0205 01:22:50.012389   178 net.cpp:435] loss3/classifier <- pool5/7x7_s1
I0205 01:22:50.012401   178 net.cpp:409] loss3/classifier -> loss3/classifier
I0205 01:22:50.012559   178 net.cpp:144] Setting up loss3/classifier
I0205 01:22:50.012569   178 net.cpp:151] Top shape: 32 3 (96)
I0205 01:22:50.012575   178 net.cpp:159] Memory required for data: 1794709128
I0205 01:22:50.012583   178 layer_factory.hpp:77] Creating layer loss3/loss
I0205 01:22:50.012596   178 net.cpp:94] Creating Layer loss3/loss
I0205 01:22:50.012603   178 net.cpp:435] loss3/loss <- loss3/classifier
I0205 01:22:50.012610   178 net.cpp:435] loss3/loss <- label_train-data_1_split_2
I0205 01:22:50.012619   178 net.cpp:409] loss3/loss -> loss
…
I0205 01:22:50.024626   178 solver.cpp:181] Creating test net (#0) specified by net file: train_val.prototxt
I0205 01:22:50.024780   178 net.cpp:323] The NetState phase (1) differed from the phase (0) specified by a rule in layer train-data
I0205 01:22:50.025555   178 net.cpp:52] Initializing net from parameters:
state {
phase: TEST
}
layer {
name: "val-data"
type: "Data"
top: "data"
top: "label"
include {
phase: TEST
}
transform_param {
mirror: false
crop_size: 224
mean_file: "/opt/DIGITS/digits/jobs/20190205-011337-459c/mean.binaryproto"
}
data_param {
source: "/opt/DIGITS/digits/jobs/20190205-011337-459c/val_db"
batch_size: 16
backend: LMDB
}
}
layer {
name: "conv1/7x7_s2"
type: "Convolution"
bottom: "data"
top: "conv1/7x7_s2"
param {
lr_mult: 1
decay_mult: 1
}
param {
lr_mult: 2
decay_mult: 0
}
convolution_param {
num_output: 64
pad: 3
kernel_size: 7
stride: 2
weight_filler {
type: "xavier"
std: 0.1
}
bias_filler {
type: "constant"
value: 0.2
}
}
}
layer {
name: "conv1/relu_7x7"
type: "ReLU"
bottom: "conv1/7x7_s2"
top: "conv1/7x7_s2"
}
layer {
name: "pool1/3x3_s2"
type: "Pooling"
bottom: "conv1/7x7_s2"
top: "pool1/3x3_s2"
pooling_param {
pool: MAX
kernel_size: 3
stride: 2
}
}
layer {
name: "pool1/norm1"
type: "LRN"
bottom: "pool1/3x3_s2"
top: "pool1/norm1"
lrn_param {
local_size: 5
alpha: 0.0001
beta: 0.75
}
}
layer {
name: "conv2/3x3_reduce"
type: "Convolution"
bottom: "pool1/norm1"
top: "conv2/3x3_reduce"
param {
lr_mult: 1
decay_mult: 1
}
param {
lr_mult: 2
decay_mult: 0
}
convolution_param {
num_output: 64
kernel_size: 1
weight_filler {
type: "xavier"
std: 0.1
}
bias_filler {
type: "constant"
value: 0.2
}
}
}
layer {
name: "conv2/relu_3x3_reduce"
type: "ReLU"
bottom: "conv2/3x3_reduce"
top: "conv2/3x3_reduce"
}
layer {
name: "conv2/3x3"
type: "Convolution"
bottom: "conv2/3x3_reduce"
top: "conv2/3x3"
param {
lr_mult: 1
decay_mult: 1
}
param {
lr_mult: 2
decay_mult: 0
}
convolution_param {
num_output: 192
pad: 1
kernel_size: 3
weight_filler {
type: "xavier"
std: 0.03
}
bias_filler {
type: "constant"
value: 0.2
}
}
}
layer {
name: "conv2/relu_3x3"
type: "ReLU"
bottom: "conv2/3x3"
top: "conv2/3x3"
}
layer {
name: "conv2/norm2"
type: "LRN"
bottom: "conv2/3x3"
top: "conv2/norm2"
lrn_param {
local_size: 5
alpha: 0.0001
beta: 0.75
}
}
layer {
name: "pool2/3x3_s2"
type: "Pooling"
bottom: "conv2/norm2"
top: "pool2/3x3_s2"
pooling_param {
pool: MAX
kernel_size: 3
stride: 2
}
}
layer {
name: "inception_3a/1x1"
type: "Convolution"
bottom: "pool2/3x3_s2"
top: "inception_3a/1x1"
param {
lr_mult: 1
decay_mult: 1
}
param {
lr_mult: 2
decay_mult: 0
}
convolution_param {
num_output: 64
kernel_size: 1
weight_filler {
type: "xavier"
std: 0.03
}
bias_filler {
type: "constant"
value: 0.2
}
}
}
layer {
name: "inception_3a/relu_1x1"
type: "ReLU"
bottom: "inception_3a/1x1"
top: "inception_3a/1x1"
}
layer {
name: "inception_3a/3x3_reduce"
type: "Convolution"
bottom: "pool2/3x3_s2"
top: "inception_3a/3x3_reduce"
param {
lr_mult: 1
decay_mult: 1
}
param {
lr_mult: 2
decay_mult: 0
}
convolution_param {
num_output: 96
kernel_size: 1
weight_filler {
type: "xavier"
std: 0.09
}
bias_filler {
type: "constant"
value: 0.2
}
}
}
layer {
name: "inception_3a/relu_3x3_reduce"
type: "ReLU"
bottom: "inception_3a/3x3_reduce"
top: "inception_3a/3x3_reduce"
}
layer {
name: "inception_3a/3x3"
type: "Convolution"
bottom: "inception_3a/3x3_reduce"
top: "inception_3a/3x3"
param {
lr_mult: 1
decay_mult: 1
}
param {
lr_mult: 2
decay_mult: 0
}
convolution_param {
num_output: 128
pad: 1
kernel_size: 3
weight_filler {
type: "xavier"
std: 0.03
}
bias_filler {
type: "constant"
value: 0.2
}
}
}
layer {
name: "inception_3a/relu_3x3"
type: "ReLU"
bottom: "inception_3a/3x3"
top: "inception_3a/3x3"
}
layer {
name: "inception_3a/5x5_reduce"
type: "Convolution"
bottom: "pool2/3x3_s2"
top: "inception_3a/5x5_reduce"
param {
lr_mult: 1
decay_mult: 1
}
param {
lr_mult: 2
decay_mult: 0
}
convolution_param {
num_output: 16
kernel_size: 1
weight_filler {
type: "xavier"
std: 0.2
}
bias_filler {
type: "constant"
value: 0.2
}
}
}
layer {
name: "inception_3a/relu_5x5_reduce"
type: "ReLU"
bottom: "inception_3a/5x5_reduce"
top: "inception_3a/5x5_reduce"
}
layer {
name: "inception_3a/5x5"
type: "Convolution"
bottom: "inception_3a/5x5_reduce"
top: "inception_3a/5x5"
param {
lr_mult: 1
decay_mult: 1
}
param {
lr_mult: 2
decay_mult: 0
}
convolution_param {
num_output: 32
pad: 2
kernel_size: 5
weight_filler {
type: "xavier"
std: 0.03
}
bias_filler {
type: "constant"
value: 0.2
}
}
}
layer {
name: "inception_3a/relu_5x5"
type: "ReLU"
bottom: "inception_3a/5x5"
top: "inception_3a/5x5"
}
layer {
name: "inception_3a/pool"
type: "Pooling"
bottom: "pool2/3x3_s2"
top: "inception_3a/pool"
pooling_param {
pool: MAX
kernel_size: 3
stride: 1
pad: 1
}
}
layer {
name: "inception_3a/pool_proj"
type: "Convolution"
bottom: "inception_3a/pool"
top: "inception_3a/pool_proj"
param {
lr_mult: 1
decay_mult: 1
}
param {
lr_mult: 2
decay_mult: 0
}
convolution_param {
num_output: 32
kernel_size: 1
weight_filler {
type: "xavier"
std: 0.1
}
bias_filler {
type: "constant"
value: 0.2
}
}
}
layer {
name: "inception_3a/relu_pool_proj"
type: "ReLU"
bottom: "inception_3a/pool_proj"
top: "inception_3a/pool_proj"
}
layer {
name: "inception_3a/output"
type: "Concat"
bottom: "inception_3a/1x1"
bottom: "inception_3a/3x3"
bottom: "inception_3a/5x5"
bottom: "inception_3a/pool_proj"
top: "inception_3a/output"
}
layer {
name: "inception_3b/1x1"
type: "Convolution"
bottom: "inception_3a/output"
top: "inception_3b/1x1"
param {
lr_mult: 1
decay_mult: 1
}
param {
lr_mult: 2
decay_mult: 0
}
convolution_param {
num_output: 128
kernel_size: 1
weight_filler {
type: "xavier"
std: 0.03
}
bias_filler {
type: "constant"
value: 0.2
}
}
}
layer {
name: "inception_3b/relu_1x1"
type: "ReLU"
bottom: "inception_3b/1x1"
top: "inception_3b/1x1"
}
layer {
name: "inception_3b/3x3_reduce"
type: "Convolution"
bottom: "inception_3a/output"
top: "inception_3b/3x3_reduce"
param {
lr_mult: 1
decay_mult: 1
}
param {
lr_mult: 2
decay_mult: 0
}
convolution_param {
num_output: 128
kernel_size: 1
weight_filler {
type: "xavier"
std: 0.09
}
bias_filler {
type: "constant"
value: 0.2
}
}
}
layer {
name: "inception_3b/relu_3x3_reduce"
type: "ReLU"
bottom: "inception_3b/3x3_reduce"
top: "inception_3b/3x3_reduce"
}
layer {
name: "inception_3b/3x3"
type: "Convolution"
bottom: "inception_3b/3x3_reduce"
top: "inception_3b/3x3"
param {
lr_mult: 1
decay_mult: 1
}
param {
lr_mult: 2
decay_mult: 0
}
convolution_param {
num_output: 192
pad: 1
kernel_size: 3
weight_filler {
type: "xavier"
std: 0.03
}
bias_filler {
type: "constant"
value: 0.2
}
}
}
layer {
name: "inception_3b/relu_3x3"
type: "ReLU"
bottom: "inception_3b/3x3"
top: "inception_3b/3x3"
}
layer {
name: "inception_3b/5x5_reduce"
type: "Convolution"
bottom: "inception_3a/output"
top: "inception_3b/5x5_reduce"
param {
lr_mult: 1
decay_mult: 1
}
param {
lr_mult: 2
decay_mult: 0
}
convolution_param {
num_output: 32
kernel_size: 1
weight_filler {
type: "xavier"
std: 0.2
}
bias_filler {
type: "constant"
value: 0.2
}
}
}
layer {
name: "inception_3b/relu_5x5_reduce"
type: "ReLU"
bottom: "inception_3b/5x5_reduce"
top: "inception_3b/5x5_reduce"
}
layer {
name: "inception_3b/5x5"
type: "Convolution"
bottom: "inception_3b/5x5_reduce"
top: "inception_3b/5x5"
param {
lr_mult: 1
decay_mult: 1
}
param {
lr_mult: 2
decay_mult: 0
}
convolution_param {
num_output: 96
pad: 2
kernel_size: 5
weight_filler {
type: "xavier"
std: 0.03
}
bias_filler {
type: "constant"
value: 0.2
}
}
}
layer {
name: "inception_3b/relu_5x5"
type: "ReLU"
bottom: "inception_3b/5x5"
top: "inception_3b/5x5"
}
layer {
name: "inception_3b/pool"
type: "Pooling"
bottom: "inception_3a/output"
top: "inception_3b/pool"
pooling_param {
pool: MAX
kernel_size: 3
stride: 1
pad: 1
}
}
layer {
name: "inception_3b/pool_proj"
type: "Convolution"
bottom: "inception_3b/pool"
top: "inception_3b/pool_proj"
param {
lr_mult: 1
decay_mult: 1
}
param {
lr_mult: 2
decay_mult: 0
}
convolution_param {
num_output: 64
kernel_size: 1
weight_filler {
type: "xavier"
std: 0.1
}
bias_filler {
type: "constant"
value: 0.2
}
}
}
layer {
name: "inception_3b/relu_pool_proj"
type: "ReLU"
bottom: "inception_3b/pool_proj"
top: "inception_3b/pool_proj"
}
layer {
name: "inception_3b/output"
type: "Concat"
bottom: "inception_3b/1x1"
bottom: "inception_3b/3x3"
bottom: "inception_3b/5x5"
bottom: "inception_3b/pool_proj"
top: "inception_3b/output"
}
layer {
name: "pool3/3x3_s2"
type: "Pooling"
bottom: "inception_3b/output"
top: "pool3/3x3_s2"
pooling_param {
pool: MAX
kernel_size: 3
stride: 2
}
}
layer {
name: "inception_4a/1x1"
type: "Convolution"
bottom: "pool3/3x3_s2"
top: "inception_4a/1x1"
param {
lr_mult: 1
decay_mult: 1
}
param {
lr_mult: 2
decay_mult: 0
}
convolution_param {
num_output: 192
kernel_size: 1
weight_filler {
type: "xavier"
std: 0.03
}
bias_filler {
type: "constant"
value: 0.2
}
}
}
layer {
name: "inception_4a/relu_1x1"
type: "ReLU"
bottom: "inception_4a/1x1"
top: "inception_4a/1x1"
}
layer {
name: "inception_4a/3x3_reduce"
type: "Convolution"
bottom: "pool3/3x3_s2"
top: "inception_4a/3x3_reduce"
param {
lr_mult: 1
decay_mult: 1
}
param {
lr_mult: 2
decay_mult: 0
}
convolution_param {
num_output: 96
kernel_size: 1
weight_filler {
type: "xavier"
std: 0.09
}
bias_filler {
type: "constant"
value: 0.2
}
}
}
layer {
name: "inception_4a/relu_3x3_reduce"
type: "ReLU"
bottom: "inception_4a/3x3_reduce"
top: "inception_4a/3x3_reduce"
}
layer {
name: "inception_4a/3x3"
type: "Convolution"
bottom: "inception_4a/3x3_reduce"
top: "inception_4a/3x3"
param {
lr_mult: 1
decay_mult: 1
}
param {
lr_mult: 2
decay_mult: 0
}
convolution_param {
num_output: 208
pad: 1
kernel_size: 3
weight_filler {
type: "xavier"
std: 0.03
}
bias_filler {
type: "constant"
value: 0.2
}
}
}
layer {
name: "inception_4a/relu_3x3"
type: "ReLU"
bottom: "inception_4a/3x3"
top: "inception_4a/3x3"
}
layer {
name: "inception_4a/5x5_reduce"
type: "Convolution"
bottom: "pool3/3x3_s2"
top: "inception_4a/5x5_reduce"
param {
lr_mult: 1
decay_mult: 1
}
param {
lr_mult: 2
decay_mult: 0
}
convolution_param {
num_output: 16
kernel_size: 1
weight_filler {
type: "xavier"
std: 0.2
}
bias_filler {
type: "constant"
value: 0.2
}
}
}
layer {
name: "inception_4a/relu_5x5_reduce"
type: "ReLU"
bottom: "inception_4a/5x5_reduce"
top: "inception_4a/5x5_reduce"
}
layer {
name: "inception_4a/5x5"
type: "Convolution"
bottom: "inception_4a/5x5_reduce"
top: "inception_4a/5x5"
param {
lr_mult: 1
decay_mult: 1
}
param {
lr_mult: 2
decay_mult: 0
}
convolution_param {
num_output: 48
pad: 2
kernel_size: 5
weight_filler {
type: "xavier"
std: 0.03
}
bias_filler {
type: "constant"
value: 0.2
}
}
}
layer {
name: "inception_4a/relu_5x5"
type: "ReLU"
bottom: "inception_4a/5x5"
top: "inception_4a/5x5"
}
layer {
name: "inception_4a/pool"
type: "Pooling"
bottom: "pool3/3x3_s2"
top: "inception_4a/pool"
pooling_param {
pool: MAX
kernel_size: 3
stride: 1
pad: 1
}
}
layer {
name: "inception_4a/pool_proj"
type: "Convolution"
bottom: "inception_4a/pool"
top: "inception_4a/pool_proj"
param {
lr_mult: 1
decay_mult: 1
}
param {
lr_mult: 2
decay_mult: 0
}
convolution_param {
num_output: 64
kernel_size: 1
weight_filler {
type: "xavier"
std: 0.1
}
bias_filler {
type: "constant"
value: 0.2
}
}
}
layer {
name: "inception_4a/relu_pool_proj"
type: "ReLU"
bottom: "inception_4a/pool_proj"
top: "inception_4a/pool_proj"
}
layer {
name: "inception_4a/output"
type: "Concat"
bottom: "inception_4a/1x1"
bottom: "inception_4a/3x3"
bottom: "inception_4a/5x5"
bottom: "inception_4a/pool_proj"
top: "inception_4a/output"
}
layer {
name: "loss1/ave_pool"
type: "Pooling"
bottom: "inception_4a/output"
top: "loss1/ave_pool"
pooling_param {
pool: AVE
kernel_size: 5
stride: 3
}
}
layer {
name: "loss1/conv"
type: "Convolution"
bottom: "loss1/ave_pool"
top: "loss1/conv"
param {
lr_mult: 1
decay_mult: 1
}
param {
lr_mult: 2
decay_mult: 0
}
convolution_param {
num_output: 128
kernel_size: 1
weight_filler {
type: "xavier"
std: 0.08
}
bias_filler {
type: "constant"
value: 0.2
}
}
}
layer {
name: "loss1/relu_conv"
type: "ReLU"
bottom: "loss1/conv"
top: "loss1/conv"
}
layer {
name: "loss1/fc"
type: "InnerProduct"
bottom: "loss1/conv"
top: "loss1/fc"
param {
lr_mult: 1
decay_mult: 1
}
param {
lr_mult: 2
decay_mult: 0
}
inner_product_param {
num_output: 1024
weight_filler {
type: "xavier"
std: 0.02
}
bias_filler {
type: "constant"
value: 0.2
}
}
}
layer {
name: "loss1/relu_fc"
type: "ReLU"
bottom: "loss1/fc"
top: "loss1/fc"
}
layer {
name: "loss1/drop_fc"
type: "Dropout"
bottom: "loss1/fc"
top: "loss1/fc"
dropout_param {
dropout_ratio: 0.7
}
}
layer {
name: "loss1/classifier"
type: "InnerProduct"
bottom: "loss1/fc"
top: "loss1/classifier"
param {
lr_mult: 1
decay_mult: 1
}
param {
lr_mult: 2
decay_mult: 0
}
inner_product_param {
num_output: 3
weight_filler {
type: "xavier"
std: 0.0009765625
}
bias_filler {
type: "constant"
value: 0
}
}
}
layer {
name: "loss1/loss"
type: "SoftmaxWithLoss"
bottom: "loss1/classifier"
bottom: "label"
top: "loss1/loss"
loss_weight: 0.3
}
layer {
name: "loss1/top-1"
type: "Accuracy"
bottom: "loss1/classifier"
bottom: "label"
top: "loss1/accuracy"
include {
phase: TEST
}
}
layer {
name: "inception_4b/1x1"
type: "Convolution"
bottom: "inception_4a/output"
top: "inception_4b/1x1"
param {
lr_mult: 1
decay_mult: 1
}
param {
lr_mult: 2
decay_mult: 0
}
convolution_param {
num_output: 160
kernel_size: 1
weight_filler {
type: "xavier"
std: 0.03
}
bias_filler {
type: "constant"
value: 0.2
}
}
}
layer {
name: "inception_4b/relu_1x1"
type: "ReLU"
bottom: "inception_4b/1x1"
top: "inception_4b/1x1"
}
layer {
name: "inception_4b/3x3_reduce"
type: "Convolution"
bottom: "inception_4a/output"
top: "inception_4b/3x3_reduce"
param {
lr_mult: 1
decay_mult: 1
}
param {
lr_mult: 2
decay_mult: 0
}
convolution_param {
num_output: 112
kernel_size: 1
weight_filler {
type: "xavier"
std: 0.09
}
bias_filler {
type: "constant"
value: 0.2
}
}
}
layer {
name: "inception_4b/relu_3x3_reduce"
type: "ReLU"
bottom: "inception_4b/3x3_reduce"
top: "inception_4b/3x3_reduce"
}
layer {
name: "inception_4b/3x3"
type: "Convolution"
bottom: "inception_4b/3x3_reduce"
top: "inception_4b/3x3"
param {
lr_mult: 1
decay_mult: 1
}
param {
lr_mult: 2
decay_mult: 0
}
convolution_param {
num_output: 224
pad: 1
kernel_size: 3
weight_filler {
type: "xavier"
std: 0.03
}
bias_filler {
type: "constant"
value: 0.2
}
}
}
layer {
name: "inception_4b/relu_3x3"
type: "ReLU"
bottom: "inception_4b/3x3"
top: "inception_4b/3x3"
}
layer {
name: "inception_4b/5x5_reduce"
type: "Convolution"
bottom: "inception_4a/output"
top: "inception_4b/5x5_reduce"
param {
lr_mult: 1
decay_mult: 1
}
param {
lr_mult: 2
decay_mult: 0
}
convolution_param {
num_output: 24
kernel_size: 1
weight_filler {
type: "xavier"
std: 0.2
}
bias_filler {
type: "constant"
value: 0.2
}
}
}
layer {
name: "inception_4b/relu_5x5_reduce"
type: "ReLU"
bottom: "inception_4b/5x5_reduce"
top: "inception_4b/5x5_reduce"
}
layer {
name: "inception_4b/5x5"
type: "Convolution"
bottom: "inception_4b/5x5_reduce"
top: "inception_4b/5x5"
param {
lr_mult: 1
decay_mult: 1
}
param {
lr_mult: 2
decay_mult: 0
}
convolution_param {
num_output: 64
pad: 2
kernel_size: 5
weight_filler {
type: "xavier"
std: 0.03
}
bias_filler {
type: "constant"
value: 0.2
}
}
}
layer {
name: "inception_4b/relu_5x5"
type: "ReLU"
bottom: "inception_4b/5x5"
top: "inception_4b/5x5"
}
layer {
name: "inception_4b/pool"
type: "Pooling"
bottom: "inception_4a/output"
top: "inception_4b/pool"
pooling_param {
pool: MAX
kernel_size: 3
stride: 1
pad: 1
}
}
layer {
name: "inception_4b/pool_proj"
type: "Convolution"
bottom: "inception_4b/pool"
top: "inception_4b/pool_proj"
param {
lr_mult: 1
decay_mult: 1
}
param {
lr_mult: 2
decay_mult: 0
}
convolution_param {
num_output: 64
kernel_size: 1
weight_filler {
type: "xavier"
std: 0.1
}
bias_filler {
type: "constant"
value: 0.2
}
}
}
layer {
name: "inception_4b/relu_pool_proj"
type: "ReLU"
bottom: "inception_4b/pool_proj"
top: "inception_4b/pool_proj"
}
layer {
name: "inception_4b/output"
type: "Concat"
bottom: "inception_4b/1x1"
bottom: "inception_4b/3x3"
bottom: "inception_4b/5x5"
bottom: "inception_4b/pool_proj"
top: "inception_4b/output"
}
layer {
name: "inception_4c/1x1"
type: "Convolution"
bottom: "inception_4b/output"
top: "inception_4c/1x1"
param {
lr_mult: 1
decay_mult: 1
}
param {
lr_mult: 2
decay_mult: 0
}
convolution_param {
num_output: 128
kernel_size: 1
weight_filler {
type: "xavier"
std: 0.03
}
bias_filler {
type: "constant"
value: 0.2
}
}
}
layer {
name: "inception_4c/relu_1x1"
type: "ReLU"
bottom: "inception_4c/1x1"
top: "inception_4c/1x1"
}
layer {
name: "inception_4c/3x3_reduce"
type: "Convolution"
bottom: "inception_4b/output"
top: "inception_4c/3x3_reduce"
param {
lr_mult: 1
decay_mult: 1
}
param {
lr_mult: 2
decay_mult: 0
}
convolution_param {
num_output: 128
kernel_size: 1
weight_filler {
type: "xavier"
std: 0.09
}
bias_filler {
type: "constant"
value: 0.2
}
}
}
layer {
name: "inception_4c/relu_3x3_reduce"
type: "ReLU"
bottom: "inception_4c/3x3_reduce"
top: "inception_4c/3x3_reduce"
}
layer {
name: "inception_4c/3x3"
type: "Convolution"
bottom: "inception_4c/3x3_reduce"
top: "inception_4c/3x3"
param {
lr_mult: 1
decay_mult: 1
}
param {
lr_mult: 2
decay_mult: 0
}
convolution_param {
num_output: 256
pad: 1
kernel_size: 3
weight_filler {
type: "xavier"
std: 0.03
}
bias_filler {
type: "constant"
value: 0.2
}
}
}
layer {
name: "inception_4c/relu_3x3"
type: "ReLU"
bottom: "inception_4c/3x3"
top: "inception_4c/3x3"
}
layer {
name: "inception_4c/5x5_reduce"
type: "Convolution"
bottom: "inception_4b/output"
top: "inception_4c/5x5_reduce"
param {
lr_mult: 1
decay_mult: 1
}
param {
lr_mult: 2
decay_mult: 0
}
convolution_param {
num_output: 24
kernel_size: 1
weight_filler {
type: "xavier"
std: 0.2
}
bias_filler {
type: "constant"
value: 0.2
}
}
}
layer {
name: "inception_4c/relu_5x5_reduce"
type: "ReLU"
bottom: "inception_4c/5x5_reduce"
top: "inception_4c/5x5_reduce"
}
layer {
name: "inception_4c/5x5"
type: "Convolution"
bottom: "inception_4c/5x5_reduce"
top: "inception_4c/5x5"
param {
lr_mult: 1
decay_mult: 1
}
param {
lr_mult: 2
decay_mult: 0
}
convolution_param {
num_output: 64
pad: 2
kernel_size: 5
weight_filler {
type: "xavier"
std: 0.03
}
bias_filler {
type: "constant"
value: 0.2
}
}
}
layer {
name: "inception_4c/relu_5x5"
type: "ReLU"
bottom: "inception_4c/5x5"
top: "inception_4c/5x5"
}
layer {
name: "inception_4c/pool"
type: "Pooling"
bottom: "inception_4b/output"
top: "inception_4c/pool"
pooling_param {
pool: MAX
kernel_size: 3
stride: 1
pad: 1
}
}
layer {
name: "inception_4c/pool_proj"
type: "Convolution"
bottom: "inception_4c/pool"
top: "inception_4c/pool_proj"
param {
lr_mult: 1
decay_mult: 1
}
param {
lr_mult: 2
decay_mult: 0
}
convolution_param {
num_output: 64
kernel_size: 1
weight_filler {
type: "xavier"
std: 0.1
}
bias_filler {
type: "constant"
value: 0.2
}
}
}
layer {
name: "inception_4c/relu_pool_proj"
type: "ReLU"
bottom: "inception_4c/pool_proj"
top: "inception_4c/pool_proj"
}
layer {
name: "inception_4c/output"
type: "Concat"
bottom: "inception_4c/1x1"
bottom: "inception_4c/3x3"
bottom: "inception_4c/5x5"
bottom: "inception_4c/pool_proj"
top: "inception_4c/output"
}
layer {
name: "inception_4d/1x1"
type: "Convolution"
bottom: "inception_4c/output"
top: "inception_4d/1x1"
param {
lr_mult: 1
decay_mult: 1
}
param {
lr_mult: 2
decay_mult: 0
}
convolution_param {
num_output: 112
kernel_size: 1
weight_filler {
type: "xavier"
std: 0.03
}
bias_filler {
type: "constant"
value: 0.2
}
}
}
layer {
name: "inception_4d/relu_1x1"
type: "ReLU"
bottom: "inception_4d/1x1"
…
I0205 01:22:50.125325   178 net.cpp:159] Memory required for data: 699835400
I0205 01:22:50.125334   178 layer_factory.hpp:77] Creating layer inception_4c/relu_5x5
I0205 01:22:50.125357   178 net.cpp:94] Creating Layer inception_4c/relu_5x5
I0205 01:22:50.125365   178 net.cpp:435] inception_4c/relu_5x5 <- inception_4c/5x5
I0205 01:22:50.125375   178 net.cpp:396] inception_4c/relu_5x5 -> inception_4c/5x5 (in-place)
I0205 01:22:50.125385   178 net.cpp:144] Setting up inception_4c/relu_5x5
I0205 01:22:50.125392   178 net.cpp:151] Top shape: 16 64 14 14 (200704)
I0205 01:22:50.125397   178 net.cpp:159] Memory required for data: 700638216
I0205 01:22:50.125403   178 layer_factory.hpp:77] Creating layer inception_4c/pool
I0205 01:22:50.125413   178 net.cpp:94] Creating Layer inception_4c/pool
I0205 01:22:50.125419   178 net.cpp:435] inception_4c/pool <- inception_4b/output_inception_4b/output_0_split_3
I0205 01:22:50.125429   178 net.cpp:409] inception_4c/pool -> inception_4c/pool
I0205 01:22:50.125483   178 net.cpp:144] Setting up inception_4c/pool
I0205 01:22:50.125491   178 net.cpp:151] Top shape: 16 512 14 14 (1605632)
I0205 01:22:50.125497   178 net.cpp:159] Memory required for data: 707060744
I0205 01:22:50.125504   178 layer_factory.hpp:77] Creating layer inception_4c/pool_proj
I0205 01:22:50.125515   178 net.cpp:94] Creating Layer inception_4c/pool_proj
I0205 01:22:50.125522   178 net.cpp:435] inception_4c/pool_proj <- inception_4c/pool
I0205 01:22:50.125533   178 net.cpp:409] inception_4c/pool_proj -> inception_4c/pool_proj
I0205 01:22:50.125998   178 net.cpp:144] Setting up inception_4c/pool_proj
I0205 01:22:50.126010   178 net.cpp:151] Top shape: 16 64 14 14 (200704)
I0205 01:22:50.126015   178 net.cpp:159] Memory required for data: 707863560
I0205 01:22:50.126024   178 layer_factory.hpp:77] Creating layer inception_4c/relu_pool_proj
I0205 01:22:50.126034   178 net.cpp:94] Creating Layer inception_4c/relu_pool_proj
I0205 01:22:50.126054   178 net.cpp:435] inception_4c/relu_pool_proj <- inception_4c/pool_proj
I0205 01:22:50.126063   178 net.cpp:396] inception_4c/relu_pool_proj -> inception_4c/pool_proj (in-place)
I0205 01:22:50.126075   178 net.cpp:144] Setting up inception_4c/relu_pool_proj
I0205 01:22:50.126081   178 net.cpp:151] Top shape: 16 64 14 14 (200704)
I0205 01:22:50.126087   178 net.cpp:159] Memory required for data: 708666376
I0205 01:22:50.126093   178 layer_factory.hpp:77] Creating layer inception_4c/output
I0205 01:22:50.126102   178 net.cpp:94] Creating Layer inception_4c/output
I0205 01:22:50.126109   178 net.cpp:435] inception_4c/output <- inception_4c/1x1
I0205 01:22:50.126116   178 net.cpp:435] inception_4c/output <- inception_4c/3x3
I0205 01:22:50.126123   178 net.cpp:435] inception_4c/output <- inception_4c/5x5
I0205 01:22:50.126130   178 net.cpp:435] inception_4c/output <- inception_4c/pool_proj
I0205 01:22:50.126139   178 net.cpp:409] inception_4c/output -> inception_4c/output
I0205 01:22:50.126176   178 net.cpp:144] Setting up inception_4c/output
I0205 01:22:50.126185   178 net.cpp:151] Top shape: 16 512 14 14 (1605632)
I0205 01:22:50.126191   178 net.cpp:159] Memory required for data: 715088904
I0205 01:22:50.126197   178 layer_factory.hpp:77] Creating layer inception_4c/output_inception_4c/output_0_split
I0205 01:22:50.126207   178 net.cpp:94] Creating Layer inception_4c/output_inception_4c/output_0_split
I0205 01:22:50.126214   178 net.cpp:435] inception_4c/output_inception_4c/output_0_split <- inception_4c/output
I0205 01:22:50.126224   178 net.cpp:409] inception_4c/output_inception_4c/output_0_split -> inception_4c/output_inception_4c/output_0_split_0
I0205 01:22:50.126235   178 net.cpp:409] inception_4c/output_inception_4c/output_0_split -> inception_4c/output_inception_4c/output_0_split_1
I0205 01:22:50.126243   178 net.cpp:409] inception_4c/output_inception_4c/output_0_split -> inception_4c/output_inception_4c/output_0_split_2
I0205 01:22:50.126253   178 net.cpp:409] inception_4c/output_inception_4c/output_0_split -> inception_4c/output_inception_4c/output_0_split_3
I0205 01:22:50.126333   178 net.cpp:144] Setting up inception_4c/output_inception_4c/output_0_split
I0205 01:22:50.126343   178 net.cpp:151] Top shape: 16 512 14 14 (1605632)
I0205 01:22:50.126363   178 net.cpp:151] Top shape: 16 512 14 14 (1605632)
I0205 01:22:50.126369   178 net.cpp:151] Top shape: 16 512 14 14 (1605632)
I0205 01:22:50.126376   178 net.cpp:151] Top shape: 16 512 14 14 (1605632)
I0205 01:22:50.126382   178 net.cpp:159] Memory required for data: 740779016
I0205 01:22:50.126389   178 layer_factory.hpp:77] Creating layer inception_4d/1x1
I0205 01:22:50.126400   178 net.cpp:94] Creating Layer inception_4d/1x1
I0205 01:22:50.126407   178 net.cpp:435] inception_4d/1x1 <- inception_4c/output_inception_4c/output_0_split_0
I0205 01:22:50.126418   178 net.cpp:409] inception_4d/1x1 -> inception_4d/1x1
I0205 01:22:50.127234   178 net.cpp:144] Setting up inception_4d/1x1
I0205 01:22:50.127249   178 net.cpp:151] Top shape: 16 112 14 14 (351232)
I0205 01:22:50.127264   178 net.cpp:159] Memory required for data: 742183944
I0205 01:22:50.127274   178 layer_factory.hpp:77] Creating layer inception_4d/relu_1x1
I0205 01:22:50.127283   178 net.cpp:94] Creating Layer inception_4d/relu_1x1
I0205 01:22:50.127290   178 net.cpp:435] inception_4d/relu_1x1 <- inception_4d/1x1
I0205 01:22:50.127300   178 net.cpp:396] inception_4d/relu_1x1 -> inception_4d/1x1 (in-place)
I0205 01:22:50.127310   178 net.cpp:144] Setting up inception_4d/relu_1x1
I0205 01:22:50.127317   178 net.cpp:151] Top shape: 16 112 14 14 (351232)
I0205 01:22:50.127323   178 net.cpp:159] Memory required for data: 743588872
I0205 01:22:50.127329   178 layer_factory.hpp:77] Creating layer inception_4d/3x3_reduce
I0205 01:22:50.127341   178 net.cpp:94] Creating Layer inception_4d/3x3_reduce
I0205 01:22:50.127347   178 net.cpp:435] inception_4d/3x3_reduce <- inception_4c/output_inception_4c/output_0_split_1
I0205 01:22:50.127357   178 net.cpp:409] inception_4d/3x3_reduce -> inception_4d/3x3_reduce
I0205 01:22:50.128113   178 net.cpp:144] Setting up inception_4d/3x3_reduce
I0205 01:22:50.128125   178 net.cpp:151] Top shape: 16 144 14 14 (451584)
I0205 01:22:50.128131   178 net.cpp:159] Memory required for data: 745395208
I0205 01:22:50.128139   178 layer_factory.hpp:77] Creating layer inception_4d/relu_3x3_reduce
I0205 01:22:50.128149   178 net.cpp:94] Creating Layer inception_4d/relu_3x3_reduce
I0205 01:22:50.128156   178 net.cpp:435] inception_4d/relu_3x3_reduce <- inception_4d/3x3_reduce
I0205 01:22:50.128165   178 net.cpp:396] inception_4d/relu_3x3_reduce -> inception_4d/3x3_reduce (in-place)
I0205 01:22:50.128175   178 net.cpp:144] Setting up inception_4d/relu_3x3_reduce
I0205 01:22:50.128182   178 net.cpp:151] Top shape: 16 144 14 14 (451584)
I0205 01:22:50.128187   178 net.cpp:159] Memory required for data: 747201544
I0205 01:22:50.128195   178 layer_factory.hpp:77] Creating layer inception_4d/3x3
I0205 01:22:50.128206   178 net.cpp:94] Creating Layer inception_4d/3x3
I0205 01:22:50.128212   178 net.cpp:435] inception_4d/3x3 <- inception_4d/3x3_reduce
I0205 01:22:50.128222   178 net.cpp:409] inception_4d/3x3 -> inception_4d/3x3
I0205 01:22:50.131777   178 net.cpp:144] Setting up inception_4d/3x3
I0205 01:22:50.131793   178 net.cpp:151] Top shape: 16 288 14 14 (903168)
I0205 01:22:50.131799   178 net.cpp:159] Memory required for data: 750814216
I0205 01:22:50.131808   178 layer_factory.hpp:77] Creating layer inception_4d/relu_3x3
I0205 01:22:50.131819   178 net.cpp:94] Creating Layer inception_4d/relu_3x3
I0205 01:22:50.131826   178 net.cpp:435] inception_4d/relu_3x3 <- inception_4d/3x3
I0205 01:22:50.131835   178 net.cpp:396] inception_4d/relu_3x3 -> inception_4d/3x3 (in-place)
I0205 01:22:50.131847   178 net.cpp:144] Setting up inception_4d/relu_3x3
I0205 01:22:50.131855   178 net.cpp:151] Top shape: 16 288 14 14 (903168)
I0205 01:22:50.131860   178 net.cpp:159] Memory required for data: 754426888
I0205 01:22:50.131866   178 layer_factory.hpp:77] Creating layer inception_4d/5x5_reduce
I0205 01:22:50.131878   178 net.cpp:94] Creating Layer inception_4d/5x5_reduce
I0205 01:22:50.131884   178 net.cpp:435] inception_4d/5x5_reduce <- inception_4c/output_inception_4c/output_0_split_2
I0205 01:22:50.131896   178 net.cpp:409] inception_4d/5x5_reduce -> inception_4d/5x5_reduce
I0205 01:22:50.132319   178 net.cpp:144] Setting up inception_4d/5x5_reduce
I0205 01:22:50.132333   178 net.cpp:151] Top shape: 16 32 14 14 (100352)
I0205 01:22:50.132339   178 net.cpp:159] Memory required for data: 754828296
I0205 01:22:50.132346   178 layer_factory.hpp:77] Creating layer inception_4d/relu_5x5_reduce
I0205 01:22:50.132356   178 net.cpp:94] Creating Layer inception_4d/relu_5x5_reduce
I0205 01:22:50.132364   178 net.cpp:435] inception_4d/relu_5x5_reduce <- inception_4d/5x5_reduce
I0205 01:22:50.132372   178 net.cpp:396] inception_4d/relu_5x5_reduce -> inception_4d/5x5_reduce (in-place)
I0205 01:22:50.132383   178 net.cpp:144] Setting up inception_4d/relu_5x5_reduce
I0205 01:22:50.132390   178 net.cpp:151] Top shape: 16 32 14 14 (100352)
I0205 01:22:50.132395   178 net.cpp:159] Memory required for data: 755229704
I0205 01:22:50.132401   178 layer_factory.hpp:77] Creating layer inception_4d/5x5
I0205 01:22:50.132413   178 net.cpp:94] Creating Layer inception_4d/5x5
I0205 01:22:50.132421   178 net.cpp:435] inception_4d/5x5 <- inception_4d/5x5_reduce
I0205 01:22:50.132431   178 net.cpp:409] inception_4d/5x5 -> inception_4d/5x5
I0205 01:22:50.133003   178 net.cpp:144] Setting up inception_4d/5x5
I0205 01:22:50.133014   178 net.cpp:151] Top shape: 16 64 14 14 (200704)
I0205 01:22:50.133020   178 net.cpp:159] Memory required for data: 756032520
I0205 01:22:50.133028   178 layer_factory.hpp:77] Creating layer inception_4d/relu_5x5
I0205 01:22:50.133038   178 net.cpp:94] Creating Layer inception_4d/relu_5x5
I0205 01:22:50.133056   178 net.cpp:435] inception_4d/relu_5x5 <- inception_4d/5x5
I0205 01:22:50.133065   178 net.cpp:396] inception_4d/relu_5x5 -> inception_4d/5x5 (in-place)
I0205 01:22:50.133075   178 net.cpp:144] Setting up inception_4d/relu_5x5
I0205 01:22:50.133082   178 net.cpp:151] Top shape: 16 64 14 14 (200704)
I0205 01:22:50.133090   178 net.cpp:159] Memory required for data: 756835336
I0205 01:22:50.133095   178 layer_factory.hpp:77] Creating layer inception_4d/pool
I0205 01:22:50.133105   178 net.cpp:94] Creating Layer inception_4d/pool
I0205 01:22:50.133111   178 net.cpp:435] inception_4d/pool <- inception_4c/output_inception_4c/output_0_split_3
I0205 01:22:50.133121   178 net.cpp:409] inception_4d/pool -> inception_4d/pool
I0205 01:22:50.133174   178 net.cpp:144] Setting up inception_4d/pool
I0205 01:22:50.133184   178 net.cpp:151] Top shape: 16 512 14 14 (1605632)
I0205 01:22:50.133189   178 net.cpp:159] Memory required for data: 763257864
I0205 01:22:50.133196   178 layer_factory.hpp:77] Creating layer inception_4d/pool_proj
I0205 01:22:50.133208   178 net.cpp:94] Creating Layer inception_4d/pool_proj
I0205 01:22:50.133272   178 net.cpp:435] inception_4d/pool_proj <- inception_4d/pool
I0205 01:22:50.133286   178 net.cpp:409] inception_4d/pool_proj -> inception_4d/pool_proj
I0205 01:22:50.133775   178 net.cpp:144] Setting up inception_4d/pool_proj
I0205 01:22:50.133786   178 net.cpp:151] Top shape: 16 64 14 14 (200704)
I0205 01:22:50.133792   178 net.cpp:159] Memory required for data: 764060680
I0205 01:22:50.133801   178 layer_factory.hpp:77] Creating layer inception_4d/relu_pool_proj
I0205 01:22:50.133810   178 net.cpp:94] Creating Layer inception_4d/relu_pool_proj
I0205 01:22:50.133817   178 net.cpp:435] inception_4d/relu_pool_proj <- inception_4d/pool_proj
I0205 01:22:50.133826   178 net.cpp:396] inception_4d/relu_pool_proj -> inception_4d/pool_proj (in-place)
I0205 01:22:50.133836   178 net.cpp:144] Setting up inception_4d/relu_pool_proj
I0205 01:22:50.133843   178 net.cpp:151] Top shape: 16 64 14 14 (200704)
I0205 01:22:50.133848   178 net.cpp:159] Memory required for data: 764863496
I0205 01:22:50.133854   178 layer_factory.hpp:77] Creating layer inception_4d/output
I0205 01:22:50.133867   178 net.cpp:94] Creating Layer inception_4d/output
I0205 01:22:50.133873   178 net.cpp:435] inception_4d/output <- inception_4d/1x1
I0205 01:22:50.133880   178 net.cpp:435] inception_4d/output <- inception_4d/3x3
I0205 01:22:50.133899   178 net.cpp:435] inception_4d/output <- inception_4d/5x5
I0205 01:22:50.133908   178 net.cpp:435] inception_4d/output <- inception_4d/pool_proj
I0205 01:22:50.133916   178 net.cpp:409] inception_4d/output -> inception_4d/output
I0205 01:22:50.133996   178 net.cpp:144] Setting up inception_4d/output
I0205 01:22:50.134006   178 net.cpp:151] Top shape: 16 528 14 14 (1655808)
I0205 01:22:50.134012   178 net.cpp:159] Memory required for data: 771486728
I0205 01:22:50.134018   178 layer_factory.hpp:77] Creating layer inception_4d/output_inception_4d/output_0_split
I0205 01:22:50.134032   178 net.cpp:94] Creating Layer inception_4d/output_inception_4d/output_0_split
I0205 01:22:50.134053   178 net.cpp:435] inception_4d/output_inception_4d/output_0_split <- inception_4d/output
I0205 01:22:50.134065   178 net.cpp:409] inception_4d/output_inception_4d/output_0_split -> inception_4d/output_inception_4d/output_0_split_0
I0205 01:22:50.134075   178 net.cpp:409] inception_4d/output_inception_4d/output_0_split -> inception_4d/output_inception_4d/output_0_split_1
I0205 01:22:50.134085   178 net.cpp:409] inception_4d/output_inception_4d/output_0_split -> inception_4d/output_inception_4d/output_0_split_2
I0205 01:22:50.134095   178 net.cpp:409] inception_4d/output_inception_4d/output_0_split -> inception_4d/output_inception_4d/output_0_split_3
I0205 01:22:50.134104   178 net.cpp:409] inception_4d/output_inception_4d/output_0_split -> inception_4d/output_inception_4d/output_0_split_4
I0205 01:22:50.134196   178 net.cpp:144] Setting up inception_4d/output_inception_4d/output_0_split
I0205 01:22:50.134207   178 net.cpp:151] Top shape: 16 528 14 14 (1655808)
I0205 01:22:50.134213   178 net.cpp:151] Top shape: 16 528 14 14 (1655808)
I0205 01:22:50.134220   178 net.cpp:151] Top shape: 16 528 14 14 (1655808)
I0205 01:22:50.134227   178 net.cpp:151] Top shape: 16 528 14 14 (1655808)
I0205 01:22:50.134234   178 net.cpp:151] Top shape: 16 528 14 14 (1655808)
I0205 01:22:50.134239   178 net.cpp:159] Memory required for data: 804602888
I0205 01:22:50.134245   178 layer_factory.hpp:77] Creating layer loss2/ave_pool
I0205 01:22:50.134261   178 net.cpp:94] Creating Layer loss2/ave_pool
I0205 01:22:50.134268   178 net.cpp:435] loss2/ave_pool <- inception_4d/output_inception_4d/output_0_split_0
I0205 01:22:50.134281   178 net.cpp:409] loss2/ave_pool -> loss2/ave_pool
I0205 01:22:50.134320   178 net.cpp:144] Setting up loss2/ave_pool
I0205 01:22:50.134330   178 net.cpp:151] Top shape: 16 528 4 4 (135168)
I0205 01:22:50.134335   178 net.cpp:159] Memory required for data: 805143560
I0205 01:22:50.134341   178 layer_factory.hpp:77] Creating layer loss2/conv
I0205 01:22:50.134356   178 net.cpp:94] Creating Layer loss2/conv
I0205 01:22:50.134362   178 net.cpp:435] loss2/conv <- loss2/ave_pool
I0205 01:22:50.134373   178 net.cpp:409] loss2/conv -> loss2/conv
I0205 01:22:50.135741   178 net.cpp:144] Setting up loss2/conv
I0205 01:22:50.135762   178 net.cpp:151] Top shape: 16 128 4 4 (32768)
I0205 01:22:50.135769   178 net.cpp:159] Memory required for data: 805274632
I0205 01:22:50.135779   178 layer_factory.hpp:77] Creating layer loss2/relu_conv
I0205 01:22:50.135788   178 net.cpp:94] Creating Layer loss2/relu_conv
I0205 01:22:50.135797   178 net.cpp:435] loss2/relu_conv <- loss2/conv
I0205 01:22:50.135804   178 net.cpp:396] loss2/relu_conv -> loss2/conv (in-place)
I0205 01:22:50.135815   178 net.cpp:144] Setting up loss2/relu_conv
I0205 01:22:50.135823   178 net.cpp:151] Top shape: 16 128 4 4 (32768)
I0205 01:22:50.135828   178 net.cpp:159] Memory required for data: 805405704
I0205 01:22:50.135834   178 layer_factory.hpp:77] Creating layer loss2/fc
I0205 01:22:50.135846   178 net.cpp:94] Creating Layer loss2/fc
I0205 01:22:50.135854   178 net.cpp:435] loss2/fc <- loss2/conv
I0205 01:22:50.135861   178 net.cpp:409] loss2/fc -> loss2/fc
I0205 01:22:50.153035   178 net.cpp:144] Setting up loss2/fc
I0205 01:22:50.153064   178 net.cpp:151] Top shape: 16 1024 (16384)
I0205 01:22:50.153070   178 net.cpp:159] Memory required for data: 805471240
I0205 01:22:50.153081   178 layer_factory.hpp:77] Creating layer loss2/relu_fc
I0205 01:22:50.153107   178 net.cpp:94] Creating Layer loss2/relu_fc
I0205 01:22:50.153115   178 net.cpp:435] loss2/relu_fc <- loss2/fc
I0205 01:22:50.153127   178 net.cpp:396] loss2/relu_fc -> loss2/fc (in-place)
I0205 01:22:50.153139   178 net.cpp:144] Setting up loss2/relu_fc
I0205 01:22:50.153147   178 net.cpp:151] Top shape: 16 1024 (16384)
I0205 01:22:50.153152   178 net.cpp:159] Memory required for data: 805536776
I0205 01:22:50.153158   178 layer_factory.hpp:77] Creating layer loss2/drop_fc
I0205 01:22:50.153167   178 net.cpp:94] Creating Layer loss2/drop_fc
I0205 01:22:50.153173   178 net.cpp:435] loss2/drop_fc <- loss2/fc
I0205 01:22:50.153185   178 net.cpp:396] loss2/drop_fc -> loss2/fc (in-place)
I0205 01:22:50.153223   178 net.cpp:144] Setting up loss2/drop_fc
I0205 01:22:50.153232   178 net.cpp:151] Top shape: 16 1024 (16384)
I0205 01:22:50.153239   178 net.cpp:159] Memory required for data: 805602312
I0205 01:22:50.153244   178 layer_factory.hpp:77] Creating layer loss2/classifier
I0205 01:22:50.153265   178 net.cpp:94] Creating Layer loss2/classifier
I0205 01:22:50.153273   178 net.cpp:435] loss2/classifier <- loss2/fc
I0205 01:22:50.153285   178 net.cpp:409] loss2/classifier -> loss2/classifier
I0205 01:22:50.153435   178 net.cpp:144] Setting up loss2/classifier
I0205 01:22:50.153445   178 net.cpp:151] Top shape: 16 3 (48)
I0205 01:22:50.153450   178 net.cpp:159] Memory required for data: 805602504
I0205 01:22:50.153460   178 layer_factory.hpp:77] Creating layer loss2/classifier_loss2/classifier_0_split
I0205 01:22:50.153468   178 net.cpp:94] Creating Layer loss2/classifier_loss2/classifier_0_split
I0205 01:22:50.153475   178 net.cpp:435] loss2/classifier_loss2/classifier_0_split <- loss2/classifier
I0205 01:22:50.153486   178 net.cpp:409] loss2/classifier_loss2/classifier_0_split -> loss2/classifier_loss2/classifier_0_split_0
I0205 01:22:50.153497   178 net.cpp:409] loss2/classifier_loss2/classifier_0_split -> loss2/classifier_loss2/classifier_0_split_1
I0205 01:22:50.153553   178 net.cpp:144] Setting up loss2/classifier_loss2/classifier_0_split
I0205 01:22:50.153560   178 net.cpp:151] Top shape: 16 3 (48)
I0205 01:22:50.153566   178 net.cpp:151] Top shape: 16 3 (48)
I0205 01:22:50.153573   178 net.cpp:159] Memory required for data: 805602888
I0205 01:22:50.153578   178 layer_factory.hpp:77] Creating layer loss2/loss
I0205 01:22:50.153587   178 net.cpp:94] Creating Layer loss2/loss
I0205 01:22:50.153594   178 net.cpp:435] loss2/loss <- loss2/classifier_loss2/classifier_0_split_0
I0205 01:22:50.153602   178 net.cpp:435] loss2/loss <- label_val-data_1_split_2
…
I0205 01:22:50.153944   178 net.cpp:144] Setting up loss2/top-1
I0205 01:22:50.153951   178 net.cpp:151] Top shape: (1)
I0205 01:22:50.153956   178 net.cpp:159] Memory required for data: 805602896
I0205 01:22:50.153962   178 layer_factory.hpp:77] Creating layer inception_4e/1x1
I0205 01:22:50.153976   178 net.cpp:94] Creating Layer inception_4e/1x1
I0205 01:22:50.153983   178 net.cpp:435] inception_4e/1x1 <- inception_4d/output_inception_4d/output_0_split_1
I0205 01:22:50.153995   178 net.cpp:409] inception_4e/1x1 -> inception_4e/1x1
I0205 01:22:50.155181   178 net.cpp:144] Setting up inception_4e/1x1
I0205 01:22:50.155210   178 net.cpp:151] Top shape: 16 256 14 14 (802816)
I0205 01:22:50.155216   178 net.cpp:159] Memory required for data: 808814160
I0205 01:22:50.155225   178 layer_factory.hpp:77] Creating layer inception_4e/relu_1x1
I0205 01:22:50.155236   178 net.cpp:94] Creating Layer inception_4e/relu_1x1
I0205 01:22:50.155242   178 net.cpp:435] inception_4e/relu_1x1 <- inception_4e/1x1
I0205 01:22:50.155254   178 net.cpp:396] inception_4e/relu_1x1 -> inception_4e/1x1 (in-place)
I0205 01:22:50.155274   178 net.cpp:144] Setting up inception_4e/relu_1x1
I0205 01:22:50.155282   178 net.cpp:151] Top shape: 16 256 14 14 (802816)
I0205 01:22:50.155287   178 net.cpp:159] Memory required for data: 812025424
I0205 01:22:50.155294   178 layer_factory.hpp:77] Creating layer inception_4e/3x3_reduce
I0205 01:22:50.155308   178 net.cpp:94] Creating Layer inception_4e/3x3_reduce
I0205 01:22:50.155315   178 net.cpp:435] inception_4e/3x3_reduce <- inception_4d/output_inception_4d/output_0_split_2
I0205 01:22:50.155328   178 net.cpp:409] inception_4e/3x3_reduce -> inception_4e/3x3_reduce
I0205 01:22:50.156810   178 net.cpp:144] Setting up inception_4e/3x3_reduce
I0205 01:22:50.156829   178 net.cpp:151] Top shape: 16 160 14 14 (501760)
I0205 01:22:50.156836   178 net.cpp:159] Memory required for data: 814032464
I0205 01:22:50.156846   178 layer_factory.hpp:77] Creating layer inception_4e/relu_3x3_reduce
I0205 01:22:50.156855   178 net.cpp:94] Creating Layer inception_4e/relu_3x3_reduce
I0205 01:22:50.156862   178 net.cpp:435] inception_4e/relu_3x3_reduce <- inception_4e/3x3_reduce
I0205 01:22:50.156870   178 net.cpp:396] inception_4e/relu_3x3_reduce -> inception_4e/3x3_reduce (in-place)
I0205 01:22:50.156883   178 net.cpp:144] Setting up inception_4e/relu_3x3_reduce
I0205 01:22:50.156889   178 net.cpp:151] Top shape: 16 160 14 14 (501760)
I0205 01:22:50.156896   178 net.cpp:159] Memory required for data: 816039504
I0205 01:22:50.156903   178 layer_factory.hpp:77] Creating layer inception_4e/3x3
I0205 01:22:50.156952   178 net.cpp:94] Creating Layer inception_4e/3x3
I0205 01:22:50.156960   178 net.cpp:435] inception_4e/3x3 <- inception_4e/3x3_reduce
I0205 01:22:50.156968   178 net.cpp:409] inception_4e/3x3 -> inception_4e/3x3
I0205 01:22:50.161949   178 net.cpp:144] Setting up inception_4e/3x3
I0205 01:22:50.161964   178 net.cpp:151] Top shape: 16 320 14 14 (1003520)
I0205 01:22:50.161972   178 net.cpp:159] Memory required for data: 820053584
I0205 01:22:50.161981   178 layer_factory.hpp:77] Creating layer inception_4e/relu_3x3
I0205 01:22:50.161991   178 net.cpp:94] Creating Layer inception_4e/relu_3x3
I0205 01:22:50.161999   178 net.cpp:435] inception_4e/relu_3x3 <- inception_4e/3x3
I0205 01:22:50.162009   178 net.cpp:396] inception_4e/relu_3x3 -> inception_4e/3x3 (in-place)
I0205 01:22:50.162019   178 net.cpp:144] Setting up inception_4e/relu_3x3
I0205 01:22:50.162027   178 net.cpp:151] Top shape: 16 320 14 14 (1003520)
I0205 01:22:50.162032   178 net.cpp:159] Memory required for data: 824067664
I0205 01:22:50.162052   178 layer_factory.hpp:77] Creating layer inception_4e/5x5_reduce
I0205 01:22:50.162070   178 net.cpp:94] Creating Layer inception_4e/5x5_reduce
I0205 01:22:50.162076   178 net.cpp:435] inception_4e/5x5_reduce <- inception_4d/output_inception_4d/output_0_split_3
I0205 01:22:50.162089   178 net.cpp:409] inception_4e/5x5_reduce -> inception_4e/5x5_reduce
I0205 01:22:50.162469   178 net.cpp:144] Setting up inception_4e/5x5_reduce
I0205 01:22:50.162480   178 net.cpp:151] Top shape: 16 32 14 14 (100352)
I0205 01:22:50.162487   178 net.cpp:159] Memory required for data: 824469072
I0205 01:22:50.162495   178 layer_factory.hpp:77] Creating layer inception_4e/relu_5x5_reduce
I0205 01:22:50.162508   178 net.cpp:94] Creating Layer inception_4e/relu_5x5_reduce
I0205 01:22:50.162514   178 net.cpp:435] inception_4e/relu_5x5_reduce <- inception_4e/5x5_reduce
I0205 01:22:50.162523   178 net.cpp:396] inception_4e/relu_5x5_reduce -> inception_4e/5x5_reduce (in-place)
I0205 01:22:50.162533   178 net.cpp:144] Setting up inception_4e/relu_5x5_reduce
I0205 01:22:50.162554   178 net.cpp:151] Top shape: 16 32 14 14 (100352)
I0205 01:22:50.162560   178 net.cpp:159] Memory required for data: 824870480
I0205 01:22:50.162566   178 layer_factory.hpp:77] Creating layer inception_4e/5x5
I0205 01:22:50.162581   178 net.cpp:94] Creating Layer inception_4e/5x5
I0205 01:22:50.162587   178 net.cpp:435] inception_4e/5x5 <- inception_4e/5x5_reduce
I0205 01:22:50.162600   178 net.cpp:409] inception_4e/5x5 -> inception_4e/5x5
I0205 01:22:50.163508   178 net.cpp:144] Setting up inception_4e/5x5
I0205 01:22:50.163520   178 net.cpp:151] Top shape: 16 128 14 14 (401408)
I0205 01:22:50.163527   178 net.cpp:159] Memory required for data: 826476112
I0205 01:22:50.163535   178 layer_factory.hpp:77] Creating layer inception_4e/relu_5x5
I0205 01:22:50.163601   178 net.cpp:94] Creating Layer inception_4e/relu_5x5
I0205 01:22:50.163609   178 net.cpp:435] inception_4e/relu_5x5 <- inception_4e/5x5
I0205 01:22:50.163621   178 net.cpp:396] inception_4e/relu_5x5 -> inception_4e/5x5 (in-place)
I0205 01:22:50.163632   178 net.cpp:144] Setting up inception_4e/relu_5x5
I0205 01:22:50.163640   178 net.cpp:151] Top shape: 16 128 14 14 (401408)
I0205 01:22:50.163645   178 net.cpp:159] Memory required for data: 828081744
I0205 01:22:50.163651   178 layer_factory.hpp:77] Creating layer inception_4e/pool
I0205 01:22:50.163661   178 net.cpp:94] Creating Layer inception_4e/pool
I0205 01:22:50.163666   178 net.cpp:435] inception_4e/pool <- inception_4d/output_inception_4d/output_0_split_4
I0205 01:22:50.163676   178 net.cpp:409] inception_4e/pool -> inception_4e/pool
I0205 01:22:50.163730   178 net.cpp:144] Setting up inception_4e/pool
I0205 01:22:50.163801   178 net.cpp:151] Top shape: 16 528 14 14 (1655808)
I0205 01:22:50.163808   178 net.cpp:159] Memory required for data: 834704976
I0205 01:22:50.163815   178 layer_factory.hpp:77] Creating layer inception_4e/pool_proj
I0205 01:22:50.163831   178 net.cpp:94] Creating Layer inception_4e/pool_proj
I0205 01:22:50.163838   178 net.cpp:435] inception_4e/pool_proj <- inception_4e/pool
I0205 01:22:50.163847   178 net.cpp:409] inception_4e/pool_proj -> inception_4e/pool_proj
I0205 01:22:50.164512   178 net.cpp:144] Setting up inception_4e/pool_proj
I0205 01:22:50.164525   178 net.cpp:151] Top shape: 16 128 14 14 (401408)
I0205 01:22:50.164530   178 net.cpp:159] Memory required for data: 836310608
I0205 01:22:50.164539   178 layer_factory.hpp:77] Creating layer inception_4e/relu_pool_proj
I0205 01:22:50.164548   178 net.cpp:94] Creating Layer inception_4e/relu_pool_proj
I0205 01:22:50.164556   178 net.cpp:435] inception_4e/relu_pool_proj <- inception_4e/pool_proj
I0205 01:22:50.164566   178 net.cpp:396] inception_4e/relu_pool_proj -> inception_4e/pool_proj (in-place)
I0205 01:22:50.164577   178 net.cpp:144] Setting up inception_4e/relu_pool_proj
I0205 01:22:50.164583   178 net.cpp:151] Top shape: 16 128 14 14 (401408)
I0205 01:22:50.164589   178 net.cpp:159] Memory required for data: 837916240
I0205 01:22:50.164595   178 layer_factory.hpp:77] Creating layer inception_4e/output
I0205 01:22:50.164603   178 net.cpp:94] Creating Layer inception_4e/output
I0205 01:22:50.164610   178 net.cpp:435] inception_4e/output <- inception_4e/1x1
I0205 01:22:50.164618   178 net.cpp:435] inception_4e/output <- inception_4e/3x3
I0205 01:22:50.164624   178 net.cpp:435] inception_4e/output <- inception_4e/5x5
I0205 01:22:50.164631   178 net.cpp:435] inception_4e/output <- inception_4e/pool_proj
I0205 01:22:50.164642   178 net.cpp:409] inception_4e/output -> inception_4e/output
I0205 01:22:50.164674   178 net.cpp:144] Setting up inception_4e/output
I0205 01:22:50.164682   178 net.cpp:151] Top shape: 16 832 14 14 (2609152)
I0205 01:22:50.164687   178 net.cpp:159] Memory required for data: 848352848
I0205 01:22:50.164693   178 layer_factory.hpp:77] Creating layer pool4/3x3_s2
I0205 01:22:50.164705   178 net.cpp:94] Creating Layer pool4/3x3_s2
I0205 01:22:50.164712   178 net.cpp:435] pool4/3x3_s2 <- inception_4e/output
I0205 01:22:50.164721   178 net.cpp:409] pool4/3x3_s2 -> pool4/3x3_s2
I0205 01:22:50.164785   178 net.cpp:144] Setting up pool4/3x3_s2
I0205 01:22:50.164795   178 net.cpp:151] Top shape: 16 832 7 7 (652288)
I0205 01:22:50.164801   178 net.cpp:159] Memory required for data: 850962000
I0205 01:22:50.164808   178 layer_factory.hpp:77] Creating layer pool4/3x3_s2_pool4/3x3_s2_0_split
I0205 01:22:50.164820   178 net.cpp:94] Creating Layer pool4/3x3_s2_pool4/3x3_s2_0_split
I0205 01:22:50.164826   178 net.cpp:435] pool4/3x3_s2_pool4/3x3_s2_0_split <- pool4/3x3_s2
I0205 01:22:50.164835   178 net.cpp:409] pool4/3x3_s2_pool4/3x3_s2_0_split -> pool4/3x3_s2_pool4/3x3_s2_0_split_0
I0205 01:22:50.164844   178 net.cpp:409] pool4/3x3_s2_pool4/3x3_s2_0_split -> pool4/3x3_s2_pool4/3x3_s2_0_split_1
I0205 01:22:50.164856   178 net.cpp:409] pool4/3x3_s2_pool4/3x3_s2_0_split -> pool4/3x3_s2_pool4/3x3_s2_0_split_2
I0205 01:22:50.164866   178 net.cpp:409] pool4/3x3_s2_pool4/3x3_s2_0_split -> pool4/3x3_s2_pool4/3x3_s2_0_split_3
I0205 01:22:50.164943   178 net.cpp:144] Setting up pool4/3x3_s2_pool4/3x3_s2_0_split
I0205 01:22:50.164952   178 net.cpp:151] Top shape: 16 832 7 7 (652288)
I0205 01:22:50.164958   178 net.cpp:151] Top shape: 16 832 7 7 (652288)
I0205 01:22:50.164965   178 net.cpp:151] Top shape: 16 832 7 7 (652288)
I0205 01:22:50.164971   178 net.cpp:151] Top shape: 16 832 7 7 (652288)
I0205 01:22:50.164978   178 net.cpp:159] Memory required for data: 861398608
I0205 01:22:50.164983   178 layer_factory.hpp:77] Creating layer inception_5a/1x1
I0205 01:22:50.165001   178 net.cpp:94] Creating Layer inception_5a/1x1
I0205 01:22:50.165009   178 net.cpp:435] inception_5a/1x1 <- pool4/3x3_s2_pool4/3x3_s2_0_split_0
I0205 01:22:50.165019   178 net.cpp:409] inception_5a/1x1 -> inception_5a/1x1
I0205 01:22:50.167469   178 net.cpp:144] Setting up inception_5a/1x1
I0205 01:22:50.167484   178 net.cpp:151] Top shape: 16 256 7 7 (200704)
I0205 01:22:50.167491   178 net.cpp:159] Memory required for data: 862201424
I0205 01:22:50.167500   178 layer_factory.hpp:77] Creating layer inception_5a/relu_1x1
I0205 01:22:50.167510   178 net.cpp:94] Creating Layer inception_5a/relu_1x1
I0205 01:22:50.167517   178 net.cpp:435] inception_5a/relu_1x1 <- inception_5a/1x1
I0205 01:22:50.167531   178 net.cpp:396] inception_5a/relu_1x1 -> inception_5a/1x1 (in-place)
I0205 01:22:50.167542   178 net.cpp:144] Setting up inception_5a/relu_1x1
I0205 01:22:50.167549   178 net.cpp:151] Top shape: 16 256 7 7 (200704)
I0205 01:22:50.167556   178 net.cpp:159] Memory required for data: 863004240
I0205 01:22:50.167562   178 layer_factory.hpp:77] Creating layer inception_5a/3x3_reduce
I0205 01:22:50.167575   178 net.cpp:94] Creating Layer inception_5a/3x3_reduce
I0205 01:22:50.167582   178 net.cpp:435] inception_5a/3x3_reduce <- pool4/3x3_s2_pool4/3x3_s2_0_split_1
I0205 01:22:50.167594   178 net.cpp:409] inception_5a/3x3_reduce -> inception_5a/3x3_reduce
I0205 01:22:50.169358   178 net.cpp:144] Setting up inception_5a/3x3_reduce
I0205 01:22:50.169371   178 net.cpp:151] Top shape: 16 160 7 7 (125440)
I0205 01:22:50.169378   178 net.cpp:159] Memory required for data: 863506000
I0205 01:22:50.169387   178 layer_factory.hpp:77] Creating layer inception_5a/relu_3x3_reduce
I0205 01:22:50.169400   178 net.cpp:94] Creating Layer inception_5a/relu_3x3_reduce
I0205 01:22:50.169409   178 net.cpp:435] inception_5a/relu_3x3_reduce <- inception_5a/3x3_reduce
I0205 01:22:50.169416   178 net.cpp:396] inception_5a/relu_3x3_reduce -> inception_5a/3x3_reduce (in-place)
I0205 01:22:50.169430   178 net.cpp:144] Setting up inception_5a/relu_3x3_reduce
I0205 01:22:50.169438   178 net.cpp:151] Top shape: 16 160 7 7 (125440)
I0205 01:22:50.169445   178 net.cpp:159] Memory required for data: 864007760
I0205 01:22:50.169450   178 layer_factory.hpp:77] Creating layer inception_5a/3x3
I0205 01:22:50.169463   178 net.cpp:94] Creating Layer inception_5a/3x3
I0205 01:22:50.169471   178 net.cpp:435] inception_5a/3x3 <- inception_5a/3x3_reduce
I0205 01:22:50.169479   178 net.cpp:409] inception_5a/3x3 -> inception_5a/3x3
I0205 01:22:50.173547   178 net.cpp:144] Setting up inception_5a/3x3
I0205 01:22:50.173576   178 net.cpp:151] Top shape: 16 320 7 7 (250880)
I0205 01:22:50.173583   178 net.cpp:159] Memory required for data: 865011280
I0205 01:22:50.173593   178 layer_factory.hpp:77] Creating layer inception_5a/relu_3x3
I0205 01:22:50.173602   178 net.cpp:94] Creating Layer inception_5a/relu_3x3
I0205 01:22:50.173609   178 net.cpp:435] inception_5a/relu_3x3 <- inception_5a/3x3
I0205 01:22:50.173621   178 net.cpp:396] inception_5a/relu_3x3 -> inception_5a/3x3 (in-place)
I0205 01:22:50.173633   178 net.cpp:144] Setting up inception_5a/relu_3x3
I0205 01:22:50.173640   178 net.cpp:151] Top shape: 16 320 7 7 (250880)
I0205 01:22:50.173646   178 net.cpp:159] Memory required for data: 866014800
I0205 01:22:50.173652   178 layer_factory.hpp:77] Creating layer inception_5a/5x5_reduce
I0205 01:22:50.173667   178 net.cpp:94] Creating Layer inception_5a/5x5_reduce
I0205 01:22:50.173674   178 net.cpp:435] inception_5a/5x5_reduce <- pool4/3x3_s2_pool4/3x3_s2_0_split_2
I0205 01:22:50.173686   178 net.cpp:409] inception_5a/5x5_reduce -> inception_5a/5x5_reduce
I0205 01:22:50.174831   178 net.cpp:144] Setting up inception_5a/5x5_reduce
I0205 01:22:50.174846   178 net.cpp:151] Top shape: 16 32 7 7 (25088)
I0205 01:22:50.174852   178 net.cpp:159] Memory required for data: 866115152
I0205 01:22:50.174861   178 layer_factory.hpp:77] Creating layer inception_5a/relu_5x5_reduce
I0205 01:22:50.174871   178 net.cpp:94] Creating Layer inception_5a/relu_5x5_reduce
I0205 01:22:50.174880   178 net.cpp:435] inception_5a/relu_5x5_reduce <- inception_5a/5x5_reduce
I0205 01:22:50.174890   178 net.cpp:396] inception_5a/relu_5x5_reduce -> inception_5a/5x5_reduce (in-place)
I0205 01:22:50.174902   178 net.cpp:144] Setting up inception_5a/relu_5x5_reduce
I0205 01:22:50.174911   178 net.cpp:151] Top shape: 16 32 7 7 (25088)
I0205 01:22:50.174916   178 net.cpp:159] Memory required for data: 866215504
I0205 01:22:50.174922   178 layer_factory.hpp:77] Creating layer inception_5a/5x5
I0205 01:22:50.174937   178 net.cpp:94] Creating Layer inception_5a/5x5
I0205 01:22:50.174943   178 net.cpp:435] inception_5a/5x5 <- inception_5a/5x5_reduce
I0205 01:22:50.174952   178 net.cpp:409] inception_5a/5x5 -> inception_5a/5x5
I0205 01:22:50.175858   178 net.cpp:144] Setting up inception_5a/5x5
I0205 01:22:50.175870   178 net.cpp:151] Top shape: 16 128 7 7 (100352)
I0205 01:22:50.175876   178 net.cpp:159] Memory required for data: 866616912
I0205 01:22:50.175885   178 layer_factory.hpp:77] Creating layer inception_5a/relu_5x5
I0205 01:22:50.175894   178 net.cpp:94] Creating Layer inception_5a/relu_5x5
I0205 01:22:50.175900   178 net.cpp:435] inception_5a/relu_5x5 <- inception_5a/5x5
I0205 01:22:50.175912   178 net.cpp:396] inception_5a/relu_5x5 -> inception_5a/5x5 (in-place)
I0205 01:22:50.175922   178 net.cpp:144] Setting up inception_5a/relu_5x5
I0205 01:22:50.175930   178 net.cpp:151] Top shape: 16 128 7 7 (100352)
I0205 01:22:50.175935   178 net.cpp:159] Memory required for data: 867018320
I0205 01:22:50.175941   178 layer_factory.hpp:77] Creating layer inception_5a/pool
I0205 01:22:50.175951   178 net.cpp:94] Creating Layer inception_5a/pool
I0205 01:22:50.175956   178 net.cpp:435] inception_5a/pool <- pool4/3x3_s2_pool4/3x3_s2_0_split_3
I0205 01:22:50.175968   178 net.cpp:409] inception_5a/pool -> inception_5a/pool
I0205 01:22:50.176061   178 net.cpp:144] Setting up inception_5a/pool
I0205 01:22:50.176072   178 net.cpp:151] Top shape: 16 832 7 7 (652288)
I0205 01:22:50.176079   178 net.cpp:159] Memory required for data: 869627472
I0205 01:22:50.176092   178 layer_factory.hpp:77] Creating layer inception_5a/pool_proj
I0205 01:22:50.176103   178 net.cpp:94] Creating Layer inception_5a/pool_proj
I0205 01:22:50.176118   178 net.cpp:435] inception_5a/pool_proj <- inception_5a/pool
I0205 01:22:50.176127   178 net.cpp:409] inception_5a/pool_proj -> inception_5a/pool_proj
I0205 01:22:50.177700   178 net.cpp:144] Setting up inception_5a/pool_proj
I0205 01:22:50.177718   178 net.cpp:151] Top shape: 16 128 7 7 (100352)
I0205 01:22:50.177724   178 net.cpp:159] Memory required for data: 870028880
I0205 01:22:50.177748   178 layer_factory.hpp:77] Creating layer inception_5a/relu_pool_proj
I0205 01:22:50.177759   178 net.cpp:94] Creating Layer inception_5a/relu_pool_proj
I0205 01:22:50.177767   178 net.cpp:435] inception_5a/relu_pool_proj <- inception_5a/pool_proj
I0205 01:22:50.177776   178 net.cpp:396] inception_5a/relu_pool_proj -> inception_5a/pool_proj (in-place)
I0205 01:22:50.177788   178 net.cpp:144] Setting up inception_5a/relu_pool_proj
I0205 01:22:50.177795   178 net.cpp:151] Top shape: 16 128 7 7 (100352)
I0205 01:22:50.177800   178 net.cpp:159] Memory required for data: 870430288
I0205 01:22:50.177806   178 layer_factory.hpp:77] Creating layer inception_5a/output
I0205 01:22:50.177819   178 net.cpp:94] Creating Layer inception_5a/output
I0205 01:22:50.177825   178 net.cpp:435] inception_5a/output <- inception_5a/1x1
I0205 01:22:50.177834   178 net.cpp:435] inception_5a/output <- inception_5a/3x3
I0205 01:22:50.177840   178 net.cpp:435] inception_5a/output <- inception_5a/5x5
I0205 01:22:50.177847   178 net.cpp:435] inception_5a/output <- inception_5a/pool_proj
I0205 01:22:50.177856   178 net.cpp:409] inception_5a/output -> inception_5a/output
I0205 01:22:50.177894   178 net.cpp:144] Setting up inception_5a/output
I0205 01:22:50.177902   178 net.cpp:151] Top shape: 16 832 7 7 (652288)
I0205 01:22:50.177908   178 net.cpp:159] Memory required for data: 873039440
I0205 01:22:50.177914   178 layer_factory.hpp:77] Creating layer inception_5a/output_inception_5a/output_0_split
I0205 01:22:50.177924   178 net.cpp:94] Creating Layer inception_5a/output_inception_5a/output_0_split
I0205 01:22:50.177930   178 net.cpp:435] inception_5a/output_inception_5a/output_0_split <- inception_5a/output
I0205 01:22:50.177945   178 net.cpp:409] inception_5a/output_inception_5a/output_0_split -> inception_5a/output_inception_5a/output_0_split_0
I0205 01:22:50.177956   178 net.cpp:409] inception_5a/output_inception_5a/output_0_split -> inception_5a/output_inception_5a/output_0_split_1
I0205 01:22:50.177970   178 net.cpp:409] inception_5a/output_inception_5a/output_0_split -> inception_5a/output_inception_5a/output_0_split_2
I0205 01:22:50.177979   178 net.cpp:409] inception_5a/output_inception_5a/output_0_split -> inception_5a/output_inception_5a/output_0_split_3
I0205 01:22:50.178061   178 net.cpp:144] Setting up inception_5a/output_inception_5a/output_0_split
I0205 01:22:50.178074   178 net.cpp:151] Top shape: 16 832 7 7 (652288)
I0205 01:22:50.178081   178 net.cpp:151] Top shape: 16 832 7 7 (652288)
I0205 01:22:50.178087   178 net.cpp:151] Top shape: 16 832 7 7 (652288)
I0205 01:22:50.178094   178 net.cpp:151] Top shape: 16 832 7 7 (652288)
I0205 01:22:50.178099   178 net.cpp:159] Memory required for data: 883476048
I0205 01:22:50.178107   178 layer_factory.hpp:77] Creating layer inception_5b/1x1
I0205 01:22:50.178120   178 net.cpp:94] Creating Layer inception_5b/1x1
I0205 01:22:50.178126   178 net.cpp:435] inception_5b/1x1 <- inception_5a/output_inception_5a/output_0_split_0
I0205 01:22:50.178136   178 net.cpp:409] inception_5b/1x1 -> inception_5b/1x1
I0205 01:22:50.181123   178 net.cpp:144] Setting up inception_5b/1x1
I0205 01:22:50.181138   178 net.cpp:151] Top shape: 16 384 7 7 (301056)
I0205 01:22:50.181145   178 net.cpp:159] Memory required for data: 884680272
I0205 01:22:50.181154   178 layer_factory.hpp:77] Creating layer inception_5b/relu_1x1
I0205 01:22:50.181164   178 net.cpp:94] Creating Layer inception_5b/relu_1x1
I0205 01:22:50.181171   178 net.cpp:435] inception_5b/relu_1x1 <- inception_5b/1x1
I0205 01:22:50.181183   178 net.cpp:396] inception_5b/relu_1x1 -> inception_5b/1x1 (in-place)
I0205 01:22:50.181195   178 net.cpp:144] Setting up inception_5b/relu_1x1
I0205 01:22:50.181202   178 net.cpp:151] Top shape: 16 384 7 7 (301056)
I0205 01:22:50.181208   178 net.cpp:159] Memory required for data: 885884496
I0205 01:22:50.181215   178 layer_factory.hpp:77] Creating layer inception_5b/3x3_reduce
I0205 01:22:50.181228   178 net.cpp:94] Creating Layer inception_5b/3x3_reduce
I0205 01:22:50.181249   178 net.cpp:435] inception_5b/3x3_reduce <- inception_5a/output_inception_5a/output_0_split_1
I0205 01:22:50.181274   178 net.cpp:409] inception_5b/3x3_reduce -> inception_5b/3x3_reduce
I0205 01:22:50.183238   178 net.cpp:144] Setting up inception_5b/3x3_reduce
I0205 01:22:50.183252   178 net.cpp:151] Top shape: 16 192 7 7 (150528)
I0205 01:22:50.183267   178 net.cpp:159] Memory required for data: 886486608
I0205 01:22:50.183276   178 layer_factory.hpp:77] Creating layer inception_5b/relu_3x3_reduce
I0205 01:22:50.183286   178 net.cpp:94] Creating Layer inception_5b/relu_3x3_reduce
I0205 01:22:50.183295   178 net.cpp:435] inception_5b/relu_3x3_reduce <- inception_5b/3x3_reduce
I0205 01:22:50.183306   178 net.cpp:396] inception_5b/relu_3x3_reduce -> inception_5b/3x3_reduce (in-place)
I0205 01:22:50.183317   178 net.cpp:144] Setting up inception_5b/relu_3x3_reduce
I0205 01:22:50.183326   178 net.cpp:151] Top shape: 16 192 7 7 (150528)
I0205 01:22:50.183331   178 net.cpp:159] Memory required for data: 887088720
I0205 01:22:50.183337   178 layer_factory.hpp:77] Creating layer inception_5b/3x3
I0205 01:22:50.183351   178 net.cpp:94] Creating Layer inception_5b/3x3
I0205 01:22:50.183358   178 net.cpp:435] inception_5b/3x3 <- inception_5b/3x3_reduce
I0205 01:22:50.183367   178 net.cpp:409] inception_5b/3x3 -> inception_5b/3x3
I0205 01:22:50.188997   178 net.cpp:144] Setting up inception_5b/3x3
I0205 01:22:50.189013   178 net.cpp:151] Top shape: 16 384 7 7 (301056)
I0205 01:22:50.189019   178 net.cpp:159] Memory required for data: 888292944
I0205 01:22:50.189028   178 layer_factory.hpp:77] Creating layer inception_5b/relu_3x3
I0205 01:22:50.189050   178 net.cpp:94] Creating Layer inception_5b/relu_3x3
I0205 01:22:50.189059   178 net.cpp:435] inception_5b/relu_3x3 <- inception_5b/3x3
I0205 01:22:50.189072   178 net.cpp:396] inception_5b/relu_3x3 -> inception_5b/3x3 (in-place)
I0205 01:22:50.189085   178 net.cpp:144] Setting up inception_5b/relu_3x3
I0205 01:22:50.189091   178 net.cpp:151] Top shape: 16 384 7 7 (301056)
I0205 01:22:50.189097   178 net.cpp:159] Memory required for data: 889497168
I0205 01:22:50.189103   178 layer_factory.hpp:77] Creating layer inception_5b/5x5_reduce
I0205 01:22:50.189117   178 net.cpp:94] Creating Layer inception_5b/5x5_reduce
I0205 01:22:50.189124   178 net.cpp:435] inception_5b/5x5_reduce <- inception_5a/output_inception_5a/output_0_split_2
I0205 01:22:50.189136   178 net.cpp:409] inception_5b/5x5_reduce -> inception_5b/5x5_reduce
I0205 01:22:50.189659   178 net.cpp:144] Setting up inception_5b/5x5_reduce
I0205 01:22:50.189671   178 net.cpp:151] Top shape: 16 48 7 7 (37632)
I0205 01:22:50.189677   178 net.cpp:159] Memory required for data: 889647696
I0205 01:22:50.189687   178 layer_factory.hpp:77] Creating layer inception_5b/relu_5x5_reduce
I0205 01:22:50.189694   178 net.cpp:94] Creating Layer inception_5b/relu_5x5_reduce
I0205 01:22:50.189702   178 net.cpp:435] inception_5b/relu_5x5_reduce <- inception_5b/5x5_reduce
I0205 01:22:50.189709   178 net.cpp:396] inception_5b/relu_5x5_reduce -> inception_5b/5x5_reduce (in-place)
I0205 01:22:50.189719   178 net.cpp:144] Setting up inception_5b/relu_5x5_reduce
I0205 01:22:50.189726   178 net.cpp:151] Top shape: 16 48 7 7 (37632)
I0205 01:22:50.189733   178 net.cpp:159] Memory required for data: 889798224
I0205 01:22:50.189738   178 layer_factory.hpp:77] Creating layer inception_5b/5x5
I0205 01:22:50.189755   178 net.cpp:94] Creating Layer inception_5b/5x5
I0205 01:22:50.189764   178 net.cpp:435] inception_5b/5x5 <- inception_5b/5x5_reduce
I0205 01:22:50.189772   178 net.cpp:409] inception_5b/5x5 -> inception_5b/5x5
I0205 01:22:50.190996   178 net.cpp:144] Setting up inception_5b/5x5
I0205 01:22:50.191009   178 net.cpp:151] Top shape: 16 128 7 7 (100352)
I0205 01:22:50.191015   178 net.cpp:159] Memory required for data: 890199632
I0205 01:22:50.191025   178 layer_factory.hpp:77] Creating layer inception_5b/relu_5x5
I0205 01:22:50.191033   178 net.cpp:94] Creating Layer inception_5b/relu_5x5
I0205 01:22:50.191051   178 net.cpp:435] inception_5b/relu_5x5 <- inception_5b/5x5
I0205 01:22:50.191088   178 net.cpp:396] inception_5b/relu_5x5 -> inception_5b/5x5 (in-place)
I0205 01:22:50.191105   178 net.cpp:144] Setting up inception_5b/relu_5x5
I0205 01:22:50.191113   178 net.cpp:151] Top shape: 16 128 7 7 (100352)
I0205 01:22:50.191118   178 net.cpp:159] Memory required for data: 890601040
I0205 01:22:50.191124   178 layer_factory.hpp:77] Creating layer inception_5b/pool
I0205 01:22:50.191133   178 net.cpp:94] Creating Layer inception_5b/pool
I0205 01:22:50.191140   178 net.cpp:435] inception_5b/pool <- inception_5a/output_inception_5a/output_0_split_3
I0205 01:22:50.191151   178 net.cpp:409] inception_5b/pool -> inception_5b/pool
I0205 01:22:50.191200   178 net.cpp:144] Setting up inception_5b/pool
I0205 01:22:50.191220   178 net.cpp:151] Top shape: 16 832 7 7 (652288)
I0205 01:22:50.191226   178 net.cpp:159] Memory required for data: 893210192
I0205 01:22:50.191232   178 layer_factory.hpp:77] Creating layer inception_5b/pool_proj
I0205 01:22:50.191242   178 net.cpp:94] Creating Layer inception_5b/pool_proj
I0205 01:22:50.191249   178 net.cpp:435] inception_5b/pool_proj <- inception_5b/pool
I0205 01:22:50.191269   178 net.cpp:409] inception_5b/pool_proj -> inception_5b/pool_proj
I0205 01:22:50.192826   178 net.cpp:144] Setting up inception_5b/pool_proj
I0205 01:22:50.192840   178 net.cpp:151] Top shape: 16 128 7 7 (100352)
I0205 01:22:50.192847   178 net.cpp:159] Memory required for data: 893611600
I0205 01:22:50.192857   178 layer_factory.hpp:77] Creating layer inception_5b/relu_pool_proj
I0205 01:22:50.192867   178 net.cpp:94] Creating Layer inception_5b/relu_pool_proj
I0205 01:22:50.192874   178 net.cpp:435] inception_5b/relu_pool_proj <- inception_5b/pool_proj
I0205 01:22:50.192886   178 net.cpp:396] inception_5b/relu_pool_proj -> inception_5b/pool_proj (in-place)
I0205 01:22:50.192898   178 net.cpp:144] Setting up inception_5b/relu_pool_proj
I0205 01:22:50.192905   178 net.cpp:151] Top shape: 16 128 7 7 (100352)
I0205 01:22:50.192911   178 net.cpp:159] Memory required for data: 894013008
I0205 01:22:50.192917   178 layer_factory.hpp:77] Creating layer inception_5b/output
I0205 01:22:50.192925   178 net.cpp:94] Creating Layer inception_5b/output
I0205 01:22:50.192932   178 net.cpp:435] inception_5b/output <- inception_5b/1x1
I0205 01:22:50.192939   178 net.cpp:435] inception_5b/output <- inception_5b/3x3
I0205 01:22:50.192947   178 net.cpp:435] inception_5b/output <- inception_5b/5x5
I0205 01:22:50.192955   178 net.cpp:435] inception_5b/output <- inception_5b/pool_proj
I0205 01:22:50.192966   178 net.cpp:409] inception_5b/output -> inception_5b/output
I0205 01:22:50.192998   178 net.cpp:144] Setting up inception_5b/output
I0205 01:22:50.193007   178 net.cpp:151] Top shape: 16 1024 7 7 (802816)
I0205 01:22:50.193013   178 net.cpp:159] Memory required for data: 897224272
I0205 01:22:50.193019   178 layer_factory.hpp:77] Creating layer pool5/7x7_s1
I0205 01:22:50.193032   178 net.cpp:94] Creating Layer pool5/7x7_s1
I0205 01:22:50.193037   178 net.cpp:435] pool5/7x7_s1 <- inception_5b/output
I0205 01:22:50.193058   178 net.cpp:409] pool5/7x7_s1 -> pool5/7x7_s1
I0205 01:22:50.193094   178 net.cpp:144] Setting up pool5/7x7_s1
I0205 01:22:50.193104   178 net.cpp:151] Top shape: 16 1024 1 1 (16384)
I0205 01:22:50.193109   178 net.cpp:159] Memory required for data: 897289808
I0205 01:22:50.193115   178 layer_factory.hpp:77] Creating layer pool5/drop_7x7_s1
I0205 01:22:50.193127   178 net.cpp:94] Creating Layer pool5/drop_7x7_s1
I0205 01:22:50.193135   178 net.cpp:435] pool5/drop_7x7_s1 <- pool5/7x7_s1
I0205 01:22:50.193142   178 net.cpp:396] pool5/drop_7x7_s1 -> pool5/7x7_s1 (in-place)
I0205 01:22:50.193174   178 net.cpp:144] Setting up pool5/drop_7x7_s1
I0205 01:22:50.193182   178 net.cpp:151] Top shape: 16 1024 1 1 (16384)
I0205 01:22:50.193188   178 net.cpp:159] Memory required for data: 897355344
I0205 01:22:50.193194   178 layer_factory.hpp:77] Creating layer loss3/classifier
I0205 01:22:50.193207   178 net.cpp:94] Creating Layer loss3/classifier
I0205 01:22:50.193229   178 net.cpp:435] loss3/classifier <- pool5/7x7_s1
I0205 01:22:50.193243   178 net.cpp:409] loss3/classifier -> loss3/classifier
I0205 01:22:50.193403   178 net.cpp:144] Setting up loss3/classifier
I0205 01:22:50.193411   178 net.cpp:151] Top shape: 16 3 (48)
I0205 01:22:50.193418   178 net.cpp:159] Memory required for data: 897355536
I0205 01:22:50.193426   178 layer_factory.hpp:77] Creating layer loss3/classifier_loss3/classifier_0_split
I0205 01:22:50.193435   178 net.cpp:94] Creating Layer loss3/classifier_loss3/classifier_0_split
I0205 01:22:50.193442   178 net.cpp:435] loss3/classifier_loss3/classifier_0_split <- loss3/classifier
I0205 01:22:50.193450   178 net.cpp:409] loss3/classifier_loss3/classifier_0_split -> loss3/classifier_loss3/classifier_0_split_0
I0205 01:22:50.193464   178 net.cpp:409] loss3/classifier_loss3/classifier_0_split -> loss3/classifier_loss3/classifier_0_split_1
I0205 01:22:50.193509   178 net.cpp:144] Setting up loss3/classifier_loss3/classifier_0_split
I0205 01:22:50.193518   178 net.cpp:151] Top shape: 16 3 (48)
I0205 01:22:50.193524   178 net.cpp:151] Top shape: 16 3 (48)
I0205 01:22:50.193529   178 net.cpp:159] Memory required for data: 897355920
I0205 01:22:50.193536   178 layer_factory.hpp:77] Creating layer loss3/loss
I0205 01:22:50.193548   178 net.cpp:94] Creating Layer loss3/loss
I0205 01:22:50.193555   178 net.cpp:435] loss3/loss <- loss3/classifier_loss3/classifier_0_split_0
I0205 01:22:50.193563   178 net.cpp:435] loss3/loss <- label_val-data_1_split_4
…
