…
I0220 20:02:54.870995   138 net.cpp:323] The NetState phase (0) differed from the phase (1) specified by a rule in layer loss3/top-1
I0220 20:02:54.871748   138 net.cpp:52] Initializing net from parameters:
state {
phase: TRAIN
}
layer {
name: "train-data"
type: "Data"
top: "data"
top: "label"
include {
phase: TRAIN
}
transform_param {
mirror: true
crop_size: 224
mean_file: "/opt/DIGITS/digits/jobs/20190220-195817-1486/mean.binaryproto"
}
data_param {
source: "/opt/DIGITS/digits/jobs/20190220-195817-1486/train_db"
batch_size: 32
backend: LMDB
}
}
layer {
name: "conv1/7x7_s2"
type: "Convolution"
bottom: "data"
top: "conv1/7x7_s2"
param {
lr_mult: 1
decay_mult: 1
}
param {
lr_mult: 2
decay_mult: 0
}
convolution_param {
num_output: 64
pad: 3
kernel_size: 7
stride: 2
weight_filler {
type: "xavier"
std: 0.1
}
bias_filler {
type: "constant"
value: 0.2
}
}
}
layer {
name: "conv1/relu_7x7"
type: "ReLU"
bottom: "conv1/7x7_s2"
top: "conv1/7x7_s2"
}
layer {
name: "pool1/3x3_s2"
type: "Pooling"
bottom: "conv1/7x7_s2"
top: "pool1/3x3_s2"
pooling_param {
pool: MAX
kernel_size: 3
stride: 2
}
}
layer {
name: "pool1/norm1"
type: "LRN"
bottom: "pool1/3x3_s2"
top: "pool1/norm1"
lrn_param {
local_size: 5
alpha: 0.0001
beta: 0.75
}
}
layer {
name: "conv2/3x3_reduce"
type: "Convolution"
bottom: "pool1/norm1"
top: "conv2/3x3_reduce"
param {
lr_mult: 1
decay_mult: 1
}
param {
lr_mult: 2
decay_mult: 0
}
convolution_param {
num_output: 64
kernel_size: 1
weight_filler {
type: "xavier"
std: 0.1
}
bias_filler {
type: "constant"
value: 0.2
}
}
}
layer {
name: "conv2/relu_3x3_reduce"
type: "ReLU"
bottom: "conv2/3x3_reduce"
top: "conv2/3x3_reduce"
}
layer {
name: "conv2/3x3"
type: "Convolution"
bottom: "conv2/3x3_reduce"
top: "conv2/3x3"
param {
lr_mult: 1
decay_mult: 1
}
param {
lr_mult: 2
decay_mult: 0
}
convolution_param {
num_output: 192
pad: 1
kernel_size: 3
weight_filler {
type: "xavier"
std: 0.03
}
bias_filler {
type: "constant"
value: 0.2
}
}
}
layer {
name: "conv2/relu_3x3"
type: "ReLU"
bottom: "conv2/3x3"
top: "conv2/3x3"
}
layer {
name: "conv2/norm2"
type: "LRN"
bottom: "conv2/3x3"
top: "conv2/norm2"
lrn_param {
local_size: 5
alpha: 0.0001
beta: 0.75
}
}
layer {
name: "pool2/3x3_s2"
type: "Pooling"
bottom: "conv2/norm2"
top: "pool2/3x3_s2"
pooling_param {
pool: MAX
kernel_size: 3
stride: 2
}
}
layer {
name: "inception_3a/1x1"
type: "Convolution"
bottom: "pool2/3x3_s2"
top: "inception_3a/1x1"
param {
lr_mult: 1
decay_mult: 1
}
param {
lr_mult: 2
decay_mult: 0
}
convolution_param {
num_output: 64
kernel_size: 1
weight_filler {
type: "xavier"
std: 0.03
}
bias_filler {
type: "constant"
value: 0.2
}
}
}
layer {
name: "inception_3a/relu_1x1"
type: "ReLU"
bottom: "inception_3a/1x1"
top: "inception_3a/1x1"
}
layer {
name: "inception_3a/3x3_reduce"
type: "Convolution"
bottom: "pool2/3x3_s2"
top: "inception_3a/3x3_reduce"
param {
lr_mult: 1
decay_mult: 1
}
param {
lr_mult: 2
decay_mult: 0
}
convolution_param {
num_output: 96
kernel_size: 1
weight_filler {
type: "xavier"
std: 0.09
}
bias_filler {
type: "constant"
value: 0.2
}
}
}
layer {
name: "inception_3a/relu_3x3_reduce"
type: "ReLU"
bottom: "inception_3a/3x3_reduce"
top: "inception_3a/3x3_reduce"
}
layer {
name: "inception_3a/3x3"
type: "Convolution"
bottom: "inception_3a/3x3_reduce"
top: "inception_3a/3x3"
param {
lr_mult: 1
decay_mult: 1
}
param {
lr_mult: 2
decay_mult: 0
}
convolution_param {
num_output: 128
pad: 1
kernel_size: 3
weight_filler {
type: "xavier"
std: 0.03
}
bias_filler {
type: "constant"
value: 0.2
}
}
}
layer {
name: "inception_3a/relu_3x3"
type: "ReLU"
bottom: "inception_3a/3x3"
top: "inception_3a/3x3"
}
layer {
name: "inception_3a/5x5_reduce"
type: "Convolution"
bottom: "pool2/3x3_s2"
top: "inception_3a/5x5_reduce"
param {
lr_mult: 1
decay_mult: 1
}
param {
lr_mult: 2
decay_mult: 0
}
convolution_param {
num_output: 16
kernel_size: 1
weight_filler {
type: "xavier"
std: 0.2
}
bias_filler {
type: "constant"
value: 0.2
}
}
}
layer {
name: "inception_3a/relu_5x5_reduce"
type: "ReLU"
bottom: "inception_3a/5x5_reduce"
top: "inception_3a/5x5_reduce"
}
layer {
name: "inception_3a/5x5"
type: "Convolution"
bottom: "inception_3a/5x5_reduce"
top: "inception_3a/5x5"
param {
lr_mult: 1
decay_mult: 1
}
param {
lr_mult: 2
decay_mult: 0
}
convolution_param {
num_output: 32
pad: 2
kernel_size: 5
weight_filler {
type: "xavier"
std: 0.03
}
bias_filler {
type: "constant"
value: 0.2
}
}
}
layer {
name: "inception_3a/relu_5x5"
type: "ReLU"
bottom: "inception_3a/5x5"
top: "inception_3a/5x5"
}
layer {
name: "inception_3a/pool"
type: "Pooling"
bottom: "pool2/3x3_s2"
top: "inception_3a/pool"
pooling_param {
pool: MAX
kernel_size: 3
stride: 1
pad: 1
}
}
layer {
name: "inception_3a/pool_proj"
type: "Convolution"
bottom: "inception_3a/pool"
top: "inception_3a/pool_proj"
param {
lr_mult: 1
decay_mult: 1
}
param {
lr_mult: 2
decay_mult: 0
}
convolution_param {
num_output: 32
kernel_size: 1
weight_filler {
type: "xavier"
std: 0.1
}
bias_filler {
type: "constant"
value: 0.2
}
}
}
layer {
name: "inception_3a/relu_pool_proj"
type: "ReLU"
bottom: "inception_3a/pool_proj"
top: "inception_3a/pool_proj"
}
layer {
name: "inception_3a/output"
type: "Concat"
bottom: "inception_3a/1x1"
bottom: "inception_3a/3x3"
bottom: "inception_3a/5x5"
bottom: "inception_3a/pool_proj"
top: "inception_3a/output"
}
layer {
name: "inception_3b/1x1"
type: "Convolution"
bottom: "inception_3a/output"
top: "inception_3b/1x1"
param {
lr_mult: 1
decay_mult: 1
}
param {
lr_mult: 2
decay_mult: 0
}
convolution_param {
num_output: 128
kernel_size: 1
weight_filler {
type: "xavier"
std: 0.03
}
bias_filler {
type: "constant"
value: 0.2
}
}
}
layer {
name: "inception_3b/relu_1x1"
type: "ReLU"
bottom: "inception_3b/1x1"
top: "inception_3b/1x1"
}
layer {
name: "inception_3b/3x3_reduce"
type: "Convolution"
bottom: "inception_3a/output"
top: "inception_3b/3x3_reduce"
param {
lr_mult: 1
decay_mult: 1
}
param {
lr_mult: 2
decay_mult: 0
}
convolution_param {
num_output: 128
kernel_size: 1
weight_filler {
type: "xavier"
std: 0.09
}
bias_filler {
type: "constant"
value: 0.2
}
}
}
layer {
name: "inception_3b/relu_3x3_reduce"
type: "ReLU"
bottom: "inception_3b/3x3_reduce"
top: "inception_3b/3x3_reduce"
}
layer {
name: "inception_3b/3x3"
type: "Convolution"
bottom: "inception_3b/3x3_reduce"
top: "inception_3b/3x3"
param {
lr_mult: 1
decay_mult: 1
}
param {
lr_mult: 2
decay_mult: 0
}
convolution_param {
num_output: 192
pad: 1
kernel_size: 3
weight_filler {
type: "xavier"
std: 0.03
}
bias_filler {
type: "constant"
value: 0.2
}
}
}
layer {
name: "inception_3b/relu_3x3"
type: "ReLU"
bottom: "inception_3b/3x3"
top: "inception_3b/3x3"
}
layer {
name: "inception_3b/5x5_reduce"
type: "Convolution"
bottom: "inception_3a/output"
top: "inception_3b/5x5_reduce"
param {
lr_mult: 1
decay_mult: 1
}
param {
lr_mult: 2
decay_mult: 0
}
convolution_param {
num_output: 32
kernel_size: 1
weight_filler {
type: "xavier"
std: 0.2
}
bias_filler {
type: "constant"
value: 0.2
}
}
}
layer {
name: "inception_3b/relu_5x5_reduce"
type: "ReLU"
bottom: "inception_3b/5x5_reduce"
top: "inception_3b/5x5_reduce"
}
layer {
name: "inception_3b/5x5"
type: "Convolution"
bottom: "inception_3b/5x5_reduce"
top: "inception_3b/5x5"
param {
lr_mult: 1
decay_mult: 1
}
param {
lr_mult: 2
decay_mult: 0
}
convolution_param {
num_output: 96
pad: 2
kernel_size: 5
weight_filler {
type: "xavier"
std: 0.03
}
bias_filler {
type: "constant"
value: 0.2
}
}
}
layer {
name: "inception_3b/relu_5x5"
type: "ReLU"
bottom: "inception_3b/5x5"
top: "inception_3b/5x5"
}
layer {
name: "inception_3b/pool"
type: "Pooling"
bottom: "inception_3a/output"
top: "inception_3b/pool"
pooling_param {
pool: MAX
kernel_size: 3
stride: 1
pad: 1
}
}
layer {
name: "inception_3b/pool_proj"
type: "Convolution"
bottom: "inception_3b/pool"
top: "inception_3b/pool_proj"
param {
lr_mult: 1
decay_mult: 1
}
param {
lr_mult: 2
decay_mult: 0
}
convolution_param {
num_output: 64
kernel_size: 1
weight_filler {
type: "xavier"
std: 0.1
}
bias_filler {
type: "constant"
value: 0.2
}
}
}
layer {
name: "inception_3b/relu_pool_proj"
type: "ReLU"
bottom: "inception_3b/pool_proj"
top: "inception_3b/pool_proj"
}
layer {
name: "inception_3b/output"
type: "Concat"
bottom: "inception_3b/1x1"
bottom: "inception_3b/3x3"
bottom: "inception_3b/5x5"
bottom: "inception_3b/pool_proj"
top: "inception_3b/output"
}
layer {
name: "pool3/3x3_s2"
type: "Pooling"
bottom: "inception_3b/output"
top: "pool3/3x3_s2"
pooling_param {
pool: MAX
kernel_size: 3
stride: 2
}
}
layer {
name: "inception_4a/1x1"
type: "Convolution"
bottom: "pool3/3x3_s2"
top: "inception_4a/1x1"
param {
lr_mult: 1
decay_mult: 1
}
param {
lr_mult: 2
decay_mult: 0
}
convolution_param {
num_output: 192
kernel_size: 1
weight_filler {
type: "xavier"
std: 0.03
}
bias_filler {
type: "constant"
value: 0.2
}
}
}
layer {
name: "inception_4a/relu_1x1"
type: "ReLU"
bottom: "inception_4a/1x1"
top: "inception_4a/1x1"
}
layer {
name: "inception_4a/3x3_reduce"
type: "Convolution"
bottom: "pool3/3x3_s2"
top: "inception_4a/3x3_reduce"
param {
lr_mult: 1
decay_mult: 1
}
param {
lr_mult: 2
decay_mult: 0
}
convolution_param {
num_output: 96
kernel_size: 1
weight_filler {
type: "xavier"
std: 0.09
}
bias_filler {
type: "constant"
value: 0.2
}
}
}
layer {
name: "inception_4a/relu_3x3_reduce"
type: "ReLU"
bottom: "inception_4a/3x3_reduce"
top: "inception_4a/3x3_reduce"
}
layer {
name: "inception_4a/3x3"
type: "Convolution"
bottom: "inception_4a/3x3_reduce"
top: "inception_4a/3x3"
param {
lr_mult: 1
decay_mult: 1
}
param {
lr_mult: 2
decay_mult: 0
}
convolution_param {
num_output: 208
pad: 1
kernel_size: 3
weight_filler {
type: "xavier"
std: 0.03
}
bias_filler {
type: "constant"
value: 0.2
}
}
}
layer {
name: "inception_4a/relu_3x3"
type: "ReLU"
bottom: "inception_4a/3x3"
top: "inception_4a/3x3"
}
layer {
name: "inception_4a/5x5_reduce"
type: "Convolution"
bottom: "pool3/3x3_s2"
top: "inception_4a/5x5_reduce"
param {
lr_mult: 1
decay_mult: 1
}
param {
lr_mult: 2
decay_mult: 0
}
convolution_param {
num_output: 16
kernel_size: 1
weight_filler {
type: "xavier"
std: 0.2
}
bias_filler {
type: "constant"
value: 0.2
}
}
}
layer {
name: "inception_4a/relu_5x5_reduce"
type: "ReLU"
bottom: "inception_4a/5x5_reduce"
top: "inception_4a/5x5_reduce"
}
layer {
name: "inception_4a/5x5"
type: "Convolution"
bottom: "inception_4a/5x5_reduce"
top: "inception_4a/5x5"
param {
lr_mult: 1
decay_mult: 1
}
param {
lr_mult: 2
decay_mult: 0
}
convolution_param {
num_output: 48
pad: 2
kernel_size: 5
weight_filler {
type: "xavier"
std: 0.03
}
bias_filler {
type: "constant"
value: 0.2
}
}
}
layer {
name: "inception_4a/relu_5x5"
type: "ReLU"
bottom: "inception_4a/5x5"
top: "inception_4a/5x5"
}
layer {
name: "inception_4a/pool"
type: "Pooling"
bottom: "pool3/3x3_s2"
top: "inception_4a/pool"
pooling_param {
pool: MAX
kernel_size: 3
stride: 1
pad: 1
}
}
layer {
name: "inception_4a/pool_proj"
type: "Convolution"
bottom: "inception_4a/pool"
top: "inception_4a/pool_proj"
param {
lr_mult: 1
decay_mult: 1
}
param {
lr_mult: 2
decay_mult: 0
}
convolution_param {
num_output: 64
kernel_size: 1
weight_filler {
type: "xavier"
std: 0.1
}
bias_filler {
type: "constant"
value: 0.2
}
}
}
layer {
name: "inception_4a/relu_pool_proj"
type: "ReLU"
bottom: "inception_4a/pool_proj"
top: "inception_4a/pool_proj"
}
layer {
name: "inception_4a/output"
type: "Concat"
bottom: "inception_4a/1x1"
bottom: "inception_4a/3x3"
bottom: "inception_4a/5x5"
bottom: "inception_4a/pool_proj"
top: "inception_4a/output"
}
layer {
name: "loss1/ave_pool"
type: "Pooling"
bottom: "inception_4a/output"
top: "loss1/ave_pool"
pooling_param {
pool: AVE
kernel_size: 5
stride: 3
}
}
layer {
name: "loss1/conv"
type: "Convolution"
bottom: "loss1/ave_pool"
top: "loss1/conv"
param {
lr_mult: 1
decay_mult: 1
}
param {
lr_mult: 2
decay_mult: 0
}
convolution_param {
num_output: 128
kernel_size: 1
weight_filler {
type: "xavier"
std: 0.08
}
bias_filler {
type: "constant"
value: 0.2
}
}
}
layer {
name: "loss1/relu_conv"
type: "ReLU"
bottom: "loss1/conv"
top: "loss1/conv"
}
layer {
name: "loss1/fc"
type: "InnerProduct"
bottom: "loss1/conv"
top: "loss1/fc"
param {
lr_mult: 1
decay_mult: 1
}
param {
lr_mult: 2
decay_mult: 0
}
inner_product_param {
num_output: 1024
weight_filler {
type: "xavier"
std: 0.02
}
bias_filler {
type: "constant"
value: 0.2
}
}
}
layer {
name: "loss1/relu_fc"
type: "ReLU"
bottom: "loss1/fc"
top: "loss1/fc"
}
layer {
name: "loss1/drop_fc"
type: "Dropout"
bottom: "loss1/fc"
top: "loss1/fc"
dropout_param {
dropout_ratio: 0.7
}
}
layer {
name: "loss1/classifier"
type: "InnerProduct"
bottom: "loss1/fc"
top: "loss1/classifier"
param {
lr_mult: 1
decay_mult: 1
}
param {
lr_mult: 2
decay_mult: 0
}
inner_product_param {
num_output: 3
weight_filler {
type: "xavier"
std: 0.0009765625
}
bias_filler {
type: "constant"
value: 0
}
}
}
layer {
name: "loss1/loss"
type: "SoftmaxWithLoss"
bottom: "loss1/classifier"
bottom: "label"
top: "loss1/loss"
loss_weight: 0.3
}
layer {
name: "inception_4b/1x1"
type: "Convolution"
bottom: "inception_4a/output"
top: "inception_4b/1x1"
param {
lr_mult: 1
decay_mult: 1
}
param {
lr_mult: 2
decay_mult: 0
}
convolution_param {
num_output: 160
kernel_size: 1
weight_filler {
type: "xavier"
std: 0.03
}
bias_filler {
type: "constant"
value: 0.2
}
}
}
layer {
name: "inception_4b/relu_1x1"
type: "ReLU"
bottom: "inception_4b/1x1"
top: "inception_4b/1x1"
}
layer {
name: "inception_4b/3x3_reduce"
type: "Convolution"
bottom: "inception_4a/output"
top: "inception_4b/3x3_reduce"
param {
lr_mult: 1
decay_mult: 1
}
param {
lr_mult: 2
decay_mult: 0
}
convolution_param {
num_output: 112
kernel_size: 1
weight_filler {
type: "xavier"
std: 0.09
}
bias_filler {
type: "constant"
value: 0.2
}
}
}
layer {
name: "inception_4b/relu_3x3_reduce"
type: "ReLU"
bottom: "inception_4b/3x3_reduce"
top: "inception_4b/3x3_reduce"
}
layer {
name: "inception_4b/3x3"
type: "Convolution"
bottom: "inception_4b/3x3_reduce"
top: "inception_4b/3x3"
param {
lr_mult: 1
decay_mult: 1
}
param {
lr_mult: 2
decay_mult: 0
}
convolution_param {
num_output: 224
pad: 1
kernel_size: 3
weight_filler {
type: "xavier"
std: 0.03
}
bias_filler {
type: "constant"
value: 0.2
}
}
}
layer {
name: "inception_4b/relu_3x3"
type: "ReLU"
bottom: "inception_4b/3x3"
top: "inception_4b/3x3"
}
layer {
name: "inception_4b/5x5_reduce"
type: "Convolution"
bottom: "inception_4a/output"
top: "inception_4b/5x5_reduce"
param {
lr_mult: 1
decay_mult: 1
}
param {
lr_mult: 2
decay_mult: 0
}
convolution_param {
num_output: 24
kernel_size: 1
weight_filler {
type: "xavier"
std: 0.2
}
bias_filler {
type: "constant"
value: 0.2
}
}
}
layer {
name: "inception_4b/relu_5x5_reduce"
type: "ReLU"
bottom: "inception_4b/5x5_reduce"
top: "inception_4b/5x5_reduce"
}
layer {
name: "inception_4b/5x5"
type: "Convolution"
bottom: "inception_4b/5x5_reduce"
top: "inception_4b/5x5"
param {
lr_mult: 1
decay_mult: 1
}
param {
lr_mult: 2
decay_mult: 0
}
convolution_param {
num_output: 64
pad: 2
kernel_size: 5
weight_filler {
type: "xavier"
std: 0.03
}
bias_filler {
type: "constant"
value: 0.2
}
}
}
layer {
name: "inception_4b/relu_5x5"
type: "ReLU"
bottom: "inception_4b/5x5"
top: "inception_4b/5x5"
}
layer {
name: "inception_4b/pool"
type: "Pooling"
bottom: "inception_4a/output"
top: "inception_4b/pool"
pooling_param {
pool: MAX
kernel_size: 3
stride: 1
pad: 1
}
}
layer {
name: "inception_4b/pool_proj"
type: "Convolution"
bottom: "inception_4b/pool"
top: "inception_4b/pool_proj"
param {
lr_mult: 1
decay_mult: 1
}
param {
lr_mult: 2
decay_mult: 0
}
convolution_param {
num_output: 64
kernel_size: 1
weight_filler {
type: "xavier"
std: 0.1
}
bias_filler {
type: "constant"
value: 0.2
}
}
}
layer {
name: "inception_4b/relu_pool_proj"
type: "ReLU"
bottom: "inception_4b/pool_proj"
top: "inception_4b/pool_proj"
}
layer {
name: "inception_4b/output"
type: "Concat"
bottom: "inception_4b/1x1"
bottom: "inception_4b/3x3"
bottom: "inception_4b/5x5"
bottom: "inception_4b/pool_proj"
top: "inception_4b/output"
}
layer {
name: "inception_4c/1x1"
type: "Convolution"
bottom: "inception_4b/output"
top: "inception_4c/1x1"
param {
lr_mult: 1
decay_mult: 1
}
param {
lr_mult: 2
decay_mult: 0
}
convolution_param {
num_output: 128
kernel_size: 1
weight_filler {
type: "xavier"
std: 0.03
}
bias_filler {
type: "constant"
value: 0.2
}
}
}
layer {
name: "inception_4c/relu_1x1"
type: "ReLU"
bottom: "inception_4c/1x1"
top: "inception_4c/1x1"
}
layer {
name: "inception_4c/3x3_reduce"
type: "Convolution"
bottom: "inception_4b/output"
top: "inception_4c/3x3_reduce"
param {
lr_mult: 1
decay_mult: 1
}
param {
lr_mult: 2
decay_mult: 0
}
convolution_param {
num_output: 128
kernel_size: 1
weight_filler {
type: "xavier"
std: 0.09
}
bias_filler {
type: "constant"
value: 0.2
}
}
}
layer {
name: "inception_4c/relu_3x3_reduce"
type: "ReLU"
bottom: "inception_4c/3x3_reduce"
top: "inception_4c/3x3_reduce"
}
layer {
name: "inception_4c/3x3"
type: "Convolution"
bottom: "inception_4c/3x3_reduce"
top: "inception_4c/3x3"
param {
lr_mult: 1
decay_mult: 1
}
param {
lr_mult: 2
decay_mult: 0
}
convolution_param {
num_output: 256
pad: 1
kernel_size: 3
weight_filler {
type: "xavier"
std: 0.03
}
bias_filler {
type: "constant"
value: 0.2
}
}
}
layer {
name: "inception_4c/relu_3x3"
type: "ReLU"
bottom: "inception_4c/3x3"
top: "inception_4c/3x3"
}
layer {
name: "inception_4c/5x5_reduce"
type: "Convolution"
bottom: "inception_4b/output"
top: "inception_4c/5x5_reduce"
param {
lr_mult: 1
decay_mult: 1
}
param {
lr_mult: 2
decay_mult: 0
}
convolution_param {
num_output: 24
kernel_size: 1
weight_filler {
type: "xavier"
std: 0.2
}
bias_filler {
type: "constant"
value: 0.2
}
}
}
layer {
name: "inception_4c/relu_5x5_reduce"
type: "ReLU"
bottom: "inception_4c/5x5_reduce"
top: "inception_4c/5x5_reduce"
}
layer {
name: "inception_4c/5x5"
type: "Convolution"
bottom: "inception_4c/5x5_reduce"
top: "inception_4c/5x5"
param {
lr_mult: 1
decay_mult: 1
}
param {
lr_mult: 2
decay_mult: 0
}
convolution_param {
num_output: 64
pad: 2
kernel_size: 5
weight_filler {
type: "xavier"
std: 0.03
}
bias_filler {
type: "constant"
value: 0.2
}
}
}
layer {
name: "inception_4c/relu_5x5"
type: "ReLU"
bottom: "inception_4c/5x5"
top: "inception_4c/5x5"
}
layer {
name: "inception_4c/pool"
type: "Pooling"
bottom: "inception_4b/output"
top: "inception_4c/pool"
pooling_param {
pool: MAX
kernel_size: 3
stride: 1
pad: 1
}
}
layer {
name: "inception_4c/pool_proj"
type: "Convolution"
bottom: "inception_4c/pool"
top: "inception_4c/pool_proj"
param {
lr_mult: 1
decay_mult: 1
}
param {
lr_mult: 2
decay_mult: 0
}
convolution_param {
num_output: 64
kernel_size: 1
weight_filler {
type: "xavier"
std: 0.1
}
bias_filler {
type: "constant"
value: 0.2
}
}
}
layer {
name: "inception_4c/relu_pool_proj"
type: "ReLU"
bottom: "inception_4c/pool_proj"
top: "inception_4c/pool_proj"
}
layer {
name: "inception_4c/output"
type: "Concat"
bottom: "inception_4c/1x1"
bottom: "inception_4c/3x3"
bottom: "inception_4c/5x5"
bottom: "inception_4c/pool_proj"
top: "inception_4c/output"
}
layer {
name: "inception_4d/1x1"
type: "Convolution"
bottom: "inception_4c/output"
top: "inception_4d/1x1"
param {
lr_mult: 1
decay_mult: 1
}
param {
lr_mult: 2
decay_mult: 0
}
convolution_param {
num_output: 112
kernel_size: 1
weight_filler {
type: "xavier"
std: 0.03
}
bias_filler {
type: "constant"
value: 0.2
}
}
}
layer {
name: "inception_4d/relu_1x1"
type: "ReLU"
bottom: "inception_4d/1x1"
top: "inception_4d/1x1"
}
layer {
name: "inception_4d/3x3_reduce"
type: "Convolution"
bottom: "inception_4c/output"
top: "inception_4d/3x3_reduce"
param {
lr_mult: 1
decay_mult: 1
}
param {
lr_mult: 2
decay_mult: 0
}
convolution_param {
num_output: 144
kernel_size: 1
weight_filler {
type: "xavier"
std: 0.09
}
bias_filler {
type: "constant"
value: 0.2
}
}
}
layer {
name: "inception_4d/relu_3x3_reduce"
type: "ReLU"
bottom: "inception_4d/3x3_reduce"
top: "inception_4d/3x3_reduce"
}
layer {
name: "inception_4d/3x3"
type: "Convolution"
bottom: "inception_4d/3x3_reduce"
top: "inception_4d/3x3"
param {
lr_mult: 1
decay_mult: 1
}
param {
lr_mult: 2
decay_mult: 0
}
convolution_param {
num_output: 288
pad: 1
kernel_size: 3
weight_filler {
type: "xavier"
std: 0.03
}
bias_filler {
type: "constant"
value: 0.2
}
}
}
layer {
name: "inception_4d/relu_3x3"
type: "ReLU"
bottom: "inception_4d/3x3"
top: "inception_4d/3x3"
}
layer {
name: "inception_4d/5x5_reduce"
type: "Convolution"
bottom: "inception_4c/output"
top: "inception_4d/5x5_reduce"
param {
lr_mult: 1
decay_mult: 1
}
param {
lr_mult: 2
decay_mult: 0
}
convolution_param {
num_output: 32
kernel_size: 1
weight_filler {
type: "xavier"
std: 0.2
}
bias_filler {
type: "constant"
value: 0.2
}
}
}
layer {
name: "inception_4d/relu_5x5_reduce"
type: "ReLU"
bottom: "inception_4d/5x5_reduce"
top: "inception_4d/5x5_reduce"
}
layer {
name: "inception_4d/5x5"
type: "Convolution"
bottom: "inception_4d/5x5_reduce"
top: "inception_4d/5x5"
param {
lr_mult: 1
decay_mult: 1
}
param {
lr_mult: 2
decay_mult: 0
}
convolution_param {
num_output: 64
pad: 2
kernel_size: 5
weight_filler {
type: "xavier"
std: 0.03
}
bias_filler {
type: "constant"
value: 0.2
}
}
}
layer {
name: "inception_4d/relu_5x5"
type: "ReLU"
bottom: "inception_4d/5x5"
top: "inception_4d/5x5"
}
layer {
name: "inception_4d/pool"
type: "Pooling"
bottom: "inception_4c/output"
top: "inception_4d/pool"
pooling_param {
pool: MAX
kernel_size: 3
stride: 1
pad: 1
}
}
layer {
name: "inception_4d/pool_proj"
type: "Convolution"
bottom: "inception_4d/pool"
top: "inception_4d/pool_proj"
param {
lr_mult: 1
decay_mult: 1
}
param {
lr_mult: 2
decay_mult: 0
}
convolution_param {
num_output: 64
kernel_size: 1
weight_filler {
type: "xavier"
std: 0.1
}
bias_filler {
type: "constant"
value: 0.2
}
}
}
layer {
name: "inception_4d/relu_pool_proj"
type: "ReLU"
bottom: "inception_4d/pool_proj"
top: "inception_4d/pool_proj"
}
layer {
name: "inception_4d/output"
type: "Concat"
bottom: "inception_4d/1x1"
bottom: "inception_4d/3x3"
bottom: "inception_4d/5x5"
bottom: "inception_4d/pool_proj"
top: "inception_4d/output"
}
layer {
name: "loss2/ave_pool"
type: "Pooling"
bottom: "inception_4d/output"
top: "loss2/ave_pool"
pooling_param {
pool: AVE
kernel_size: 5
stride: 3
}
}
layer {
name: "loss2/conv"
type: "Convolution"
bottom: "loss2/ave_pool"
top: "loss2/conv"
param {
lr_mult: 1
decay_mult: 1
}
param {
lr_mult: 2
decay_mult: 0
}
convolution_param {
num_output: 128
kernel_size: 1
weight_filler {
type: "xavier"
std: 0.08
}
bias_filler {
type: "constant"
value: 0.2
}
}
}
layer {
name: "loss2/relu_conv"
type: "ReLU"
bottom: "loss2/conv"
top: "loss2/conv"
}
layer {
name: "loss2/fc"
type: "InnerProduct"
bottom: "loss2/conv"
top: "loss2/fc"
param {
lr_mult: 1
decay_mult: 1
}
param {
lr_mult: 2
decay_mult: 0
}
inner_product_param {
num_output: 1024
weight_filler {
type: "xavier"
std: 0.02
}
bias_filler {
type: "constant"
value: 0.2
}
}
}
layer {
name: "loss2/relu_fc"
type: "ReLU"
bottom: "loss2/fc"
top: "loss2/fc"
}
layer {
name: "loss2/drop_fc"
type: "Dropout"
bottom: "loss2/fc"
top: "loss2/fc"
dropout_param {
dropout_ratio: 0.7
}
}
layer {
name: "loss2/classifier"
type: "InnerProduct"
bottom: "loss2/fc"
top: "loss2/classifier"
param {
lr_mult: 1
decay_mult: 1
}
param {
lr_mult: 2
decay_mult: 0
}
inner_product_param {
num_output: 3
weight_filler {
type: "xavier"
std: 0.0009765625
}
bias_filler {
type: "constant"
value: 0
}
}
}
layer {
name: "loss2/loss"
type: "SoftmaxWithLoss"
bottom: "loss2/classifier"
bottom: "label"
top: "loss2/loss"
loss_weight: 0.3
}
layer {
name: "inception_4e/1x1"
type: "Convolution"
bottom: "inception_4d/output"
top: "inception_4e/1x1"
param {
lr_mult: 1
decay_mult: 1
}
param {
lr_mult: 2
decay_mult: 0
}
convolution_param {
num_output: 256
kernel_size: 1
weight_filler {
type: "xavier"
std: 0.03
}
bias_filler {
type: "constant"
value: 0.2
}
}
}
layer {
name: "inception_4e/relu_1x1"
type: "ReLU"
bottom: "inception_4e/1x1"
top: "inception_4e/1x1"
}
layer {
name: "inception_4e/3x3_reduce"
type: "Convolution"
bottom: "inception_4d/output"
top: "inception_4e/3x3_reduce"
param {
lr_mult: 1
decay_mult: 1
}
param {
lr_mult: 2
decay_mult: 0
}
convolution_param {
num_output: 160
kernel_size: 1
weight_filler {
type: "xavier"
std: 0.09
}
bias_filler {
type: "constant"
value: 0.2
}
}
}
layer {
name: "inception_4e/relu_3x3_reduce"
type: "ReLU"
bottom: "inception_4e/3x3_reduce"
top: "inception_4e/3x3_reduce"
}
layer {
name: "inception_4e/3x3"
type: "Convolution"
bottom: "inception_4e/3x3_reduce"
top: "inception_4e/3x3"
param {
lr_mult: 1
decay_mult: 1
}
param {
lr_mult: 2
decay_mult: 0
}
convolution_param {
num_output: 320
pad: 1
kernel_size: 3
weight_filler {
type: "xavier"
std: 0.03
}
bias_filler {
type: "constant"
value: 0.2
}
}
}
layer {
name: "inception_4e/relu_3x3"
type: "ReLU"
bottom: "inception_4e/3x3"
top: "inception_4e/3x3"
}
layer {
name: "inception_4e/5x5_reduce"
type: "Convolution"
bottom: "inception_4d/output"
top: "inception_4e/5x5_reduce"
param {
lr_mult: 1
decay_mult: 1
}
param {
lr_mult: 2
decay_mult: 0
}
convolution_param {
num_output: 32
kernel_size: 1
weight_filler {
type: "xavier"
std: 0.2
}
bias_filler {
type: "constant"
value: 0.2
}
}
}
layer {
name: "inceptio
I0220 20:02:54.872584   138 layer_factory.hpp:77] Creating layer train-data
I0220 20:02:54.876615   138 net.cpp:94] Creating Layer train-data
I0220 20:02:54.876637   138 net.cpp:409] train-data -> data
I0220 20:02:54.877406   141 db_lmdb.cpp:35] Opened lmdb /opt/DIGITS/digits/jobs/20190220-195817-1486/train_db
I0220 20:02:54.877586   138 net.cpp:409] train-data -> label
I0220 20:02:54.877624   138 data_transformer.cpp:25] Loading mean file from: /opt/DIGITS/digits/jobs/20190220-195817-1486/mean.binaryproto
I0220 20:02:54.889786   138 data_layer.cpp:78] ReshapePrefetch 32, 3, 224, 224
I0220 20:02:54.889854   138 data_layer.cpp:83] output data size: 32,3,224,224
I0220 20:02:54.929453   138 net.cpp:144] Setting up train-data
I0220 20:02:54.929503   138 net.cpp:151] Top shape: 32 3 224 224 (4816896)
I0220 20:02:54.929512   138 net.cpp:151] Top shape: 32 (32)
I0220 20:02:54.929518   138 net.cpp:159] Memory required for data: 19267712
I0220 20:02:54.929536   138 layer_factory.hpp:77] Creating layer label_train-data_1_split
I0220 20:02:54.929560   138 net.cpp:94] Creating Layer label_train-data_1_split
I0220 20:02:54.929571   138 net.cpp:435] label_train-data_1_split <- label
I0220 20:02:54.929605   138 net.cpp:409] label_train-data_1_split -> label_train-data_1_split_0
I0220 20:02:54.929622   138 net.cpp:409] label_train-data_1_split -> label_train-data_1_split_1
I0220 20:02:54.929633   138 net.cpp:409] label_train-data_1_split -> label_train-data_1_split_2
I0220 20:02:54.929869   138 net.cpp:144] Setting up label_train-data_1_split
I0220 20:02:54.929889   138 net.cpp:151] Top shape: 32 (32)
I0220 20:02:54.929898   138 net.cpp:151] Top shape: 32 (32)
I0220 20:02:54.929904   138 net.cpp:151] Top shape: 32 (32)
I0220 20:02:54.929909   138 net.cpp:159] Memory required for data: 19268096
I0220 20:02:54.929916   138 layer_factory.hpp:77] Creating layer conv1/7x7_s2
I0220 20:02:54.929955   138 net.cpp:94] Creating Layer conv1/7x7_s2
I0220 20:02:54.929963   138 net.cpp:435] conv1/7x7_s2 <- data
I0220 20:02:54.929975   138 net.cpp:409] conv1/7x7_s2 -> conv1/7x7_s2
I0220 20:02:54.935001   138 net.cpp:144] Setting up conv1/7x7_s2
I0220 20:02:54.935024   138 net.cpp:151] Top shape: 32 64 112 112 (25690112)
I0220 20:02:54.935032   138 net.cpp:159] Memory required for data: 122028544
I0220 20:02:54.935055   138 layer_factory.hpp:77] Creating layer conv1/relu_7x7
I0220 20:02:54.935070   138 net.cpp:94] Creating Layer conv1/relu_7x7
I0220 20:02:54.935076   138 net.cpp:435] conv1/relu_7x7 <- conv1/7x7_s2
I0220 20:02:54.935086   138 net.cpp:396] conv1/relu_7x7 -> conv1/7x7_s2 (in-place)
I0220 20:02:54.935160   138 net.cpp:144] Setting up conv1/relu_7x7
I0220 20:02:54.935170   138 net.cpp:151] Top shape: 32 64 112 112 (25690112)
I0220 20:02:54.935175   138 net.cpp:159] Memory required for data: 224788992
I0220 20:02:54.935183   138 layer_factory.hpp:77] Creating layer pool1/3x3_s2
I0220 20:02:54.935196   138 net.cpp:94] Creating Layer pool1/3x3_s2
I0220 20:02:54.935204   138 net.cpp:435] pool1/3x3_s2 <- conv1/7x7_s2
I0220 20:02:54.935214   138 net.cpp:409] pool1/3x3_s2 -> pool1/3x3_s2
I0220 20:02:54.935271   138 net.cpp:144] Setting up pool1/3x3_s2
I0220 20:02:54.935284   138 net.cpp:151] Top shape: 32 64 56 56 (6422528)
I0220 20:02:54.935290   138 net.cpp:159] Memory required for data: 250479104
I0220 20:02:54.935297   138 layer_factory.hpp:77] Creating layer pool1/norm1
I0220 20:02:54.935312   138 net.cpp:94] Creating Layer pool1/norm1
I0220 20:02:54.935318   138 net.cpp:435] pool1/norm1 <- pool1/3x3_s2
I0220 20:02:54.935328   138 net.cpp:409] pool1/norm1 -> pool1/norm1
I0220 20:02:54.935418   138 net.cpp:144] Setting up pool1/norm1
I0220 20:02:54.935431   138 net.cpp:151] Top shape: 32 64 56 56 (6422528)
I0220 20:02:54.935437   138 net.cpp:159] Memory required for data: 276169216
I0220 20:02:54.935444   138 layer_factory.hpp:77] Creating layer conv2/3x3_reduce
I0220 20:02:54.935459   138 net.cpp:94] Creating Layer conv2/3x3_reduce
I0220 20:02:54.935467   138 net.cpp:435] conv2/3x3_reduce <- pool1/norm1
I0220 20:02:54.935478   138 net.cpp:409] conv2/3x3_reduce -> conv2/3x3_reduce
I0220 20:02:54.936856   138 net.cpp:144] Setting up conv2/3x3_reduce
I0220 20:02:54.936882   138 net.cpp:151] Top shape: 32 64 56 56 (6422528)
I0220 20:02:54.936892   138 net.cpp:159] Memory required for data: 301859328
I0220 20:02:54.936908   138 layer_factory.hpp:77] Creating layer conv2/relu_3x3_reduce
I0220 20:02:54.936923   138 net.cpp:94] Creating Layer conv2/relu_3x3_reduce
I0220 20:02:54.936934   138 net.cpp:435] conv2/relu_3x3_reduce <- conv2/3x3_reduce
I0220 20:02:54.936947   138 net.cpp:396] conv2/relu_3x3_reduce -> conv2/3x3_reduce (in-place)
I0220 20:02:54.936964   138 net.cpp:144] Setting up conv2/relu_3x3_reduce
I0220 20:02:54.936977   138 net.cpp:151] Top shape: 32 64 56 56 (6422528)
I0220 20:02:54.936985   138 net.cpp:159] Memory required for data: 327549440
I0220 20:02:54.936993   138 layer_factory.hpp:77] Creating layer conv2/3x3
I0220 20:02:54.937013   138 net.cpp:94] Creating Layer conv2/3x3
I0220 20:02:54.937022   138 net.cpp:435] conv2/3x3 <- conv2/3x3_reduce
I0220 20:02:54.937036   138 net.cpp:409] conv2/3x3 -> conv2/3x3
I0220 20:02:54.939407   138 net.cpp:144] Setting up conv2/3x3
I0220 20:02:54.939429   138 net.cpp:151] Top shape: 32 192 56 56 (19267584)
I0220 20:02:54.939438   138 net.cpp:159] Memory required for data: 404619776
I0220 20:02:54.939455   138 layer_factory.hpp:77] Creating layer conv2/relu_3x3
I0220 20:02:54.939498   138 net.cpp:94] Creating Layer conv2/relu_3x3
I0220 20:02:54.939508   138 net.cpp:435] conv2/relu_3x3 <- conv2/3x3
I0220 20:02:54.939522   138 net.cpp:396] conv2/relu_3x3 -> conv2/3x3 (in-place)
I0220 20:02:54.939537   138 net.cpp:144] Setting up conv2/relu_3x3
I0220 20:02:54.939548   138 net.cpp:151] Top shape: 32 192 56 56 (19267584)
I0220 20:02:54.939556   138 net.cpp:159] Memory required for data: 481690112
I0220 20:02:54.939564   138 layer_factory.hpp:77] Creating layer conv2/norm2
I0220 20:02:54.939576   138 net.cpp:94] Creating Layer conv2/norm2
I0220 20:02:54.939587   138 net.cpp:435] conv2/norm2 <- conv2/3x3
I0220 20:02:54.939601   138 net.cpp:409] conv2/norm2 -> conv2/norm2
I0220 20:02:54.939666   138 net.cpp:144] Setting up conv2/norm2
I0220 20:02:54.939680   138 net.cpp:151] Top shape: 32 192 56 56 (19267584)
I0220 20:02:54.939688   138 net.cpp:159] Memory required for data: 558760448
I0220 20:02:54.939697   138 layer_factory.hpp:77] Creating layer pool2/3x3_s2
I0220 20:02:54.939709   138 net.cpp:94] Creating Layer pool2/3x3_s2
I0220 20:02:54.939718   138 net.cpp:435] pool2/3x3_s2 <- conv2/norm2
I0220 20:02:54.939730   138 net.cpp:409] pool2/3x3_s2 -> pool2/3x3_s2
I0220 20:02:54.939801   138 net.cpp:144] Setting up pool2/3x3_s2
I0220 20:02:54.939815   138 net.cpp:151] Top shape: 32 192 28 28 (4816896)
I0220 20:02:54.939823   138 net.cpp:159] Memory required for data: 578028032
I0220 20:02:54.939831   138 layer_factory.hpp:77] Creating layer pool2/3x3_s2_pool2/3x3_s2_0_split
I0220 20:02:54.939846   138 net.cpp:94] Creating Layer pool2/3x3_s2_pool2/3x3_s2_0_split
I0220 20:02:54.939855   138 net.cpp:435] pool2/3x3_s2_pool2/3x3_s2_0_split <- pool2/3x3_s2
I0220 20:02:54.939869   138 net.cpp:409] pool2/3x3_s2_pool2/3x3_s2_0_split -> pool2/3x3_s2_pool2/3x3_s2_0_split_0
I0220 20:02:54.939883   138 net.cpp:409] pool2/3x3_s2_pool2/3x3_s2_0_split -> pool2/3x3_s2_pool2/3x3_s2_0_split_1
I0220 20:02:54.939898   138 net.cpp:409] pool2/3x3_s2_pool2/3x3_s2_0_split -> pool2/3x3_s2_pool2/3x3_s2_0_split_2
I0220 20:02:54.939911   138 net.cpp:409] pool2/3x3_s2_pool2/3x3_s2_0_split -> pool2/3x3_s2_pool2/3x3_s2_0_split_3
I0220 20:02:54.939992   138 net.cpp:144] Setting up pool2/3x3_s2_pool2/3x3_s2_0_split
I0220 20:02:54.940006   138 net.cpp:151] Top shape: 32 192 28 28 (4816896)
I0220 20:02:54.940016   138 net.cpp:151] Top shape: 32 192 28 28 (4816896)
I0220 20:02:54.940024   138 net.cpp:151] Top shape: 32 192 28 28 (4816896)
I0220 20:02:54.940033   138 net.cpp:151] Top shape: 32 192 28 28 (4816896)
I0220 20:02:54.940042   138 net.cpp:159] Memory required for data: 655098368
I0220 20:02:54.940049   138 layer_factory.hpp:77] Creating layer inception_3a/1x1
I0220 20:02:54.940065   138 net.cpp:94] Creating Layer inception_3a/1x1
I0220 20:02:54.940074   138 net.cpp:435] inception_3a/1x1 <- pool2/3x3_s2_pool2/3x3_s2_0_split_0
I0220 20:02:54.940088   138 net.cpp:409] inception_3a/1x1 -> inception_3a/1x1
I0220 20:02:54.941443   138 net.cpp:144] Setting up inception_3a/1x1
I0220 20:02:54.941465   138 net.cpp:151] Top shape: 32 64 28 28 (1605632)
I0220 20:02:54.941473   138 net.cpp:159] Memory required for data: 661520896
I0220 20:02:54.941486   138 layer_factory.hpp:77] Creating layer inception_3a/relu_1x1
I0220 20:02:54.941500   138 net.cpp:94] Creating Layer inception_3a/relu_1x1
I0220 20:02:54.941510   138 net.cpp:435] inception_3a/relu_1x1 <- inception_3a/1x1
I0220 20:02:54.941524   138 net.cpp:396] inception_3a/relu_1x1 -> inception_3a/1x1 (in-place)
I0220 20:02:54.941538   138 net.cpp:144] Setting up inception_3a/relu_1x1
I0220 20:02:54.941550   138 net.cpp:151] Top shape: 32 64 28 28 (1605632)
I0220 20:02:54.941556   138 net.cpp:159] Memory required for data: 667943424
I0220 20:02:54.941565   138 layer_factory.hpp:77] Creating layer inception_3a/3x3_reduce
I0220 20:02:54.941583   138 net.cpp:94] Creating Layer inception_3a/3x3_reduce
I0220 20:02:54.941592   138 net.cpp:435] inception_3a/3x3_reduce <- pool2/3x3_s2_pool2/3x3_s2_0_split_1
I0220 20:02:54.941607   138 net.cpp:409] inception_3a/3x3_reduce -> inception_3a/3x3_reduce
I0220 20:02:54.943056   138 net.cpp:144] Setting up inception_3a/3x3_reduce
I0220 20:02:54.943078   138 net.cpp:151] Top shape: 32 96 28 28 (2408448)
I0220 20:02:54.943087   138 net.cpp:159] Memory required for data: 677577216
I0220 20:02:54.943104   138 layer_factory.hpp:77] Creating layer inception_3a/relu_3x3_reduce
I0220 20:02:54.943122   138 net.cpp:94] Creating Layer inception_3a/relu_3x3_reduce
I0220 20:02:54.943131   138 net.cpp:435] inception_3a/relu_3x3_reduce <- inception_3a/3x3_reduce
I0220 20:02:54.943143   138 net.cpp:396] inception_3a/relu_3x3_reduce -> inception_3a/3x3_reduce (in-place)
I0220 20:02:54.943158   138 net.cpp:144] Setting up inception_3a/relu_3x3_reduce
I0220 20:02:54.943168   138 net.cpp:151] Top shape: 32 96 28 28 (2408448)
I0220 20:02:54.943176   138 net.cpp:159] Memory required for data: 687211008
I0220 20:02:54.943184   138 layer_factory.hpp:77] Creating layer inception_3a/3x3
I0220 20:02:54.943202   138 net.cpp:94] Creating Layer inception_3a/3x3
I0220 20:02:54.943210   138 net.cpp:435] inception_3a/3x3 <- inception_3a/3x3_reduce
I0220 20:02:54.943224   138 net.cpp:409] inception_3a/3x3 -> inception_3a/3x3
I0220 20:02:54.944700   138 net.cpp:144] Setting up inception_3a/3x3
I0220 20:02:54.944717   138 net.cpp:151] Top shape: 32 128 28 28 (3211264)
I0220 20:02:54.944726   138 net.cpp:159] Memory required for data: 700056064
I0220 20:02:54.944738   138 layer_factory.hpp:77] Creating layer inception_3a/relu_3x3
I0220 20:02:54.944795   138 net.cpp:94] Creating Layer inception_3a/relu_3x3
I0220 20:02:54.944809   138 net.cpp:435] inception_3a/relu_3x3 <- inception_3a/3x3
I0220 20:02:54.944823   138 net.cpp:396] inception_3a/relu_3x3 -> inception_3a/3x3 (in-place)
I0220 20:02:54.944838   138 net.cpp:144] Setting up inception_3a/relu_3x3
I0220 20:02:54.944849   138 net.cpp:151] Top shape: 32 128 28 28 (3211264)
I0220 20:02:54.944857   138 net.cpp:159] Memory required for data: 712901120
I0220 20:02:54.944865   138 layer_factory.hpp:77] Creating layer inception_3a/5x5_reduce
I0220 20:02:54.944882   138 net.cpp:94] Creating Layer inception_3a/5x5_reduce
I0220 20:02:54.944895   138 net.cpp:435] inception_3a/5x5_reduce <- pool2/3x3_s2_pool2/3x3_s2_0_split_2
I0220 20:02:54.944911   138 net.cpp:409] inception_3a/5x5_reduce -> inception_3a/5x5_reduce
I0220 20:02:54.945273   138 net.cpp:144] Setting up inception_3a/5x5_reduce
I0220 20:02:54.945291   138 net.cpp:151] Top shape: 32 16 28 28 (401408)
I0220 20:02:54.945298   138 net.cpp:159] Memory required for data: 714506752
I0220 20:02:54.945312   138 layer_factory.hpp:77] Creating layer inception_3a/relu_5x5_reduce
I0220 20:02:54.945324   138 net.cpp:94] Creating Layer inception_3a/relu_5x5_reduce
I0220 20:02:54.945333   138 net.cpp:435] inception_3a/relu_5x5_reduce <- inception_3a/5x5_reduce
I0220 20:02:54.945359   138 net.cpp:396] inception_3a/relu_5x5_reduce -> inception_3a/5x5_reduce (in-place)
I0220 20:02:54.945374   138 net.cpp:144] Setting up inception_3a/relu_5x5_reduce
I0220 20:02:54.945385   138 net.cpp:151] Top shape: 32 16 28 28 (401408)
I0220 20:02:54.945394   138 net.cpp:159] Memory required for data: 716112384
I0220 20:02:54.945401   138 layer_factory.hpp:77] Creating layer inception_3a/5x5
I0220 20:02:54.945420   138 net.cpp:94] Creating Layer inception_3a/5x5
I0220 20:02:54.945430   138 net.cpp:435] inception_3a/5x5 <- inception_3a/5x5_reduce
I0220 20:02:54.945444   138 net.cpp:409] inception_3a/5x5 -> inception_3a/5x5
I0220 20:02:54.945924   138 net.cpp:144] Setting up inception_3a/5x5
I0220 20:02:54.945940   138 net.cpp:151] Top shape: 32 32 28 28 (802816)
I0220 20:02:54.945947   138 net.cpp:159] Memory required for data: 719323648
I0220 20:02:54.945960   138 layer_factory.hpp:77] Creating layer inception_3a/relu_5x5
I0220 20:02:54.945973   138 net.cpp:94] Creating Layer inception_3a/relu_5x5
I0220 20:02:54.945982   138 net.cpp:435] inception_3a/relu_5x5 <- inception_3a/5x5
I0220 20:02:54.945994   138 net.cpp:396] inception_3a/relu_5x5 -> inception_3a/5x5 (in-place)
I0220 20:02:54.946008   138 net.cpp:144] Setting up inception_3a/relu_5x5
I0220 20:02:54.946038   138 net.cpp:151] Top shape: 32 32 28 28 (802816)
I0220 20:02:54.946045   138 net.cpp:159] Memory required for data: 722534912
I0220 20:02:54.946054   138 layer_factory.hpp:77] Creating layer inception_3a/pool
I0220 20:02:54.946068   138 net.cpp:94] Creating Layer inception_3a/pool
I0220 20:02:54.946076   138 net.cpp:435] inception_3a/pool <- pool2/3x3_s2_pool2/3x3_s2_0_split_3
I0220 20:02:54.946089   138 net.cpp:409] inception_3a/pool -> inception_3a/pool
I0220 20:02:54.946151   138 net.cpp:144] Setting up inception_3a/pool
I0220 20:02:54.946164   138 net.cpp:151] Top shape: 32 192 28 28 (4816896)
I0220 20:02:54.946172   138 net.cpp:159] Memory required for data: 741802496
I0220 20:02:54.946180   138 layer_factory.hpp:77] Creating layer inception_3a/pool_proj
I0220 20:02:54.946197   138 net.cpp:94] Creating Layer inception_3a/pool_proj
I0220 20:02:54.946205   138 net.cpp:435] inception_3a/pool_proj <- inception_3a/pool
I0220 20:02:54.946220   138 net.cpp:409] inception_3a/pool_proj -> inception_3a/pool_proj
I0220 20:02:54.946611   138 net.cpp:144] Setting up inception_3a/pool_proj
I0220 20:02:54.946629   138 net.cpp:151] Top shape: 32 32 28 28 (802816)
I0220 20:02:54.946636   138 net.cpp:159] Memory required for data: 745013760
I0220 20:02:54.946653   138 layer_factory.hpp:77] Creating layer inception_3a/relu_pool_proj
I0220 20:02:54.946667   138 net.cpp:94] Creating Layer inception_3a/relu_pool_proj
I0220 20:02:54.946676   138 net.cpp:435] inception_3a/relu_pool_proj <- inception_3a/pool_proj
I0220 20:02:54.946688   138 net.cpp:396] inception_3a/relu_pool_proj -> inception_3a/pool_proj (in-place)
I0220 20:02:54.946702   138 net.cpp:144] Setting up inception_3a/relu_pool_proj
I0220 20:02:54.946712   138 net.cpp:151] Top shape: 32 32 28 28 (802816)
I0220 20:02:54.946720   138 net.cpp:159] Memory required for data: 748225024
I0220 20:02:54.946728   138 layer_factory.hpp:77] Creating layer inception_3a/output
I0220 20:02:54.946741   138 net.cpp:94] Creating Layer inception_3a/output
I0220 20:02:54.946750   138 net.cpp:435] inception_3a/output <- inception_3a/1x1
I0220 20:02:54.946760   138 net.cpp:435] inception_3a/output <- inception_3a/3x3
I0220 20:02:54.946770   138 net.cpp:435] inception_3a/output <- inception_3a/5x5
I0220 20:02:54.946794   138 net.cpp:435] inception_3a/output <- inception_3a/pool_proj
I0220 20:02:54.946807   138 net.cpp:409] inception_3a/output -> inception_3a/output
I0220 20:02:54.946853   138 net.cpp:144] Setting up inception_3a/output
I0220 20:02:54.946866   138 net.cpp:151] Top shape: 32 256 28 28 (6422528)
I0220 20:02:54.946874   138 net.cpp:159] Memory required for data: 773915136
I0220 20:02:54.946882   138 layer_factory.hpp:77] Creating layer inception_3a/output_inception_3a/output_0_split
I0220 20:02:54.946897   138 net.cpp:94] Creating Layer inception_3a/output_inception_3a/output_0_split
I0220 20:02:54.946904   138 net.cpp:435] inception_3a/output_inception_3a/output_0_split <- inception_3a/output
I0220 20:02:54.946918   138 net.cpp:409] inception_3a/output_inception_3a/output_0_split -> inception_3a/output_inception_3a/output_0_split_0
I0220 20:02:54.946934   138 net.cpp:409] inception_3a/output_inception_3a/output_0_split -> inception_3a/output_inception_3a/output_0_split_1
I0220 20:02:54.946950   138 net.cpp:409] inception_3a/output_inception_3a/output_0_split -> inception_3a/output_inception_3a/output_0_split_2
I0220 20:02:54.946965   138 net.cpp:409] inception_3a/output_inception_3a/output_0_split -> inception_3a/output_inception_3a/output_0_split_3
I0220 20:02:54.947047   138 net.cpp:144] Setting up inception_3a/output_inception_3a/output_0_split
I0220 20:02:54.947062   138 net.cpp:151] Top shape: 32 256 28 28 (6422528)
I0220 20:02:54.947070   138 net.cpp:151] Top shape: 32 256 28 28 (6422528)
I0220 20:02:54.947080   138 net.cpp:151] Top shape: 32 256 28 28 (6422528)
I0220 20:02:54.947089   138 net.cpp:151] Top shape: 32 256 28 28 (6422528)
I0220 20:02:54.947096   138 net.cpp:159] Memory required for data: 876675584
I0220 20:02:54.947104   138 layer_factory.hpp:77] Creating layer inception_3b/1x1
I0220 20:02:54.947140   138 net.cpp:94] Creating Layer inception_3b/1x1
I0220 20:02:54.947149   138 net.cpp:435] inception_3b/1x1 <- inception_3a/output_inception_3a/output_0_split_0
I0220 20:02:54.947163   138 net.cpp:409] inception_3b/1x1 -> inception_3b/1x1
I0220 20:02:54.947824   138 net.cpp:144] Setting up inception_3b/1x1
I0220 20:02:54.947841   138 net.cpp:151] Top shape: 32 128 28 28 (3211264)
I0220 20:02:54.947850   138 net.cpp:159] Memory required for data: 889520640
I0220 20:02:54.947862   138 layer_factory.hpp:77] Creating layer inception_3b/relu_1x1
I0220 20:02:54.947876   138 net.cpp:94] Creating Layer inception_3b/relu_1x1
I0220 20:02:54.947886   138 net.cpp:435] inception_3b/relu_1x1 <- inception_3b/1x1
I0220 20:02:54.947899   138 net.cpp:396] inception_3b/relu_1x1 -> inception_3b/1x1 (in-place)
I0220 20:02:54.947914   138 net.cpp:144] Setting up inception_3b/relu_1x1
I0220 20:02:54.947926   138 net.cpp:151] Top shape: 32 128 28 28 (3211264)
I0220 20:02:54.947932   138 net.cpp:159] Memory required for data: 902365696
I0220 20:02:54.947942   138 layer_factory.hpp:77] Creating layer inception_3b/3x3_reduce
I0220 20:02:54.947957   138 net.cpp:94] Creating Layer inception_3b/3x3_reduce
I0220 20:02:54.947965   138 net.cpp:435] inception_3b/3x3_reduce <- inception_3a/output_inception_3a/output_0_split_1
I0220 20:02:54.947979   138 net.cpp:409] inception_3b/3x3_reduce -> inception_3b/3x3_reduce
I0220 20:02:54.948694   138 net.cpp:144] Setting up inception_3b/3x3_reduce
I0220 20:02:54.948712   138 net.cpp:151] Top shape: 32 128 28 28 (3211264)
I0220 20:02:54.948720   138 net.cpp:159] Memory required for data: 915210752
I0220 20:02:54.948734   138 layer_factory.hpp:77] Creating layer inception_3b/relu_3x3_reduce
I0220 20:02:54.948746   138 net.cpp:94] Creating Layer inception_3b/relu_3x3_reduce
I0220 20:02:54.948791   138 net.cpp:435] inception_3b/relu_3x3_reduce <- inception_3b/3x3_reduce
I0220 20:02:54.948808   138 net.cpp:396] inception_3b/relu_3x3_reduce -> inception_3b/3x3_reduce (in-place)
I0220 20:02:54.948823   138 net.cpp:144] Setting up inception_3b/relu_3x3_reduce
I0220 20:02:54.948834   138 net.cpp:151] Top shape: 32 128 28 28 (3211264)
I0220 20:02:54.948843   138 net.cpp:159] Memory required for data: 928055808
I0220 20:02:54.948853   138 layer_factory.hpp:77] Creating layer inception_3b/3x3
I0220 20:02:54.948876   138 net.cpp:94] Creating Layer inception_3b/3x3
I0220 20:02:54.948886   138 net.cpp:435] inception_3b/3x3 <- inception_3b/3x3_reduce
I0220 20:02:54.948899   138 net.cpp:409] inception_3b/3x3 -> inception_3b/3x3
I0220 20:02:54.951973   138 net.cpp:144] Setting up inception_3b/3x3
I0220 20:02:54.951994   138 net.cpp:151] Top shape: 32 192 28 28 (4816896)
I0220 20:02:54.952003   138 net.cpp:159] Memory required for data: 947323392
I0220 20:02:54.952016   138 layer_factory.hpp:77] Creating layer inception_3b/relu_3x3
I0220 20:02:54.952030   138 net.cpp:94] Creating Layer inception_3b/relu_3x3
I0220 20:02:54.952039   138 net.cpp:435] inception_3b/relu_3x3 <- inception_3b/3x3
I0220 20:02:54.952052   138 net.cpp:396] inception_3b/relu_3x3 -> inception_3b/3x3 (in-place)
I0220 20:02:54.952069   138 net.cpp:144] Setting up inception_3b/relu_3x3
I0220 20:02:54.952080   138 net.cpp:151] Top shape: 32 192 28 28 (4816896)
I0220 20:02:54.952088   138 net.cpp:159] Memory required for data: 966590976
I0220 20:02:54.952096   138 layer_factory.hpp:77] Creating layer inception_3b/5x5_reduce
I0220 20:02:54.952113   138 net.cpp:94] Creating Layer inception_3b/5x5_reduce
I0220 20:02:54.952122   138 net.cpp:435] inception_3b/5x5_reduce <- inception_3a/output_inception_3a/output_0_split_2
I0220 20:02:54.952136   138 net.cpp:409] inception_3b/5x5_reduce -> inception_3b/5x5_reduce
I0220 20:02:54.952548   138 net.cpp:144] Setting up inception_3b/5x5_reduce
I0220 20:02:54.952564   138 net.cpp:151] Top shape: 32 32 28 28 (802816)
I0220 20:02:54.952572   138 net.cpp:159] Memory required for data: 969802240
I0220 20:02:54.952584   138 layer_factory.hpp:77] Creating layer inception_3b/relu_5x5_reduce
I0220 20:02:54.952615   138 net.cpp:94] Creating Layer inception_3b/relu_5x5_reduce
I0220 20:02:54.952625   138 net.cpp:435] inception_3b/relu_5x5_reduce <- inception_3b/5x5_reduce
I0220 20:02:54.952636   138 net.cpp:396] inception_3b/relu_5x5_reduce -> inception_3b/5x5_reduce (in-place)
I0220 20:02:54.952651   138 net.cpp:144] Setting up inception_3b/relu_5x5_reduce
I0220 20:02:54.952661   138 net.cpp:151] Top shape: 32 32 28 28 (802816)
I0220 20:02:54.952669   138 net.cpp:159] Memory required for data: 973013504
I0220 20:02:54.952677   138 layer_factory.hpp:77] Creating layer inception_3b/5x5
I0220 20:02:54.952695   138 net.cpp:94] Creating Layer inception_3b/5x5
I0220 20:02:54.952704   138 net.cpp:435] inception_3b/5x5 <- inception_3b/5x5_reduce
I0220 20:02:54.952719   138 net.cpp:409] inception_3b/5x5 -> inception_3b/5x5
I0220 20:02:54.954787   138 net.cpp:144] Setting up inception_3b/5x5
I0220 20:02:54.954810   138 net.cpp:151] Top shape: 32 96 28 28 (2408448)
I0220 20:02:54.954818   138 net.cpp:159] Memory required for data: 982647296
I0220 20:02:54.954831   138 layer_factory.hpp:77] Creating layer inception_3b/relu_5x5
I0220 20:02:54.954846   138 net.cpp:94] Creating Layer inception_3b/relu_5x5
I0220 20:02:54.954856   138 net.cpp:435] inception_3b/relu_5x5 <- inception_3b/5x5
I0220 20:02:54.954869   138 net.cpp:396] inception_3b/relu_5x5 -> inception_3b/5x5 (in-place)
I0220 20:02:54.954885   138 net.cpp:144] Setting up inception_3b/relu_5x5
I0220 20:02:54.954895   138 net.cpp:151] Top shape: 32 96 28 28 (2408448)
I0220 20:02:54.954903   138 net.cpp:159] Memory required for data: 992281088
I0220 20:02:54.954911   138 layer_factory.hpp:77] Creating layer inception_3b/pool
I0220 20:02:54.954924   138 net.cpp:94] Creating Layer inception_3b/pool
I0220 20:02:54.954933   138 net.cpp:435] inception_3b/pool <- inception_3a/output_inception_3a/output_0_split_3
I0220 20:02:54.954946   138 net.cpp:409] inception_3b/pool -> inception_3b/pool
I0220 20:02:54.955008   138 net.cpp:144] Setting up inception_3b/pool
I0220 20:02:54.955022   138 net.cpp:151] Top shape: 32 256 28 28 (6422528)
I0220 20:02:54.955029   138 net.cpp:159] Memory required for data: 1017971200
I0220 20:02:54.955039   138 layer_factory.hpp:77] Creating layer inception_3b/pool_proj
I0220 20:02:54.955055   138 net.cpp:94] Creating Layer inception_3b/pool_proj
I0220 20:02:54.955065   138 net.cpp:435] inception_3b/pool_proj <- inception_3b/pool
I0220 20:02:54.955080   138 net.cpp:409] inception_3b/pool_proj -> inception_3b/pool_proj
I0220 20:02:54.955579   138 net.cpp:144] Setting up inception_3b/pool_proj
I0220 20:02:54.955595   138 net.cpp:151] Top shape: 32 64 28 28 (1605632)
I0220 20:02:54.955602   138 net.cpp:159] Memory required for data: 1024393728
I0220 20:02:54.955613   138 layer_factory.hpp:77] Creating layer inception_3b/relu_pool_proj
I0220 20:02:54.955627   138 net.cpp:94] Creating Layer inception_3b/relu_pool_proj
I0220 20:02:54.955636   138 net.cpp:435] inception_3b/relu_pool_proj <- inception_3b/pool_proj
I0220 20:02:54.955649   138 net.cpp:396] inception_3b/relu_pool_proj -> inception_3b/pool_proj (in-place)
I0220 20:02:54.955665   138 net.cpp:144] Setting up inception_3b/relu_pool_proj
I0220 20:02:54.955675   138 net.cpp:151] Top shape: 32 64 28 28 (1605632)
I0220 20:02:54.955682   138 net.cpp:159] Memory required for data: 1030816256
I0220 20:02:54.955690   138 layer_factory.hpp:77] Creating layer inception_3b/output
I0220 20:02:54.955703   138 net.cpp:94] Creating Layer inception_3b/output
I0220 20:02:54.955713   138 net.cpp:435] inception_3b/output <- inception_3b/1x1
I0220 20:02:54.955723   138 net.cpp:435] inception_3b/output <- inception_3b/3x3
I0220 20:02:54.955732   138 net.cpp:435] inception_3b/output <- inception_3b/5x5
I0220 20:02:54.955741   138 net.cpp:435] inception_3b/output <- inception_3b/pool_proj
I0220 20:02:54.955754   138 net.cpp:409] inception_3b/output -> inception_3b/output
I0220 20:02:54.955811   138 net.cpp:144] Setting up inception_3b/output
I0220 20:02:54.955824   138 net.cpp:151] Top shape: 32 480 28 28 (12042240)
I0220 20:02:54.955857   138 net.cpp:159] Memory required for data: 1078985216
I0220 20:02:54.955868   138 layer_factory.hpp:77] Creating layer pool3/3x3_s2
I0220 20:02:54.955879   138 net.cpp:94] Creating Layer pool3/3x3_s2
I0220 20:02:54.955889   138 net.cpp:435] pool3/3x3_s2 <- inception_3b/output
I0220 20:02:54.955901   138 net.cpp:409] pool3/3x3_s2 -> pool3/3x3_s2
I0220 20:02:54.955960   138 net.cpp:144] Setting up pool3/3x3_s2
I0220 20:02:54.955973   138 net.cpp:151] Top shape: 32 480 14 14 (3010560)
I0220 20:02:54.955981   138 net.cpp:159] Memory required for data: 1091027456
I0220 20:02:54.955988   138 layer_factory.hpp:77] Creating layer pool3/3x3_s2_pool3/3x3_s2_0_split
I0220 20:02:54.956002   138 net.cpp:94] Creating Layer pool3/3x3_s2_pool3/3x3_s2_0_split
I0220 20:02:54.956012   138 net.cpp:435] pool3/3x3_s2_pool3/3x3_s2_0_split <- pool3/3x3_s2
I0220 20:02:54.956024   138 net.cpp:409] pool3/3x3_s2_pool3/3x3_s2_0_split -> pool3/3x3_s2_pool3/3x3_s2_0_split_0
I0220 20:02:54.956039   138 net.cpp:409] pool3/3x3_s2_pool3/3x3_s2_0_split -> pool3/3x3_s2_pool3/3x3_s2_0_split_1
I0220 20:02:54.956054   138 net.cpp:409] pool3/3x3_s2_pool3/3x3_s2_0_split -> pool3/3x3_s2_pool3/3x3_s2_0_split_2
I0220 20:02:54.956068   138 net.cpp:409] pool3/3x3_s2_pool3/3x3_s2_0_split -> pool3/3x3_s2_pool3/3x3_s2_0_split_3
I0220 20:02:54.956159   138 net.cpp:144] Setting up pool3/3x3_s2_pool3/3x3_s2_0_split
I0220 20:02:54.956176   138 net.cpp:151] Top shape: 32 480 14 14 (3010560)
I0220 20:02:54.956184   138 net.cpp:151] Top shape: 32 480 14 14 (3010560)
I0220 20:02:54.956194   138 net.cpp:151] Top shape: 32 480 14 14 (3010560)
I0220 20:02:54.956203   138 net.cpp:151] Top shape: 32 480 14 14 (3010560)
I0220 20:02:54.956212   138 net.cpp:159] Memory required for data: 1139196416
I0220 20:02:54.956219   138 layer_factory.hpp:77] Creating layer inception_4a/1x1
I0220 20:02:54.956238   138 net.cpp:94] Creating Layer inception_4a/1x1
I0220 20:02:54.956246   138 net.cpp:435] inception_4a/1x1 <- pool3/3x3_s2_pool3/3x3_s2_0_split_0
I0220 20:02:54.956260   138 net.cpp:409] inception_4a/1x1 -> inception_4a/1x1
I0220 20:02:54.957625   138 net.cpp:144] Setting up inception_4a/1x1
I0220 20:02:54.957644   138 net.cpp:151] Top shape: 32 192 14 14 (1204224)
I0220 20:02:54.957653   138 net.cpp:159] Memory required for data: 1144013312
I0220 20:02:54.957665   138 layer_factory.hpp:77] Creating layer inception_4a/relu_1x1
I0220 20:02:54.957679   138 net.cpp:94] Creating Layer inception_4a/relu_1x1
I0220 20:02:54.957687   138 net.cpp:435] inception_4a/relu_1x1 <- inception_4a/1x1
I0220 20:02:54.957700   138 net.cpp:396] inception_4a/relu_1x1 -> inception_4a/1x1 (in-place)
I0220 20:02:54.957715   138 net.cpp:144] Setting up inception_4a/relu_1x1
I0220 20:02:54.957726   138 net.cpp:151] Top shape: 32 192 14 14 (1204224)
I0220 20:02:54.957733   138 net.cpp:159] Memory required for data: 1148830208
I0220 20:02:54.957741   138 layer_factory.hpp:77] Creating layer inception_4a/3x3_reduce
I0220 20:02:54.957759   138 net.cpp:94] Creating Layer inception_4a/3x3_reduce
I0220 20:02:54.957770   138 net.cpp:435] inception_4a/3x3_reduce <- pool3/3x3_s2_pool3/3x3_s2_0_split_1
I0220 20:02:54.957800   138 net.cpp:409] inception_4a/3x3_reduce -> inception_4a/3x3_reduce
I0220 20:02:54.959689   138 net.cpp:144] Setting up inception_4a/3x3_reduce
I0220 20:02:54.959728   138 net.cpp:151] Top shape: 32 96 14 14 (602112)
I0220 20:02:54.959735   138 net.cpp:159] Memory required for data: 1151238656
I0220 20:02:54.959759   138 layer_factory.hpp:77] Creating layer inception_4a/relu_3x3_reduce
I0220 20:02:54.959789   138 net.cpp:94] Creating Layer inception_4a/relu_3x3_reduce
I0220 20:02:54.959800   138 net.cpp:435] inception_4a/relu_3x3_reduce <- inception_4a/3x3_reduce
I0220 20:02:54.959815   138 net.cpp:396] inception_4a/relu_3x3_reduce -> inception_4a/3x3_reduce (in-place)
I0220 20:02:54.959832   138 net.cpp:144] Setting up inception_4a/relu_3x3_reduce
I0220 20:02:54.959842   138 net.cpp:151] Top shape: 32 96 14 14 (602112)
I0220 20:02:54.959851   138 net.cpp:159] Memory required for data: 1153647104
I0220 20:02:54.959887   138 layer_factory.hpp:77] Creating layer inception_4a/3x3
I0220 20:02:54.959905   138 net.cpp:94] Creating Layer inception_4a/3x3
I0220 20:02:54.959914   138 net.cpp:435] inception_4a/3x3 <- inception_4a/3x3_reduce
I0220 20:02:54.959928   138 net.cpp:409] inception_4a/3x3 -> inception_4a/3x3
I0220 20:02:54.963444   138 net.cpp:144] Setting up inception_4a/3x3
I0220 20:02:54.963465   138 net.cpp:151] Top shape: 32 208 14 14 (1304576)
I0220 20:02:54.963474   138 net.cpp:159] Memory required for data: 1158865408
I0220 20:02:54.963485   138 layer_factory.hpp:77] Creating layer inception_4a/relu_3x3
I0220 20:02:54.963497   138 net.cpp:94] Creating Layer inception_4a/relu_3x3
I0220 20:02:54.963506   138 net.cpp:435] inception_4a/relu_3x3 <- inception_4a/3x3
I0220 20:02:54.963517   138 net.cpp:396] inception_4a/relu_3x3 -> inception_4a/3x3 (in-place)
I0220 20:02:54.963533   138 net.cpp:144] Setting up inception_4a/relu_3x3
I0220 20:02:54.963543   138 net.cpp:151] Top shape: 32 208 14 14 (1304576)
I0220 20:02:54.963551   138 net.cpp:159] Memory required for data: 1164083712
I0220 20:02:54.963558   138 layer_factory.hpp:77] Creating layer inception_4a/5x5_reduce
I0220 20:02:54.963573   138 net.cpp:94] Creating Layer inception_4a/5x5_reduce
I0220 20:02:54.963582   138 net.cpp:435] inception_4a/5x5_reduce <- pool3/3x3_s2_pool3/3x3_s2_0_split_2
I0220 20:02:54.963594   138 net.cpp:409] inception_4a/5x5_reduce -> inception_4a/5x5_reduce
I0220 20:02:54.963891   138 net.cpp:144] Setting up inception_4a/5x5_reduce
I0220 20:02:54.963907   138 net.cpp:151] Top shape: 32 16 14 14 (100352)
I0220 20:02:54.963913   138 net.cpp:159] Memory required for data: 1164485120
I0220 20:02:54.963924   138 layer_factory.hpp:77] Creating layer inception_4a/relu_5x5_reduce
I0220 20:02:54.963935   138 net.cpp:94] Creating Layer inception_4a/relu_5x5_reduce
I0220 20:02:54.963944   138 net.cpp:435] inception_4a/relu_5x5_reduce <- inception_4a/5x5_reduce
I0220 20:02:54.963955   138 net.cpp:396] inception_4a/relu_5x5_reduce -> inception_4a/5x5_reduce (in-place)
I0220 20:02:54.963968   138 net.cpp:144] Setting up inception_4a/relu_5x5_reduce
I0220 20:02:54.963977   138 net.cpp:151] Top shape: 32 16 14 14 (100352)
I0220 20:02:54.963984   138 net.cpp:159] Memory required for data: 1164886528
I0220 20:02:54.963992   138 layer_factory.hpp:77] Creating layer inception_4a/5x5
I0220 20:02:54.964006   138 net.cpp:94] Creating Layer inception_4a/5x5
I0220 20:02:54.964015   138 net.cpp:435] inception_4a/5x5 <- inception_4a/5x5_reduce
I0220 20:02:54.964035   138 net.cpp:409] inception_4a/5x5 -> inception_4a/5x5
I0220 20:02:54.964385   138 net.cpp:144] Setting up inception_4a/5x5
I0220 20:02:54.964399   138 net.cpp:151] Top shape: 32 48 14 14 (301056)
I0220 20:02:54.964407   138 net.cpp:159] Memory required for data: 1166090752
I0220 20:02:54.964417   138 layer_factory.hpp:77] Creating layer inception_4a/relu_5x5
I0220 20:02:54.964428   138 net.cpp:94] Creating Layer inception_4a/relu_5x5
I0220 20:02:54.964437   138 net.cpp:435] inception_4a/relu_5x5 <- inception_4a/5x5
I0220 20:02:54.964448   138 net.cpp:396] inception_4a/relu_5x5 -> inception_4a/5x5 (in-place)
I0220 20:02:54.964460   138 net.cpp:144] Setting up inception_4a/relu_5x5
I0220 20:02:54.964469   138 net.cpp:151] Top shape: 32 48 14 14 (301056)
I0220 20:02:54.964476   138 net.cpp:159] Memory required for data: 1167294976
I0220 20:02:54.964484   138 layer_factory.hpp:77] Creating layer inception_4a/pool
I0220 20:02:54.964495   138 net.cpp:94] Creating Layer inception_4a/pool
I0220 20:02:54.964504   138 net.cpp:435] inception_4a/pool <- pool3/3x3_s2_pool3/3x3_s2_0_split_3
I0220 20:02:54.964514   138 net.cpp:409] inception_4a/pool -> inception_4a/pool
I0220 20:02:54.967093   138 net.cpp:144] Setting up inception_4a/pool
I0220 20:02:54.976809   138 net.cpp:151] Top shape: 32 480 14 14 (3010560)
I0220 20:02:54.976820   138 net.cpp:159] Memory required for data: 1179337216
I0220 20:02:54.976830   138 layer_factory.hpp:77] Creating layer inception_4a/pool_proj
I0220 20:02:54.976878   138 net.cpp:94] Creating Layer inception_4a/pool_proj
I0220 20:02:54.976889   138 net.cpp:435] inception_4a/pool_proj <- inception_4a/pool
I0220 20:02:54.976905   138 net.cpp:409] inception_4a/pool_proj -> inception_4a/pool_proj
I0220 20:02:54.977385   138 net.cpp:144] Setting up inception_4a/pool_proj
I0220 20:02:54.977401   138 net.cpp:151] Top shape: 32 64 14 14 (401408)
I0220 20:02:54.977409   138 net.cpp:159] Memory required for data: 1180942848
I0220 20:02:54.977421   138 layer_factory.hpp:77] Creating layer inception_4a/relu_pool_proj
I0220 20:02:54.977433   138 net.cpp:94] Creating Layer inception_4a/relu_pool_proj
I0220 20:02:54.977442   138 net.cpp:435] inception_4a/relu_pool_proj <- inception_4a/pool_proj
I0220 20:02:54.977452   138 net.cpp:396] inception_4a/relu_pool_proj -> inception_4a/pool_proj (in-place)
I0220 20:02:54.977466   138 net.cpp:144] Setting up inception_4a/relu_pool_proj
I0220 20:02:54.977476   138 net.cpp:151] Top shape: 32 64 14 14 (401408)
I0220 20:02:54.977483   138 net.cpp:159] Memory required for data: 1182548480
I0220 20:02:54.977491   138 layer_factory.hpp:77] Creating layer inception_4a/output
I0220 20:02:54.977504   138 net.cpp:94] Creating Layer inception_4a/output
I0220 20:02:54.977511   138 net.cpp:435] inception_4a/output <- inception_4a/1x1
I0220 20:02:54.977521   138 net.cpp:435] inception_4a/output <- inception_4a/3x3
I0220 20:02:54.977532   138 net.cpp:435] inception_4a/output <- inception_4a/5x5
I0220 20:02:54.977542   138 net.cpp:435] inception_4a/output <- inception_4a/pool_proj
I0220 20:02:54.977552   138 net.cpp:409] inception_4a/output -> inception_4a/output
I0220 20:02:54.977592   138 net.cpp:144] Setting up inception_4a/output
I0220 20:02:54.977604   138 net.cpp:151] Top shape: 32 512 14 14 (3211264)
I0220 20:02:54.977612   138 net.cpp:159] Memory required for data: 1195393536
I0220 20:02:54.977619   138 layer_factory.hpp:77] Creating layer inception_4a/output_inception_4a/output_0_split
I0220 20:02:54.977632   138 net.cpp:94] Creating Layer inception_4a/output_inception_4a/output_0_split
I0220 20:02:54.977640   138 net.cpp:435] inception_4a/output_inception_4a/output_0_split <- inception_4a/output
I0220 20:02:54.977651   138 net.cpp:409] inception_4a/output_inception_4a/output_0_split -> inception_4a/output_inception_4a/output_0_split_0
I0220 20:02:54.977664   138 net.cpp:409] inception_4a/output_inception_4a/output_0_split -> inception_4a/output_inception_4a/output_0_split_1
I0220 20:02:54.977677   138 net.cpp:409] inception_4a/output_inception_4a/output_0_split -> inception_4a/output_inception_4a/output_0_split_2
I0220 20:02:54.977689   138 net.cpp:409] inception_4a/output_inception_4a/output_0_split -> inception_4a/output_inception_4a/output_0_split_3
I0220 20:02:54.977700   138 net.cpp:409] inception_4a/output_inception_4a/output_0_split -> inception_4a/output_inception_4a/output_0_split_4
I0220 20:02:54.977790   138 net.cpp:144] Setting up inception_4a/output_inception_4a/output_0_split
I0220 20:02:54.977804   138 net.cpp:151] Top shape: 32 512 14 14 (3211264)
I0220 20:02:54.977813   138 net.cpp:151] Top shape: 32 512 14 14 (3211264)
I0220 20:02:54.977821   138 net.cpp:151] Top shape: 32 512 14 14 (3211264)
I0220 20:02:54.977829   138 net.cpp:151] Top shape: 32 512 14 14 (3211264)
I0220 20:02:54.977838   138 net.cpp:151] Top shape: 32 512 14 14 (3211264)
I0220 20:02:54.977845   138 net.cpp:159] Memory required for data: 1259618816
I0220 20:02:54.977854   138 layer_factory.hpp:77] Creating layer loss1/ave_pool
I0220 20:02:54.977865   138 net.cpp:94] Creating Layer loss1/ave_pool
I0220 20:02:54.977874   138 net.cpp:435] loss1/ave_pool <- inception_4a/output_inception_4a/output_0_split_0
I0220 20:02:54.977885   138 net.cpp:409] loss1/ave_pool -> loss1/ave_pool
I0220 20:02:54.977931   138 net.cpp:144] Setting up loss1/ave_pool
I0220 20:02:54.977944   138 net.cpp:151] Top shape: 32 512 4 4 (262144)
I0220 20:02:54.977952   138 net.cpp:159] Memory required for data: 1260667392
I0220 20:02:54.977959   138 layer_factory.hpp:77] Creating layer loss1/conv
I0220 20:02:54.977988   138 net.cpp:94] Creating Layer loss1/conv
I0220 20:02:54.977996   138 net.cpp:435] loss1/conv <- loss1/ave_pool
I0220 20:02:54.978008   138 net.cpp:409] loss1/conv -> loss1/conv
I0220 20:02:54.978657   138 net.cpp:144] Setting up loss1/conv
I0220 20:02:54.978672   138 net.cpp:151] Top shape: 32 128 4 4 (65536)
I0220 20:02:54.978679   138 net.cpp:159] Memory required for data: 1260929536
I0220 20:02:54.978690   138 layer_factory.hpp:77] Creating layer loss1/relu_conv
I0220 20:02:54.978701   138 net.cpp:94] Creating Layer loss1/relu_conv
I0220 20:02:54.978709   138 net.cpp:435] loss1/relu_conv <- loss1/conv
I0220 20:02:54.978720   138 net.cpp:396] loss1/relu_conv -> loss1/conv (in-place)
I0220 20:02:54.978732   138 net.cpp:144] Setting up loss1/relu_conv
I0220 20:02:54.978741   138 net.cpp:151] Top shape: 32 128 4 4 (65536)
I0220 20:02:54.978749   138 net.cpp:159] Memory required for data: 1261191680
I0220 20:02:54.978756   138 layer_factory.hpp:77] Creating layer loss1/fc
I0220 20:02:54.978770   138 net.cpp:94] Creating Layer loss1/fc
I0220 20:02:54.978792   138 net.cpp:435] loss1/fc <- loss1/conv
I0220 20:02:54.978804   138 net.cpp:409] loss1/fc -> loss1/fc
I0220 20:02:55.003515   138 net.cpp:144] Setting up loss1/fc
I0220 20:02:55.003554   138 net.cpp:151] Top shape: 32 1024 (32768)
I0220 20:02:55.003563   138 net.cpp:159] Memory required for data: 1261322752
I0220 20:02:55.003578   138 layer_factory.hpp:77] Creating layer loss1/relu_fc
I0220 20:02:55.003594   138 net.cpp:94] Creating Layer loss1/relu_fc
I0220 20:02:55.003604   138 net.cpp:435] loss1/relu_fc <- loss1/fc
I0220 20:02:55.003618   138 net.cpp:396] loss1/relu_fc -> loss1/fc (in-place)
I0220 20:02:55.003636   138 net.cpp:144] Setting up loss1/relu_fc
I0220 20:02:55.003645   138 net.cpp:151] Top shape: 32 1024 (32768)
I0220 20:02:55.003652   138 net.cpp:159] Memory required for data: 1261453824
I0220 20:02:55.003660   138 layer_factory.hpp:77] Creating layer loss1/drop_fc
I0220 20:02:55.003690   138 net.cpp:94] Creating Layer loss1/drop_fc
I0220 20:02:55.003700   138 net.cpp:435] loss1/drop_fc <- loss1/fc
I0220 20:02:55.003710   138 net.cpp:396] loss1/drop_fc -> loss1/fc (in-place)
I0220 20:02:55.003749   138 net.cpp:144] Setting up loss1/drop_fc
I0220 20:02:55.003762   138 net.cpp:151] Top shape: 32 1024 (32768)
I0220 20:02:55.003768   138 net.cpp:159] Memory required for data: 1261584896
I0220 20:02:55.003790   138 layer_factory.hpp:77] Creating layer loss1/classifier
I0220 20:02:55.003804   138 net.cpp:94] Creating Layer loss1/classifier
I0220 20:02:55.003813   138 net.cpp:435] loss1/classifier <- loss1/fc
I0220 20:02:55.003825   138 net.cpp:409] loss1/classifier -> loss1/classifier
I0220 20:02:55.003957   138 net.cpp:144] Setting up loss1/classifier
I0220 20:02:55.003969   138 net.cpp:151] Top shape: 32 3 (96)
I0220 20:02:55.003976   138 net.cpp:159] Memory required for data: 1261585280
I0220 20:02:55.003986   138 layer_factory.hpp:77] Creating layer loss1/loss
I0220 20:02:55.003999   138 net.cpp:94] Creating Layer loss1/loss
I0220 20:02:55.004007   138 net.cpp:435] loss1/loss <- loss1/classifier
I0220 20:02:55.004017   138 net.cpp:435] loss1/loss <- label_train-data_1_split_0
I0220 20:02:55.004040   138 net.cpp:409] loss1/loss -> loss1/loss
I0220 20:02:55.004056   138 layer_factory.hpp:77] Creating layer loss1/loss
I0220 20:02:55.004155   138 net.cpp:144] Setting up loss1/loss
I0220 20:02:55.004168   138 net.cpp:151] Top shape: (1)
I0220 20:02:55.004174   138 net.cpp:154]     with loss weight 0.3
I0220 20:02:55.004201   138 net.cpp:159] Memory required for data: 1261585284
I0220 20:02:55.004210   138 layer_factory.hpp:77] Creating layer inception_4b/1x1
I0220 20:02:55.004228   138 net.cpp:94] Creating Layer inception_4b/1x1
I0220 20:02:55.004237   138 net.cpp:435] inception_4b/1x1 <- inception_4a/output_inception_4a/output_0_split_1
I0220 20:02:55.004251   138 net.cpp:409] inception_4b/1x1 -> inception_4b/1x1
I0220 20:02:55.005074   138 net.cpp:144] Setting up inception_4b/1x1
I0220 20:02:55.005091   138 net.cpp:151] Top shape: 32 160 14 14 (1003520)
I0220 20:02:55.005131   138 net.cpp:159] Memory required for data: 1265599364
I0220 20:02:55.005142   138 layer_factory.hpp:77] Creating layer inception_4b/relu_1x1
I0220 20:02:55.005154   138 net.cpp:94] Creating Layer inception_4b/relu_1x1
I0220 20:02:55.005163   138 net.cpp:435] inception_4b/relu_1x1 <- inception_4b/1x1
I0220 20:02:55.005175   138 net.cpp:396] inception_4b/relu_1x1 -> inception_4b/1x1 (in-place)
I0220 20:02:55.005189   138 net.cpp:144] Setting up inception_4b/relu_1x1
I0220 20:02:55.005198   138 net.cpp:151] Top shape: 32 160 14 14 (1003520)
I0220 20:02:55.005205   138 net.cpp:159] Memory required for data: 1269613444
I0220 20:02:55.005213   138 layer_factory.hpp:77] Creating layer inception_4b/3x3_reduce
I0220 20:02:55.005228   138 net.cpp:94] Creating Layer inception_4b/3x3_reduce
I0220 20:02:55.005236   138 net.cpp:435] inception_4b/3x3_reduce <- inception_4a/output_inception_4a/output_0_split_2
I0220 20:02:55.005249   138 net.cpp:409] inception_4b/3x3_reduce -> inception_4b/3x3_reduce
I0220 20:02:55.006691   138 net.cpp:144] Setting up inception_4b/3x3_reduce
I0220 20:02:55.006711   138 net.cpp:151] Top shape: 32 112 14 14 (702464)
I0220 20:02:55.006718   138 net.cpp:159] Memory required for data: 1272423300
I0220 20:02:55.006731   138 layer_factory.hpp:77] Creating layer inception_4b/relu_3x3_reduce
I0220 20:02:55.006743   138 net.cpp:94] Creating Layer inception_4b/relu_3x3_reduce
I0220 20:02:55.006752   138 net.cpp:435] inception_4b/relu_3x3_reduce <- inception_4b/3x3_reduce
I0220 20:02:55.006763   138 net.cpp:396] inception_4b/relu_3x3_reduce -> inception_4b/3x3_reduce (in-place)
I0220 20:02:55.006791   138 net.cpp:144] Setting up inception_4b/relu_3x3_reduce
I0220 20:02:55.006803   138 net.cpp:151] Top shape: 32 112 14 14 (702464)
I0220 20:02:55.006810   138 net.cpp:159] Memory required for data: 1275233156
I0220 20:02:55.006819   138 layer_factory.hpp:77] Creating layer inception_4b/3x3
I0220 20:02:55.006834   138 net.cpp:94] Creating Layer inception_4b/3x3
I0220 20:02:55.006841   138 net.cpp:435] inception_4b/3x3 <- inception_4b/3x3_reduce
I0220 20:02:55.006855   138 net.cpp:409] inception_4b/3x3 -> inception_4b/3x3
I0220 20:02:55.009150   138 net.cpp:144] Setting up inception_4b/3x3
I0220 20:02:55.009171   138 net.cpp:151] Top shape: 32 224 14 14 (1404928)
I0220 20:02:55.009178   138 net.cpp:159] Memory required for data: 1280852868
I0220 20:02:55.009189   138 layer_factory.hpp:77] Creating layer inception_4b/relu_3x3
I0220 20:02:55.009202   138 net.cpp:94] Creating Layer inception_4b/relu_3x3
I0220 20:02:55.009212   138 net.cpp:435] inception_4b/relu_3x3 <- inception_4b/3x3
I0220 20:02:55.009222   138 net.cpp:396] inception_4b/relu_3x3 -> inception_4b/3x3 (in-place)
I0220 20:02:55.009236   138 net.cpp:144] Setting up inception_4b/relu_3x3
I0220 20:02:55.009245   138 net.cpp:151] Top shape: 32 224 14 14 (1404928)
I0220 20:02:55.009253   138 net.cpp:159] Memory required for data: 1286472580
I0220 20:02:55.009260   138 layer_factory.hpp:77] Creating layer inception_4b/5x5_reduce
I0220 20:02:55.009274   138 net.cpp:94] Creating Layer inception_4b/5x5_reduce
I0220 20:02:55.009282   138 net.cpp:435] inception_4b/5x5_reduce <- inception_4a/output_inception_4a/output_0_split_3
I0220 20:02:55.009295   138 net.cpp:409] inception_4b/5x5_reduce -> inception_4b/5x5_reduce
I0220 20:02:55.009610   138 net.cpp:144] Setting up inception_4b/5x5_reduce
I0220 20:02:55.009625   138 net.cpp:151] Top shape: 32 24 14 14 (150528)
I0220 20:02:55.009632   138 net.cpp:159] Memory required for data: 1287074692
I0220 20:02:55.009644   138 layer_factory.hpp:77] Creating layer inception_4b/relu_5x5_reduce
I0220 20:02:55.009654   138 net.cpp:94] Creating Layer inception_4b/relu_5x5_reduce
I0220 20:02:55.009663   138 net.cpp:435] inception_4b/relu_5x5_reduce <- inception_4b/5x5_reduce
I0220 20:02:55.009675   138 net.cpp:396] inception_4b/relu_5x5_reduce -> inception_4b/5x5_reduce (in-place)
I0220 20:02:55.009687   138 net.cpp:144] Setting up inception_4b/relu_5x5_reduce
I0220 20:02:55.009696   138 net.cpp:151] Top shape: 32 24 14 14 (150528)
I0220 20:02:55.009719   138 net.cpp:159] Memory required for data: 1287676804
I0220 20:02:55.009728   138 layer_factory.hpp:77] Creating layer inception_4b/5x5
I0220 20:02:55.009742   138 net.cpp:94] Creating Layer inception_4b/5x5
I0220 20:02:55.009752   138 net.cpp:435] inception_4b/5x5 <- inception_4b/5x5_reduce
I0220 20:02:55.009763   138 net.cpp:409] inception_4b/5x5 -> inception_4b/5x5
I0220 20:02:55.010244   138 net.cpp:144] Setting up inception_4b/5x5
I0220 20:02:55.010260   138 net.cpp:151] Top shape: 32 64 14 14 (401408)
I0220 20:02:55.010267   138 net.cpp:159] Memory required for data: 1289282436
I0220 20:02:55.010278   138 layer_factory.hpp:77] Creating layer inception_4b/relu_5x5
I0220 20:02:55.010289   138 net.cpp:94] Creating Layer inception_4b/relu_5x5
I0220 20:02:55.010298   138 net.cpp:435] inception_4b/relu_5x5 <- inception_4b/5x5
I0220 20:02:55.010309   138 net.cpp:396] inception_4b/relu_5x5 -> inception_4b/5x5 (in-place)
I0220 20:02:55.010323   138 net.cpp:144] Setting up inception_4b/relu_5x5
I0220 20:02:55.010331   138 net.cpp:151] Top shape: 32 64 14 14 (401408)
I0220 20:02:55.010339   138 net.cpp:159] Memory required for data: 1290888068
I0220 20:02:55.010346   138 layer_factory.hpp:77] Creating layer inception_4b/pool
I0220 20:02:55.010359   138 net.cpp:94] Creating Layer inception_4b/pool
I0220 20:02:55.010366   138 net.cpp:435] inception_4b/pool <- inception_4a/output_inception_4a/output_0_split_4
I0220 20:02:55.010378   138 net.cpp:409] inception_4b/pool -> inception_4b/pool
I0220 20:02:55.010440   138 net.cpp:144] Setting up inception_4b/pool
I0220 20:02:55.010453   138 net.cpp:151] Top shape: 32 512 14 14 (3211264)
I0220 20:02:55.010462   138 net.cpp:159] Memory required for data: 1303733124
I0220 20:02:55.010469   138 layer_factory.hpp:77] Creating layer inception_4b/pool_proj
I0220 20:02:55.010483   138 net.cpp:94] Creating Layer inception_4b/pool_proj
I0220 20:02:55.010491   138 net.cpp:435] inception_4b/pool_proj <- inception_4b/pool
I0220 20:02:55.010505   138 net.cpp:409] inception_4b/pool_proj -> inception_4b/pool_proj
I0220 20:02:55.010941   138 net.cpp:144] Setting up inception_4b/pool_proj
I0220 20:02:55.010958   138 net.cpp:151] Top shape: 32 64 14 14 (401408)
I0220 20:02:55.010967   138 net.cpp:159] Memory required for data: 1305338756
I0220 20:02:55.010977   138 layer_factory.hpp:77] Creating layer inception_4b/relu_pool_proj
I0220 20:02:55.010988   138 net.cpp:94] Creating Layer inception_4b/relu_pool_proj
I0220 20:02:55.010998   138 net.cpp:435] inception_4b/relu_pool_proj <- inception_4b/pool_proj
I0220 20:02:55.011008   138 net.cpp:396] inception_4b/relu_pool_proj -> inception_4b/pool_proj (in-place)
I0220 20:02:55.011020   138 net.cpp:144] Setting up inception_4b/relu_pool_proj
I0220 20:02:55.011039   138 net.cpp:151] Top shape: 32 64 14 14 (401408)
I0220 20:02:55.011046   138 net.cpp:159] Memory required for data: 1306944388
I0220 20:02:55.011054   138 layer_factory.hpp:77] Creating layer inception_4b/output
I0220 20:02:55.011065   138 net.cpp:94] Creating Layer inception_4b/output
I0220 20:02:55.011073   138 net.cpp:435] inception_4b/output <- inception_4b/1x1
I0220 20:02:55.011082   138 net.cpp:435] inception_4b/output <- inception_4b/3x3
I0220 20:02:55.011091   138 net.cpp:435] inception_4b/output <- inception_4b/5x5
I0220 20:02:55.011101   138 net.cpp:435] inception_4b/output <- inception_4b/pool_proj
I0220 20:02:55.011111   138 net.cpp:409] inception_4b/output -> inception_4b/output
I0220 20:02:55.011149   138 net.cpp:144] Setting up inception_4b/output
I0220 20:02:55.011162   138 net.cpp:151] Top shape: 32 512 14 14 (3211264)
I0220 20:02:55.011168   138 net.cpp:159] Memory required for data: 1319789444
I0220 20:02:55.011176   138 layer_factory.hpp:77] Creating layer inception_4b/output_inception_4b/output_0_split
I0220 20:02:55.011188   138 net.cpp:94] Creating Layer inception_4b/output_inception_4b/output_0_split
I0220 20:02:55.011196   138 net.cpp:435] inception_4b/output_inception_4b/output_0_split <- inception_4b/output
I0220 20:02:55.011222   138 net.cpp:409] inception_4b/output_inception_4b/output_0_split -> inception_4b/output_inception_4b/output_0_split_0
I0220 20:02:55.011236   138 net.cpp:409] inception_4b/output_inception_4b/output_0_split -> inception_4b/output_inception_4b/output_0_split_1
I0220 20:02:55.011250   138 net.cpp:409] inception_4b/output_inception_4b/output_0_split -> inception_4b/output_inception_4b/output_0_split_2
I0220 20:02:55.011262   138 net.cpp:409] inception_4b/output_inception_4b/output_0_split -> inception_4b/output_inception_4b/output_0_split_3
I0220 20:02:55.011332   138 net.cpp:144] Setting up inception_4b/output_inception_4b/output_0_split
I0220 20:02:55.011344   138 net.cpp:151] Top shape: 32 512 14 14 (3211264)
I0220 20:02:55.011358   138 net.cpp:151] Top shape: 32 512 14 14 (3211264)
I0220 20:02:55.011366   138 net.cpp:151] Top shape: 32 512 14 14 (3211264)
I0220 20:02:55.011375   138 net.cpp:151] Top shape: 32 512 14 14 (3211264)
I0220 20:02:55.011382   138 net.cpp:159] Memory required for data: 1371169668
I0220 20:02:55.011390   138 layer_factory.hpp:77] Creating layer inception_4c/1x1
I0220 20:02:55.011404   138 net.cpp:94] Creating Layer inception_4c/1x1
I0220 20:02:55.011413   138 net.cpp:435] inception_4c/1x1 <- inception_4b/output_inception_4b/output_0_split_0
I0220 20:02:55.011426   138 net.cpp:409] inception_4c/1x1 -> inception_4c/1x1
I0220 20:02:55.012095   138 net.cpp:144] Setting up inception_4c/1x1
I0220 20:02:55.012110   138 net.cpp:151] Top shape: 32 128 14 14 (802816)
I0220 20:02:55.012118   138 net.cpp:159] Memory required for data: 1374380932
I0220 20:02:55.012128   138 layer_factory.hpp:77] Creating layer inception_4c/relu_1x1
I0220 20:02:55.012140   138 net.cpp:94] Creating Layer inception_4c/relu_1x1
I0220 20:02:55.012148   138 net.cpp:435] inception_4c/relu_1x1 <- inception_4c/1x1
I0220 20:02:55.012159   138 net.cpp:396] inception_4c/relu_1x1 -> inception_4c/1x1 (in-place)
I0220 20:02:55.012172   138 net.cpp:144] Setting up inception_4c/relu_1x1
I0220 20:02:55.012181   138 net.cpp:151] Top shape: 32 128 14 14 (802816)
I0220 20:02:55.012188   138 net.cpp:159] Memory required for data: 1377592196
I0220 20:02:55.012197   138 layer_factory.hpp:77] Creating layer inception_4c/3x3_reduce
I0220 20:02:55.012210   138 net.cpp:94] Creating Layer inception_4c/3x3_reduce
I0220 20:02:55.012218   138 net.cpp:435] inception_4c/3x3_reduce <- inception_4b/output_inception_4b/output_0_split_1
I0220 20:02:55.012231   138 net.cpp:409] inception_4c/3x3_reduce -> inception_4c/3x3_reduce
I0220 20:02:55.012900   138 net.cpp:144] Setting up inception_4c/3x3_reduce
I0220 20:02:55.012917   138 net.cpp:151] Top shape: 32 128 14 14 (802816)
I0220 20:02:55.012924   138 net.cpp:159] Memory required for data: 1380803460
I0220 20:02:55.012935   138 layer_factory.hpp:77] Creating layer inception_4c/relu_3x3_reduce
I0220 20:02:55.012948   138 net.cpp:94] Creating Layer inception_4c/relu_3x3_reduce
I0220 20:02:55.012956   138 net.cpp:435] inception_4c/relu_3x3_reduce <- inception_4c/3x3_reduce
I0220 20:02:55.012969   138 net.cpp:396] inception_4c/relu_3x3_reduce -> inception_4c/3x3_reduce (in-place)
I0220 20:02:55.012981   138 net.cpp:144] Setting up inception_4c/relu_3x3_reduce
I0220 20:02:55.012990   138 net.cpp:151] Top shape: 32 128 14 14 (802816)
I0220 20:02:55.012997   138 net.cpp:159] Memory required for data: 1384014724
I0220 20:02:55.013005   138 layer_factory.hpp:77] Creating layer inception_4c/3x3
I0220 20:02:55.013018   138 net.cpp:94] Creating Layer inception_4c/3x3
I0220 20:02:55.013036   138 net.cpp:435] inception_4c/3x3 <- inception_4c/3x3_reduce
I0220 20:02:55.013049   138 net.cpp:409] inception_4c/3x3 -> inception_4c/3x3
I0220 20:02:55.015830   138 net.cpp:144] Setting up inception_4c/3x3
I0220 20:02:55.015849   138 net.cpp:151] Top shape: 32 256 14 14 (1605632)
I0220 20:02:55.015857   138 net.cpp:159] Memory required for data: 1390437252
I0220 20:02:55.015878   138 layer_factory.hpp:77] Creating layer inception_4c/relu_3x3
I0220 20:02:55.015892   138 net.cpp:94] Creating Layer inception_4c/relu_3x3
I0220 20:02:55.015915   138 net.cpp:435] inception_4c/relu_3x3 <- inception_4c/3x3
I0220 20:02:55.015928   138 net.cpp:396] inception_4c/relu_3x3 -> inception_4c/3x3 (in-place)
I0220 20:02:55.015942   138 net.cpp:144] Setting up inception_4c/relu_3x3
I0220 20:02:55.015952   138 net.cpp:151] Top shape: 32 256 14 14 (1605632)
I0220 20:02:55.015960   138 net.cpp:159] Memory required for data: 1396859780
I0220 20:02:55.015969   138 layer_factory.hpp:77] Creating layer inception_4c/5x5_reduce
I0220 20:02:55.015981   138 net.cpp:94] Creating Layer inception_4c/5x5_reduce
I0220 20:02:55.015990   138 net.cpp:435] inception_4c/5x5_reduce <- inception_4b/output_inception_4b/output_0_split_2
I0220 20:02:55.016002   138 net.cpp:409] inception_4c/5x5_reduce -> inception_4c/5x5_reduce
I0220 20:02:55.016327   138 net.cpp:144] Setting up inception_4c/5x5_reduce
I0220 20:02:55.016343   138 net.cpp:151] Top shape: 32 24 14 14 (150528)
I0220 20:02:55.016350   138 net.cpp:159] Memory required for data: 1397461892
I0220 20:02:55.016361   138 layer_factory.hpp:77] Creating layer inception_4c/relu_5x5_reduce
I0220 20:02:55.016373   138 net.cpp:94] Creating Layer inception_4c/relu_5x5_reduce
I0220 20:02:55.016381   138 net.cpp:435] inception_4c/relu_5x5_reduce <- inception_4c/5x5_reduce
I0220 20:02:55.016392   138 net.cpp:396] inception_4c/relu_5x5_reduce -> inception_4c/5x5_reduce (in-place)
I0220 20:02:55.016405   138 net.cpp:144] Setting up inception_4c/relu_5x5_reduce
I0220 20:02:55.016414   138 net.cpp:151] Top shape: 32 24 14 14 (150528)
I0220 20:02:55.016422   138 net.cpp:159] Memory required for data: 1398064004
I0220 20:02:55.016429   138 layer_factory.hpp:77] Creating layer inception_4c/5x5
I0220 20:02:55.016443   138 net.cpp:94] Creating Layer inception_4c/5x5
I0220 20:02:55.016451   138 net.cpp:435] inception_4c/5x5 <- inception_4c/5x5_reduce
I0220 20:02:55.016463   138 net.cpp:409] inception_4c/5x5 -> inception_4c/5x5
I0220 20:02:55.017614   138 net.cpp:144] Setting up inception_4c/5x5
I0220 20:02:55.017633   138 net.cpp:151] Top shape: 32 64 14 14 (401408)
I0220 20:02:55.017642   138 net.cpp:159] Memory required for data: 1399669636
I0220 20:02:55.017668   138 layer_factory.hpp:77] Creating layer inception_4c/relu_5x5
I0220 20:02:55.017695   138 net.cpp:94] Creating Layer inception_4c/relu_5x5
I0220 20:02:55.017704   138 net.cpp:435] inception_4c/relu_5x5 <- inception_4c/5x5
I0220 20:02:55.017716   138 net.cpp:396] inception_4c/relu_5x5 -> inception_4c/5x5 (in-place)
I0220 20:02:55.017730   138 net.cpp:144] Setting up inception_4c/relu_5x5
I0220 20:02:55.017740   138 net.cpp:151] Top shape: 32 64 14 14 (401408)
I0220 20:02:55.017747   138 net.cpp:159] Memory required for data: 1401275268
I0220 20:02:55.017755   138 layer_factory.hpp:77] Creating layer inception_4c/pool
I0220 20:02:55.017768   138 net.cpp:94] Creating Layer inception_4c/pool
I0220 20:02:55.017791   138 net.cpp:435] inception_4c/pool <- inception_4b/output_inception_4b/output_0_split_3
I0220 20:02:55.017805   138 net.cpp:409] inception_4c/pool -> inception_4c/pool
I0220 20:02:55.017858   138 net.cpp:144] Setting up inception_4c/pool
I0220 20:02:55.017870   138 net.cpp:151] Top shape: 32 512 14 14 (3211264)
I0220 20:02:55.017877   138 net.cpp:159] Memory required for data: 1414120324
I0220 20:02:55.017885   138 layer_factory.hpp:77] Creating layer inception_4c/pool_proj
I0220 20:02:55.017900   138 net.cpp:94] Creating Layer inception_4c/pool_proj
I0220 20:02:55.017908   138 net.cpp:435] inception_4c/pool_proj <- inception_4c/pool
I0220 20:02:55.017921   138 net.cpp:409] inception_4c/pool_proj -> inception_4c/pool_proj
I0220 20:02:55.018359   138 net.cpp:144] Setting up inception_4c/pool_proj
I0220 20:02:55.018375   138 net.cpp:151] Top shape: 32 64 14 14 (401408)
I0220 20:02:55.018383   138 net.cpp:159] Memory required for data: 1415725956
I0220 20:02:55.018393   138 layer_factory.hpp:77] Creating layer inception_4c/relu_pool_proj
I0220 20:02:55.018405   138 net.cpp:94] Creating Layer inception_4c/relu_pool_proj
I0220 20:02:55.018414   138 net.cpp:435] inception_4c/relu_pool_proj <- inception_4c/pool_proj
I0220 20:02:55.018440   138 net.cpp:396] inception_4c/relu_pool_proj -> inception_4c/pool_proj (in-place)
I0220 20:02:55.018455   138 net.cpp:144] Setting up inception_4c/relu_pool_proj
I0220 20:02:55.018465   138 net.cpp:151] Top shape: 32 64 14 14 (401408)
I0220 20:02:55.018471   138 net.cpp:159] Memory required for data: 1417331588
I0220 20:02:55.018479   138 layer_factory.hpp:77] Creating layer inception_4c/output
I0220 20:02:55.018491   138 net.cpp:94] Creating Layer inception_4c/output
I0220 20:02:55.018498   138 net.cpp:435] inception_4c/output <- inception_4c/1x1
I0220 20:02:55.018507   138 net.cpp:435] inception_4c/output <- inception_4c/3x3
I0220 20:02:55.018517   138 net.cpp:435] inception_4c/output <- inception_4c/5x5
I0220 20:02:55.018527   138 net.cpp:435] inception_4c/output <- inception_4c/pool_proj
I0220 20:02:55.018539   138 net.cpp:409] inception_4c/output -> inception_4c/output
I0220 20:02:55.018577   138 net.cpp:144] Setting up inception_4c/output
I0220 20:02:55.018589   138 net.cpp:151] Top shape: 32 512 14 14 (3211264)
I0220 20:02:55.018596   138 net.cpp:159] Memory required for data: 1430176644
I0220 20:02:55.018604   138 layer_factory.hpp:77] Creating layer inception_4c/output_inception_4c/output_0_split
I0220 20:02:55.018617   138 net.cpp:94] Creating Layer inception_4c/output_inception_4c/output_0_split
I0220 20:02:55.018625   138 net.cpp:435] inception_4c/output_inception_4c/output_0_split <- inception_4c/output
I0220 20:02:55.018638   138 net.cpp:409] inception_4c/output_inception_4c/output_0_split -> inception_4c/output_inception_4c/output_0_split_0
I0220 20:02:55.018656   138 net.cpp:409] inception_4c/output_inception_4c/output_0_split -> inception_4c/output_inception_4c/output_0_split_1
I0220 20:02:55.018668   138 net.cpp:409] inception_4c/output_inception_4c/output_0_split -> inception_4c/output_inception_4c/output_0_split_2
I0220 20:02:55.018680   138 net.cpp:409] inception_4c/output_inception_4c/output_0_split -> inception_4c/output_inception_4c/output_0_split_3
I0220 20:02:55.018741   138 net.cpp:144] Setting up inception_4c/output_inception_4c/output_0_split
I0220 20:02:55.018754   138 net.cpp:151] Top shape: 32 512 14 14 (3211264)
I0220 20:02:55.018764   138 net.cpp:151] Top shape: 32 512 14 14 (3211264)
I0220 20:02:55.018784   138 net.cpp:151] Top shape: 32 512 14 14 (3211264)
I0220 20:02:55.018795   138 net.cpp:151] Top shape: 32 512 14 14 (3211264)
I0220 20:02:55.018801   138 net.cpp:159] Memory required for data: 1481556868
I0220 20:02:55.018810   138 layer_factory.hpp:77] Creating layer inception_4d/1x1
I0220 20:02:55.018824   138 net.cpp:94] Creating Layer inception_4d/1x1
I0220 20:02:55.018833   138 net.cpp:435] inception_4d/1x1 <- inception_4c/output_inception_4c/output_0_split_0
I0220 20:02:55.018846   138 net.cpp:409] inception_4d/1x1 -> inception_4d/1x1
I0220 20:02:55.019428   138 net.cpp:144] Setting up inception_4d/1x1
I0220 20:02:55.019443   138 net.cpp:151] Top shape: 32 112 14 14 (702464)
I0220 20:02:55.019451   138 net.cpp:159] Memory required for data: 1484366724
I0220 20:02:55.019462   138 layer_factory.hpp:77] Creating layer inception_4d/relu_1x1
I0220 20:02:55.019474   138 net.cpp:94] Creating Layer inception_4d/relu_1x1
I0220 20:02:55.019482   138 net.cpp:435] inception_4d/relu_1x1 <- inception_4d/1x1
I0220 20:02:55.019493   138 net.cpp:396] inception_4d/relu_1x1 -> inception_4d/1x1 (in-place)
I0220 20:02:55.019506   138 net.cpp:144] Setting up inception_4d/relu_1x1
I0220 20:02:55.019515   138 net.cpp:151] Top shape: 32 112 14 14 (702464)
I0220 20:02:55.019523   138 net.cpp:159] Memory required for data: 1487176580
I0220 20:02:55.019533   138 layer_factory.hpp:77] Creating layer inception_4d/3x3_reduce
I0220 20:02:55.019547   138 net.cpp:94] Creating Layer inception_4d/3x3_reduce
I0220 20:02:55.019556   138 net.cpp:435] inception_4d/3x3_reduce <- inception_4c/output_inception_4c/output_0_split_1
I0220 20:02:55.019567   138 net.cpp:409] inception_4d/3x3_reduce -> inception_4d/3x3_reduce
I0220 20:02:55.020282   138 net.cpp:144] Setting up inception_4d/3x3_reduce
I0220 20:02:55.020310   138 net.cpp:151] Top shape: 32 144 14 14 (903168)
I0220 20:02:55.020318   138 net.cpp:159] Memory required for data: 1490789252
I0220 20:02:55.020329   138 layer_factory.hpp:77] Creating layer inception_4d/relu_3x3_reduce
I0220 20:02:55.020341   138 net.cpp:94] Creating Layer inception_4d/relu_3x3_reduce
I0220 20:02:55.020350   138 net.cpp:435] inception_4d/relu_3x3_reduce <- inception_4d/3x3_reduce
I0220 20:02:55.020361   138 net.cpp:396] inception_4d/relu_3x3_reduce -> inception_4d/3x3_reduce (in-place)
I0220 20:02:55.020375   138 net.cpp:144] Setting up inception_4d/relu_3x3_reduce
I0220 20:02:55.020383   138 net.cpp:151] Top shape: 32 144 14 14 (903168)
I0220 20:02:55.020390   138 net.cpp:159] Memory required for data: 1494401924
I0220 20:02:55.020398   138 layer_factory.hpp:77] Creating layer inception_4d/3x3
I0220 20:02:55.020412   138 net.cpp:94] Creating Layer inception_4d/3x3
I0220 20:02:55.020421   138 net.cpp:435] inception_4d/3x3 <- inception_4d/3x3_reduce
I0220 20:02:55.020432   138 net.cpp:409] inception_4d/3x3 -> inception_4d/3x3
I0220 20:02:55.023846   138 net.cpp:144] Setting up inception_4d/3x3
I0220 20:02:55.023865   138 net.cpp:151] Top shape: 32 288 14 14 (1806336)
I0220 20:02:55.023874   138 net.cpp:159] Memory required for data: 1501627268
I0220 20:02:55.023885   138 layer_factory.hpp:77] Creating layer inception_4d/relu_3x3
I0220 20:02:55.023897   138 net.cpp:94] Creating Layer inception_4d/relu_3x3
I0220 20:02:55.023906   138 net.cpp:435] inception_4d/relu_3x3 <- inception_4d/3x3
I0220 20:02:55.023918   138 net.cpp:396] inception_4d/relu_3x3 -> inception_4d/3x3 (in-place)
I0220 20:02:55.023932   138 net.cpp:144] Setting up inception_4d/relu_3x3
I0220 20:02:55.023941   138 net.cpp:151] Top shape: 32 288 14 14 (1806336)
I0220 20:02:55.023948   138 net.cpp:159] Memory required for data: 1508852612
I0220 20:02:55.023957   138 layer_factory.hpp:77] Creating layer inception_4d/5x5_reduce
I0220 20:02:55.023970   138 net.cpp:94] Creating Layer inception_4d/5x5_reduce
I0220 20:02:55.023979   138 net.cpp:435] inception_4d/5x5_reduce <- inception_4c/output_inception_4c/output_0_split_2
I0220 20:02:55.023993   138 net.cpp:409] inception_4d/5x5_reduce -> inception_4d/5x5_reduce
I0220 20:02:55.024348   138 net.cpp:144] Setting up inception_4d/5x5_reduce
I0220 20:02:55.024363   138 net.cpp:151] Top shape: 32 32 14 14 (200704)
I0220 20:02:55.024371   138 net.cpp:159] Memory required for data: 1509655428
I0220 20:02:55.024382   138 layer_factory.hpp:77] Creating layer inception_4d/relu_5x5_reduce
I0220 20:02:55.024394   138 net.cpp:94] Creating Layer inception_4d/relu_5x5_reduce
I0220 20:02:55.024404   138 net.cpp:435] inception_4d/relu_5x5_reduce <- inception_4d/5x5_reduce
I0220 20:02:55.024413   138 net.cpp:396] inception_4d/relu_5x5_reduce -> inception_4d/5x5_reduce (in-place)
I0220 20:02:55.024426   138 net.cpp:144] Setting up inception_4d/relu_5x5_reduce
I0220 20:02:55.024436   138 net.cpp:151] Top shape: 32 32 14 14 (200704)
I0220 20:02:55.024443   138 net.cpp:159] Memory required for data: 1510458244
I0220 20:02:55.024451   138 layer_factory.hpp:77] Creating layer inception_4d/5x5
I0220 20:02:55.024464   138 net.cpp:94] Creating Layer inception_4d/5x5
I0220 20:02:55.024472   138 net.cpp:435] inception_4d/5x5 <- inception_4d/5x5_reduce
I0220 20:02:55.024484   138 net.cpp:409] inception_4d/5x5 -> inception_4d/5x5
I0220 20:02:55.025089   138 net.cpp:144] Setting up inception_4d/5x5
I0220 20:02:55.025104   138 net.cpp:151] Top shape: 32 64 14 14 (401408)
I0220 20:02:55.025113   138 net.cpp:159] Memory required for data: 1512063876
I0220 20:02:55.025123   138 layer_factory.hpp:77] Creating layer inception_4d/relu_5x5
I0220 20:02:55.025135   138 net.cpp:94] Creating Layer inception_4d/relu_5x5
I0220 20:02:55.025144   138 net.cpp:435] inception_4d/relu_5x5 <- inception_4d/5x5
I0220 20:02:55.025156   138 net.cpp:396] inception_4d/relu_5x5 -> inception_4d/5x5 (in-place)
I0220 20:02:55.025168   138 net.cpp:144] Setting up inception_4d/relu_5x5
I0220 20:02:55.025194   138 net.cpp:151] Top shape: 32 64 14 14 (401408)
I0220 20:02:55.025203   138 net.cpp:159] Memory required for data: 1513669508
I0220 20:02:55.025211   138 layer_factory.hpp:77] Creating layer inception_4d/pool
I0220 20:02:55.025223   138 net.cpp:94] Creating Layer inception_4d/pool
I0220 20:02:55.025231   138 net.cpp:435] inception_4d/pool <- inception_4c/output_inception_4c/output_0_split_3
I0220 20:02:55.025243   138 net.cpp:409] inception_4d/pool -> inception_4d/pool
I0220 20:02:55.025295   138 net.cpp:144] Setting up inception_4d/pool
I0220 20:02:55.025307   138 net.cpp:151] Top shape: 32 512 14 14 (3211264)
I0220 20:02:55.025315   138 net.cpp:159] Memory required for data: 1526514564
I0220 20:02:55.025322   138 layer_factory.hpp:77] Creating layer inception_4d/pool_proj
I0220 20:02:55.025336   138 net.cpp:94] Creating Layer inception_4d/pool_proj
I0220 20:02:55.025346   138 net.cpp:435] inception_4d/pool_proj <- inception_4d/pool
I0220 20:02:55.025357   138 net.cpp:409] inception_4d/pool_proj -> inception_4d/pool_proj
I0220 20:02:55.025815   138 net.cpp:144] Setting up inception_4d/pool_proj
I0220 20:02:55.025830   138 net.cpp:151] Top shape: 32 64 14 14 (401408)
I0220 20:02:55.025836   138 net.cpp:159] Memory required for data: 1528120196
I0220 20:02:55.025847   138 layer_factory.hpp:77] Creating layer inception_4d/relu_pool_proj
I0220 20:02:55.025859   138 net.cpp:94] Creating Layer inception_4d/relu_pool_proj
I0220 20:02:55.025867   138 net.cpp:435] inception_4d/relu_pool_proj <- inception_4d/pool_proj
I0220 20:02:55.025882   138 net.cpp:396] inception_4d/relu_pool_proj -> inception_4d/pool_proj (in-place)
I0220 20:02:55.025895   138 net.cpp:144] Setting up inception_4d/relu_pool_proj
I0220 20:02:55.025904   138 net.cpp:151] Top shape: 32 64 14 14 (401408)
I0220 20:02:55.025913   138 net.cpp:159] Memory required for data: 1529725828
I0220 20:02:55.025919   138 layer_factory.hpp:77] Creating layer inception_4d/output
I0220 20:02:55.025930   138 net.cpp:94] Creating Layer inception_4d/output
I0220 20:02:55.025939   138 net.cpp:435] inception_4d/output <- inception_4d/1x1
I0220 20:02:55.025949   138 net.cpp:435] inception_4d/output <- inception_4d/3x3
I0220 20:02:55.025959   138 net.cpp:435] inception_4d/output <- inception_4d/5x5
I0220 20:02:55.025967   138 net.cpp:435] inception_4d/output <- inception_4d/pool_proj
I0220 20:02:55.025977   138 net.cpp:409] inception_4d/output -> inception_4d/output
I0220 20:02:55.026015   138 net.cpp:144] Setting up inception_4d/output
I0220 20:02:55.026038   138 net.cpp:151] Top shape: 32 528 14 14 (3311616)
I0220 20:02:55.026046   138 net.cpp:159] Memory required for data: 1542972292
I0220 20:02:55.026054   138 layer_factory.hpp:77] Creating layer inception_4d/output_inception_4d/output_0_split
I0220 20:02:55.026072   138 net.cpp:94] Creating Layer inception_4d/output_inception_4d/output_0_split
I0220 20:02:55.026080   138 net.cpp:435] inception_4d/output_inception_4d/output_0_split <- inception_4d/output
I0220 20:02:55.026093   138 net.cpp:409] inception_4d/output_inception_4d/output_0_split -> inception_4d/output_inception_4d/output_0_split_0
I0220 20:02:55.026105   138 net.cpp:409] inception_4d/output_inception_4d/output_0_split -> inception_4d/output_inception_4d/output_0_split_1
I0220 20:02:55.026118   138 net.cpp:409] inception_4d/output_inception_4d/output_0_split -> inception_4d/output_inception_4d/output_0_split_2
I0220 20:02:55.026129   138 net.cpp:409] inception_4d/output_inception_4d/output_0_split -> inception_4d/output_inception_4d/output_0_split_3
I0220 20:02:55.026144   138 net.cpp:409] inception_4d/output_inception_4d/output_0_split -> inception_4d/output_inception_4d/output_0_split_4
I0220 20:02:55.026223   138 net.cpp:144] Setting up inception_4d/output_inception_4d/output_0_split
I0220 20:02:55.026235   138 net.cpp:151] Top shape: 32 528 14 14 (3311616)
I0220 20:02:55.026244   138 net.cpp:151] Top shape: 32 528 14 14 (3311616)
I0220 20:02:55.026262   138 net.cpp:151] Top shape: 32 528 14 14 (3311616)
I0220 20:02:55.026270   138 net.cpp:151] Top shape: 32 528 14 14 (3311616)
I0220 20:02:55.026293   138 net.cpp:151] Top shape: 32 528 14 14 (3311616)
I0220 20:02:55.026299   138 net.cpp:159] Memory required for data: 1609204612
I0220 20:02:55.026307   138 layer_factory.hpp:77] Creating layer loss2/ave_pool
I0220 20:02:55.026324   138 net.cpp:94] Creating Layer loss2/ave_pool
I0220 20:02:55.026334   138 net.cpp:435] loss2/ave_pool <- inception_4d/output_inception_4d/output_0_split_0
I0220 20:02:55.026350   138 net.cpp:409] loss2/ave_pool -> loss2/ave_pool
I0220 20:02:55.026393   138 net.cpp:144] Setting up loss2/ave_pool
I0220 20:02:55.026407   138 net.cpp:151] Top shape: 32 528 4 4 (270336)
I0220 20:02:55.026413   138 net.cpp:159] Memory required for data: 1610285956
I0220 20:02:55.026422   138 layer_factory.hpp:77] Creating layer loss2/conv
I0220 20:02:55.026445   138 net.cpp:94] Creating Layer loss2/conv
I0220 20:02:55.026454   138 net.cpp:435] loss2/conv <- loss2/ave_pool
I0220 20:02:55.026469   138 net.cpp:409] loss2/conv -> loss2/conv
I0220 20:02:55.027828   138 net.cpp:144] Setting up loss2/conv
I0220 20:02:55.027846   138 net.cpp:151] Top shape: 32 128 4 4 (65536)
I0220 20:02:55.027854   138 net.cpp:159] Memory required for data: 1610548100
I0220 20:02:55.027865   138 layer_factory.hpp:77] Creating layer loss2/relu_conv
I0220 20:02:55.027878   138 net.cpp:94] Creating Layer loss2/relu_conv
I0220 20:02:55.027886   138 net.cpp:435] loss2/relu_conv <- loss2/conv
I0220 20:02:55.027896   138 net.cpp:396] loss2/relu_conv -> loss2/conv (in-place)
I0220 20:02:55.027909   138 net.cpp:144] Setting up loss2/relu_conv
I0220 20:02:55.027918   138 net.cpp:151] Top shape: 32 128 4 4 (65536)
I0220 20:02:55.027926   138 net.cpp:159] Memory required for data: 1610810244
I0220 20:02:55.027933   138 layer_factory.hpp:77] Creating layer loss2/fc
I0220 20:02:55.027950   138 net.cpp:94] Creating Layer loss2/fc
I0220 20:02:55.027958   138 net.cpp:435] loss2/fc <- loss2/conv
I0220 20:02:55.027971   138 net.cpp:409] loss2/fc -> loss2/fc
I0220 20:02:55.044878   138 net.cpp:144] Setting up loss2/fc
I0220 20:02:55.044911   138 net.cpp:151] Top shape: 32 1024 (32768)
I0220 20:02:55.044919   138 net.cpp:159] Memory required for data: 1610941316
I0220 20:02:55.044934   138 layer_factory.hpp:77] Creating layer loss2/relu_fc
I0220 20:02:55.044951   138 net.cpp:94] Creating Layer loss2/relu_fc
I0220 20:02:55.044961   138 net.cpp:435] loss2/relu_fc <- loss2/fc
I0220 20:02:55.044975   138 net.cpp:396] loss2/relu_fc -> loss2/fc (in-place)
I0220 20:02:55.044991   138 net.cpp:144] Setting up loss2/relu_fc
I0220 20:02:55.045001   138 net.cpp:151] Top shape: 32 1024 (32768)
I0220 20:02:55.045007   138 net.cpp:159] Memory required for data: 1611072388
I0220 20:02:55.045015   138 layer_factory.hpp:77] Creating layer loss2/drop_fc
I0220 20:02:55.045038   138 net.cpp:94] Creating Layer loss2/drop_fc
I0220 20:02:55.045048   138 net.cpp:435] loss2/drop_fc <- loss2/fc
I0220 20:02:55.045058   138 net.cpp:396] loss2/drop_fc -> loss2/fc (in-place)
I0220 20:02:55.045099   138 net.cpp:144] Setting up loss2/drop_fc
I0220 20:02:55.045110   138 net.cpp:151] Top shape: 32 1024 (32768)
I0220 20:02:55.045117   138 net.cpp:159] Memory required for data: 1611203460
I0220 20:02:55.045125   138 layer_factory.hpp:77] Creating layer loss2/classifier
I0220 20:02:55.045138   138 net.cpp:94] Creating Layer loss2/classifier
I0220 20:02:55.045147   138 net.cpp:435] loss2/classifier <- loss2/fc
I0220 20:02:55.045161   138 net.cpp:409] loss2/classifier -> loss2/classifier
I0220 20:02:55.045308   138 net.cpp:144] Setting up loss2/classifier
I0220 20:02:55.045320   138 net.cpp:151] Top shape: 32 3 (96)
I0220 20:02:55.045327   138 net.cpp:159] Memory required for data: 1611203844
I0220 20:02:55.045338   138 layer_factory.hpp:77] Creating layer loss2/loss
I0220 20:02:55.045351   138 net.cpp:94] Creating Layer loss2/loss
I0220 20:02:55.045359   138 net.cpp:435] loss2/loss <- loss2/classifier
I0220 20:02:55.045369   138 net.cpp:435] loss2/loss <- label_train-data_1_split_1
I0220 20:02:55.045384   138 net.cpp:409] loss2/loss -> loss2/loss
I0220 20:02:55.045423   138 layer_factory.hpp:77] Creating layer loss2/loss
I0220 20:02:55.045536   138 net.cpp:144] Setting up loss2/loss
I0220 20:02:55.045549   138 net.cpp:151] Top shape: (1)
I0220 20:02:55.045557   138 net.cpp:154]     with loss weight 0.3
I0220 20:02:55.045573   138 net.cpp:159] Memory required for data: 1611203848
I0220 20:02:55.045581   138 layer_factory.hpp:77] Creating layer inception_4e/1x1
I0220 20:02:55.045598   138 net.cpp:94] Creating Layer inception_4e/1x1
I0220 20:02:55.045606   138 net.cpp:435] inception_4e/1x1 <- inception_4d/output_inception_4d/output_0_split_1
I0220 20:02:55.045622   138 net.cpp:409] inception_4e/1x1 -> inception_4e/1x1
I0220 20:02:55.046813   138 net.cpp:144] Setting up inception_4e/1x1
I0220 20:02:55.046828   138 net.cpp:151] Top shape: 32 256 14 14 (1605632)
I0220 20:02:55.046836   138 net.cpp:159] Memory required for data: 1617626376
I0220 20:02:55.046847   138 layer_factory.hpp:77] Creating layer inception_4e/relu_1x1
I0220 20:02:55.046861   138 net.cpp:94] Creating Layer inception_4e/relu_1x1
I0220 20:02:55.046870   138 net.cpp:435] inception_4e/relu_1x1 <- inception_4e/1x1
I0220 20:02:55.046881   138 net.cpp:396] inception_4e/relu_1x1 -> inception_4e/1x1 (in-place)
I0220 20:02:55.046895   138 net.cpp:144] Setting up inception_4e/relu_1x1
I0220 20:02:55.046905   138 net.cpp:151] Top shape: 32 256 14 14 (1605632)
I0220 20:02:55.046911   138 net.cpp:159] Memory required for data: 1624048904
I0220 20:02:55.046919   138 layer_factory.hpp:77] Creating layer inception_4e/3x3_reduce
I0220 20:02:55.046936   138 net.cpp:94] Creating Layer inception_4e/3x3_reduce
I0220 20:02:55.046944   138 net.cpp:435] inception_4e/3x3_reduce <- inception_4d/output_inception_4d/output_0_split_2
I0220 20:02:55.046958   138 net.cpp:409] inception_4e/3x3_reduce -> inception_4e/3x3_reduce
I0220 20:02:55.048544   138 net.cpp:144] Setting up inception_4e/3x3_reduce
I0220 20:02:55.048563   138 net.cpp:151] Top shape: 32 160 14 14 (1003520)
I0220 20:02:55.048570   138 net.cpp:159] Memory required for data: 1628062984
I0220 20:02:55.048583   138 layer_factory.hpp:77] Creating layer inception_4e/relu_3x3_reduce
I0220 20:02:55.048594   138 net.cpp:94] Creating Layer inception_4e/relu_3x3_reduce
I0220 20:02:55.048604   138 net.cpp:435] inception_4e/relu_3x3_reduce <- inception_4e/3x3_reduce
I0220 20:02:55.048614   138 net.cpp:396] inception_4e/relu_3x3_reduce -> inception_4e/3x3_reduce (in-place)
I0220 20:02:55.048629   138 net.cpp:144] Setting up inception_4e/relu_3x3_reduce
I0220 20:02:55.048637   138 net.cpp:151] Top shape: 32 160 14 14 (1003520)
I0220 20:02:55.048645   138 net.cpp:159] Memory required for data: 1632077064
I0220 20:02:55.048652   138 layer_factory.hpp:77] Creating layer inception_4e/3x3
I0220 20:02:55.048672   138 net.cpp:94] Creating Layer inception_4e/3x3
I0220 20:02:55.048681   138 net.cpp:435] inception_4e/3x3 <- inception_4e/3x3_reduce
I0220 20:02:55.048692   138 net.cpp:409] inception_4e/3x3 -> inception_4e/3x3
I0220 20:02:55.052848   138 net.cpp:144] Setting up inception_4e/3x3
I0220 20:02:55.052867   138 net.cpp:151] Top shape: 32 320 14 14 (2007040)
I0220 20:02:55.052875   138 net.cpp:159] Memory required for data: 1640105224
I0220 20:02:55.052886   138 layer_factory.hpp:77] Creating layer inception_4e/relu_3x3
I0220 20:02:55.052898   138 net.cpp:94] Creating Layer inception_4e/relu_3x3
I0220 20:02:55.052907   138 net.cpp:435] inception_4e/relu_3x3 <- inception_4e/3x3
I0220 20:02:55.052922   138 net.cpp:396] inception_4e/relu_3x3 -> inception_4e/3x3 (in-place)
I0220 20:02:55.052935   138 net.cpp:144] Setting up inception_4e/relu_3x3
I0220 20:02:55.052945   138 net.cpp:151] Top shape: 32 320 14 14 (2007040)
I0220 20:02:55.052953   138 net.cpp:159] Memory required for data: 1648133384
I0220 20:02:55.052960   138 layer_factory.hpp:77] Creating layer inception_4e/5x5_reduce
I0220 20:02:55.052976   138 net.cpp:94] Creating Layer inception_4e/5x5_reduce
I0220 20:02:55.052985   138 net.cpp:435] inception_4e/5x5_reduce <- inception_4d/output_inception_4d/output_0_split_3
I0220 20:02:55.053017   138 net.cpp:409] inception_4e/5x5_reduce -> inception_4e/5x5_reduce
I0220 20:02:55.053416   138 net.cpp:144] Setting up inception_4e/5x5_reduce
I0220 20:02:55.053434   138 net.cpp:151] Top shape: 32 32 14 14 (200704)
I0220 20:02:55.053442   138 net.cpp:159] Memory required for data: 1648936200
I0220 20:02:55.053453   138 layer_factory.hpp:77] Creating layer inception_4e/relu_5x5_reduce
I0220 20:02:55.053464   138 net.cpp:94] Creating Layer inception_4e/relu_5x5_reduce
I0220 20:02:55.053473   138 net.cpp:435] inception_4e/relu_5x5_reduce <- inception_4e/5x5_reduce
I0220 20:02:55.053483   138 net.cpp:396] inception_4e/relu_5x5_reduce -> inception_4e/5x5_reduce (in-place)
I0220 20:02:55.053496   138 net.cpp:144] Setting up inception_4e/relu_5x5_reduce
I0220 20:02:55.053506   138 net.cpp:151] Top shape: 32 32 14 14 (200704)
I0220 20:02:55.053514   138 net.cpp:159] Memory required for data: 1649739016
I0220 20:02:55.053521   138 layer_factory.hpp:77] Creating layer inception_4e/5x5
I0220 20:02:55.053575   138 net.cpp:94] Creating Layer inception_4e/5x5
I0220 20:02:55.053583   138 net.cpp:435] inception_4e/5x5 <- inception_4e/5x5_reduce
I0220 20:02:55.053596   138 net.cpp:409] inception_4e/5x5 -> inception_4e/5x5
I0220 20:02:55.054499   138 net.cpp:144] Setting up inception_4e/5x5
I0220 20:02:55.054514   138 net.cpp:151] Top shape: 32 128 14 14 (802816)
I0220 20:02:55.054522   138 net.cpp:159] Memory required for data: 1652950280
I0220 20:02:55.054535   138 layer_factory.hpp:77] Creating layer inception_4e/relu_5x5
I0220 20:02:55.054549   138 net.cpp:94] Creating Layer inception_4e/relu_5x5
I0220 20:02:55.054559   138 net.cpp:435] inception_4e/relu_5x5 <- inception_4e/5x5
I0220 20:02:55.054569   138 net.cpp:396] inception_4e/relu_5x5 -> inception_4e/5x5 (in-place)
I0220 20:02:55.054582   138 net.cpp:144] Setting up inception_4e/relu_5x5
I0220 20:02:55.054592   138 net.cpp:151] Top shape: 32 128 14 14 (802816)
I0220 20:02:55.054600   138 net.cpp:159] Memory required for data: 1656161544
I0220 20:02:55.054607   138 layer_factory.hpp:77] Creating layer inception_4e/pool
I0220 20:02:55.054618   138 net.cpp:94] Creating Layer inception_4e/pool
I0220 20:02:55.054626   138 net.cpp:435] inception_4e/pool <- inception_4d/output_inception_4d/output_0_split_4
I0220 20:02:55.054637   138 net.cpp:409] inception_4e/pool -> inception_4e/pool
I0220 20:02:55.054700   138 net.cpp:144] Setting up inception_4e/pool
I0220 20:02:55.054713   138 net.cpp:151] Top shape: 32 528 14 14 (3311616)
I0220 20:02:55.054720   138 net.cpp:159] Memory required for data: 1669408008
I0220 20:02:55.054728   138 layer_factory.hpp:77] Creating layer inception_4e/pool_proj
I0220 20:02:55.054744   138 net.cpp:94] Creating Layer inception_4e/pool_proj
I0220 20:02:55.054754   138 net.cpp:435] inception_4e/pool_proj <- inception_4e/pool
I0220 20:02:55.054767   138 net.cpp:409] inception_4e/pool_proj -> inception_4e/pool_proj
I0220 20:02:55.055471   138 net.cpp:144] Setting up inception_4e/pool_proj
I0220 20:02:55.055486   138 net.cpp:151] Top shape: 32 128 14 14 (802816)
I0220 20:02:55.055495   138 net.cpp:159] Memory required for data: 1672619272
I0220 20:02:55.055505   138 layer_factory.hpp:77] Creating layer inception_4e/relu_pool_proj
I0220 20:02:55.055516   138 net.cpp:94] Creating Layer inception_4e/relu_pool_proj
I0220 20:02:55.055526   138 net.cpp:435] inception_4e/relu_pool_proj <- inception_4e/pool_proj
I0220 20:02:55.055537   138 net.cpp:396] inception_4e/relu_pool_proj -> inception_4e/pool_proj (in-place)
I0220 20:02:55.055550   138 net.cpp:144] Setting up inception_4e/relu_pool_proj
I0220 20:02:55.055560   138 net.cpp:151] Top shape: 32 128 14 14 (802816)
I0220 20:02:55.055567   138 net.cpp:159] Memory required for data: 1675830536
I0220 20:02:55.055574   138 layer_factory.hpp:77] Creating layer inception_4e/output
I0220 20:02:55.055589   138 net.cpp:94] Creating Layer inception_4e/output
I0220 20:02:55.055598   138 net.cpp:435] inception_4e/output <- inception_4e/1x1
I0220 20:02:55.055608   138 net.cpp:435] inception_4e/output <- inception_4e/3x3
I0220 20:02:55.055630   138 net.cpp:435] inception_4e/output <- inception_4e/5x5
I0220 20:02:55.055640   138 net.cpp:435] inception_4e/output <- inception_4e/pool_proj
I0220 20:02:55.055650   138 net.cpp:409] inception_4e/output -> inception_4e/output
I0220 20:02:55.055694   138 net.cpp:144] Setting up inception_4e/output
I0220 20:02:55.055706   138 net.cpp:151] Top shape: 32 832 14 14 (5218304)
I0220 20:02:55.055714   138 net.cpp:159] Memory required for data: 1696703752
I0220 20:02:55.055721   138 layer_factory.hpp:77] Creating layer pool4/3x3_s2
I0220 20:02:55.055737   138 net.cpp:94] Creating Layer pool4/3x3_s2
I0220 20:02:55.055745   138 net.cpp:435] pool4/3x3_s2 <- inception_4e/output
I0220 20:02:55.055799   138 net.cpp:409] pool4/3x3_s2 -> pool4/3x3_s2
I0220 20:02:55.055860   138 net.cpp:144] Setting up pool4/3x3_s2
I0220 20:02:55.055872   138 net.cpp:151] Top shape: 32 832 7 7 (1304576)
I0220 20:02:55.055879   138 net.cpp:159] Memory required for data: 1701922056
I0220 20:02:55.055887   138 layer_factory.hpp:77] Creating layer pool4/3x3_s2_pool4/3x3_s2_0_split
I0220 20:02:55.055899   138 net.cpp:94] Creating Layer pool4/3x3_s2_pool4/3x3_s2_0_split
I0220 20:02:55.055907   138 net.cpp:435] pool4/3x3_s2_pool4/3x3_s2_0_split <- pool4/3x3_s2
I0220 20:02:55.055922   138 net.cpp:409] pool4/3x3_s2_pool4/3x3_s2_0_split -> pool4/3x3_s2_pool4/3x3_s2_0_split_0
I0220 20:02:55.055933   138 net.cpp:409] pool4/3x3_s2_pool4/3x3_s2_0_split -> pool4/3x3_s2_pool4/3x3_s2_0_split_1
I0220 20:02:55.055959   138 net.cpp:409] pool4/3x3_s2_pool4/3x3_s2_0_split -> pool4/3x3_s2_pool4/3x3_s2_0_split_2
I0220 20:02:55.055974   138 net.cpp:409] pool4/3x3_s2_pool4/3x3_s2_0_split -> pool4/3x3_s2_pool4/3x3_s2_0_split_3
I0220 20:02:55.056061   138 net.cpp:144] Setting up pool4/3x3_s2_pool4/3x3_s2_0_split
I0220 20:02:55.056073   138 net.cpp:151] Top shape: 32 832 7 7 (1304576)
I0220 20:02:55.056082   138 net.cpp:151] Top shape: 32 832 7 7 (1304576)
I0220 20:02:55.056090   138 net.cpp:151] Top shape: 32 832 7 7 (1304576)
I0220 20:02:55.056098   138 net.cpp:151] Top shape: 32 832 7 7 (1304576)
I0220 20:02:55.056105   138 net.cpp:159] Memory required for data: 1722795272
I0220 20:02:55.056113   138 layer_factory.hpp:77] Creating layer inception_5a/1x1
I0220 20:02:55.056145   138 net.cpp:94] Creating Layer inception_5a/1x1
I0220 20:02:55.056154   138 net.cpp:435] inception_5a/1x1 <- pool4/3x3_s2_pool4/3x3_s2_0_split_0
I0220 20:02:55.056169   138 net.cpp:409] inception_5a/1x1 -> inception_5a/1x1
I0220 20:02:55.058409   138 net.cpp:144] Setting up inception_5a/1x1
I0220 20:02:55.058427   138 net.cpp:151] Top shape: 32 256 7 7 (401408)
I0220 20:02:55.058435   138 net.cpp:159] Memory required for data: 1724400904
I0220 20:02:55.058446   138 layer_factory.hpp:77] Creating layer inception_5a/relu_1x1
I0220 20:02:55.058459   138 net.cpp:94] Creating Layer inception_5a/relu_1x1
I0220 20:02:55.058467   138 net.cpp:435] inception_5a/relu_1x1 <- inception_5a/1x1
I0220 20:02:55.058482   138 net.cpp:396] inception_5a/relu_1x1 -> inception_5a/1x1 (in-place)
I0220 20:02:55.058496   138 net.cpp:144] Setting up inception_5a/relu_1x1
I0220 20:02:55.058506   138 net.cpp:151] Top shape: 32 256 7 7 (401408)
I0220 20:02:55.058513   138 net.cpp:159] Memory required for data: 1726006536
I0220 20:02:55.058521   138 layer_factory.hpp:77] Creating layer inception_5a/3x3_reduce
I0220 20:02:55.058539   138 net.cpp:94] Creating Layer inception_5a/3x3_reduce
I0220 20:02:55.058549   138 net.cpp:435] inception_5a/3x3_reduce <- pool4/3x3_s2_pool4/3x3_s2_0_split_1
I0220 20:02:55.058564   138 net.cpp:409] inception_5a/3x3_reduce -> inception_5a/3x3_reduce
I0220 20:02:55.060328   138 net.cpp:144] Setting up inception_5a/3x3_reduce
I0220 20:02:55.060346   138 net.cpp:151] Top shape: 32 160 7 7 (250880)
I0220 20:02:55.060354   138 net.cpp:159] Memory required for data: 1727010056
I0220 20:02:55.060365   138 layer_factory.hpp:77] Creating layer inception_5a/relu_3x3_reduce
I0220 20:02:55.060380   138 net.cpp:94] Creating Layer inception_5a/relu_3x3_reduce
I0220 20:02:55.060407   138 net.cpp:435] inception_5a/relu_3x3_reduce <- inception_5a/3x3_reduce
I0220 20:02:55.060420   138 net.cpp:396] inception_5a/relu_3x3_reduce -> inception_5a/3x3_reduce (in-place)
I0220 20:02:55.060433   138 net.cpp:144] Setting up inception_5a/relu_3x3_reduce
I0220 20:02:55.060446   138 net.cpp:151] Top shape: 32 160 7 7 (250880)
I0220 20:02:55.060454   138 net.cpp:159] Memory required for data: 1728013576
I0220 20:02:55.060462   138 layer_factory.hpp:77] Creating layer inception_5a/3x3
I0220 20:02:55.060477   138 net.cpp:94] Creating Layer inception_5a/3x3
I0220 20:02:55.060484   138 net.cpp:435] inception_5a/3x3 <- inception_5a/3x3_reduce
I0220 20:02:55.060499   138 net.cpp:409] inception_5a/3x3 -> inception_5a/3x3
I0220 20:02:55.064607   138 net.cpp:144] Setting up inception_5a/3x3
I0220 20:02:55.064626   138 net.cpp:151] Top shape: 32 320 7 7 (501760)
I0220 20:02:55.064635   138 net.cpp:159] Memory required for data: 1730020616
I0220 20:02:55.064646   138 layer_factory.hpp:77] Creating layer inception_5a/relu_3x3
I0220 20:02:55.064658   138 net.cpp:94] Creating Layer inception_5a/relu_3x3
I0220 20:02:55.064666   138 net.cpp:435] inception_5a/relu_3x3 <- inception_5a/3x3
I0220 20:02:55.064680   138 net.cpp:396] inception_5a/relu_3x3 -> inception_5a/3x3 (in-place)
I0220 20:02:55.064695   138 net.cpp:144] Setting up inception_5a/relu_3x3
I0220 20:02:55.064705   138 net.cpp:151] Top shape: 32 320 7 7 (501760)
I0220 20:02:55.064713   138 net.cpp:159] Memory required for data: 1732027656
I0220 20:02:55.064720   138 layer_factory.hpp:77] Creating layer inception_5a/5x5_reduce
I0220 20:02:55.064736   138 net.cpp:94] Creating Layer inception_5a/5x5_reduce
I0220 20:02:55.064745   138 net.cpp:435] inception_5a/5x5_reduce <- pool4/3x3_s2_pool4/3x3_s2_0_split_2
I0220 20:02:55.064805   138 net.cpp:409] inception_5a/5x5_reduce -> inception_5a/5x5_reduce
I0220 20:02:55.065291   138 net.cpp:144] Setting up inception_5a/5x5_reduce
I0220 20:02:55.065306   138 net.cpp:151] Top shape: 32 32 7 7 (50176)
I0220 20:02:55.065315   138 net.cpp:159] Memory required for data: 1732228360
I0220 20:02:55.065325   138 layer_factory.hpp:77] Creating layer inception_5a/relu_5x5_reduce
I0220 20:02:55.065340   138 net.cpp:94] Creating Layer inception_5a/relu_5x5_reduce
I0220 20:02:55.065349   138 net.cpp:435] inception_5a/relu_5x5_reduce <- inception_5a/5x5_reduce
I0220 20:02:55.065359   138 net.cpp:396] inception_5a/relu_5x5_reduce -> inception_5a/5x5_reduce (in-place)
I0220 20:02:55.065372   138 net.cpp:144] Setting up inception_5a/relu_5x5_reduce
I0220 20:02:55.065382   138 net.cpp:151] Top shape: 32 32 7 7 (50176)
I0220 20:02:55.065388   138 net.cpp:159] Memory required for data: 1732429064
I0220 20:02:55.065397   138 layer_factory.hpp:77] Creating layer inception_5a/5x5
I0220 20:02:55.065413   138 net.cpp:94] Creating Layer inception_5a/5x5
I0220 20:02:55.065421   138 net.cpp:435] inception_5a/5x5 <- inception_5a/5x5_reduce
I0220 20:02:55.065436   138 net.cpp:409] inception_5a/5x5 -> inception_5a/5x5
I0220 20:02:55.066357   138 net.cpp:144] Setting up inception_5a/5x5
I0220 20:02:55.066371   138 net.cpp:151] Top shape: 32 128 7 7 (200704)
I0220 20:02:55.066380   138 net.cpp:159] Memory required for data: 1733231880
I0220 20:02:55.066390   138 layer_factory.hpp:77] Creating layer inception_5a/relu_5x5
I0220 20:02:55.066401   138 net.cpp:94] Creating Layer inception_5a/relu_5x5
I0220 20:02:55.066411   138 net.cpp:435] inception_5a/relu_5x5 <- inception_5a/5x5
I0220 20:02:55.066421   138 net.cpp:396] inception_5a/relu_5x5 -> inception_5a/5x5 (in-place)
I0220 20:02:55.066433   138 net.cpp:144] Setting up inception_5a/relu_5x5
I0220 20:02:55.066447   138 net.cpp:151] Top shape: 32 128 7 7 (200704)
I0220 20:02:55.066453   138 net.cpp:159] Memory required for data: 1734034696
I0220 20:02:55.066462   138 layer_factory.hpp:77] Creating layer inception_5a/pool
I0220 20:02:55.066473   138 net.cpp:94] Creating Layer inception_5a/pool
I0220 20:02:55.066480   138 net.cpp:435] inception_5a/pool <- pool4/3x3_s2_pool4/3x3_s2_0_split_3
I0220 20:02:55.066491   138 net.cpp:409] inception_5a/pool -> inception_5a/pool
I0220 20:02:55.066573   138 net.cpp:144] Setting up inception_5a/pool
I0220 20:02:55.066586   138 net.cpp:151] Top shape: 32 832 7 7 (1304576)
I0220 20:02:55.066594   138 net.cpp:159] Memory required for data: 1739253000
I0220 20:02:55.066602   138 layer_factory.hpp:77] Creating layer inception_5a/pool_proj
I0220 20:02:55.066618   138 net.cpp:94] Creating Layer inception_5a/pool_proj
I0220 20:02:55.066627   138 net.cpp:435] inception_5a/pool_proj <- inception_5a/pool
I0220 20:02:55.066642   138 net.cpp:409] inception_5a/pool_proj -> inception_5a/pool_proj
I0220 20:02:55.068248   138 net.cpp:144] Setting up inception_5a/pool_proj
I0220 20:02:55.068265   138 net.cpp:151] Top shape: 32 128 7 7 (200704)
I0220 20:02:55.068274   138 net.cpp:159] Memory required for data: 1740055816
I0220 20:02:55.068284   138 layer_factory.hpp:77] Creating layer inception_5a/relu_pool_proj
I0220 20:02:55.068296   138 net.cpp:94] Creating Layer inception_5a/relu_pool_proj
I0220 20:02:55.068305   138 net.cpp:435] inception_5a/relu_pool_proj <- inception_5a/pool_proj
I0220 20:02:55.068320   138 net.cpp:396] inception_5a/relu_pool_proj -> inception_5a/pool_proj (in-place)
I0220 20:02:55.068334   138 net.cpp:144] Setting up inception_5a/relu_pool_proj
I0220 20:02:55.068344   138 net.cpp:151] Top shape: 32 128 7 7 (200704)
I0220 20:02:55.068351   138 net.cpp:159] Memory required for data: 1740858632
I0220 20:02:55.068359   138 layer_factory.hpp:77] Creating layer inception_5a/output
I0220 20:02:55.068369   138 net.cpp:94] Creating Layer inception_5a/output
I0220 20:02:55.068377   138 net.cpp:435] inception_5a/output <- inception_5a/1x1
I0220 20:02:55.068387   138 net.cpp:435] inception_5a/output <- inception_5a/3x3
I0220 20:02:55.068397   138 net.cpp:435] inception_5a/output <- inception_5a/5x5
I0220 20:02:55.068405   138 net.cpp:435] inception_5a/output <- inception_5a/pool_proj
I0220 20:02:55.068419   138 net.cpp:409] inception_5a/output -> inception_5a/output
I0220 20:02:55.068459   138 net.cpp:144] Setting up inception_5a/output
I0220 20:02:55.068475   138 net.cpp:151] Top shape: 32 832 7 7 (1304576)
I0220 20:02:55.068483   138 net.cpp:159] Memory required for data: 1746076936
I0220 20:02:55.068491   138 layer_factory.hpp:77] Creating layer inception_5a/output_inception_5a/output_0_split
I0220 20:02:55.068502   138 net.cpp:94] Creating Layer inception_5a/output_inception_5a/output_0_split
I0220 20:02:55.068511   138 net.cpp:435] inception_5a/output_inception_5a/output_0_split <- inception_5a/output
I0220 20:02:55.068526   138 net.cpp:409] inception_5a/output_inception_5a/output_0_split -> inception_5a/output_inception_5a/output_0_split_0
I0220 20:02:55.068542   138 net.cpp:409] inception_5a/output_inception_5a/output_0_split -> inception_5a/output_inception_5a/output_0_split_1
I0220 20:02:55.068553   138 net.cpp:409] inception_5a/output_inception_5a/output_0_split -> inception_5a/output_inception_5a/output_0_split_2
I0220 20:02:55.068564   138 net.cpp:409] inception_5a/output_inception_5a/output_0_split -> inception_5a/output_inception_5a/output_0_split_3
I0220 20:02:55.068646   138 net.cpp:144] Setting up inception_5a/output_inception_5a/output_0_split
I0220 20:02:55.068658   138 net.cpp:151] Top shape: 32 832 7 7 (1304576)
I0220 20:02:55.068666   138 net.cpp:151] Top shape: 32 832 7 7 (1304576)
I0220 20:02:55.068675   138 net.cpp:151] Top shape: 32 832 7 7 (1304576)
I0220 20:02:55.068683   138 net.cpp:151] Top shape: 32 832 7 7 (1304576)
I0220 20:02:55.068691   138 net.cpp:159] Memory required for data: 1766950152
I0220 20:02:55.068698   138 layer_factory.hpp:77] Creating layer inception_5b/1x1
I0220 20:02:55.068715   138 net.cpp:94] Creating Layer inception_5b/1x1
I0220 20:02:55.068724   138 net.cpp:435] inception_5b/1x1 <- inception_5a/output_inception_5a/output_0_split_0
I0220 20:02:55.068739   138 net.cpp:409] inception_5b/1x1 -> inception_5b/1x1
I0220 20:02:55.071724   138 net.cpp:144] Setting up inception_5b/1x1
I0220 20:02:55.071743   138 net.cpp:151] Top shape: 32 384 7 7 (602112)
I0220 20:02:55.071765   138 net.cpp:159] Memory required for data: 1769358600
I0220 20:02:55.071790   138 layer_factory.hpp:77] Creating layer inception_5b/relu_1x1
I0220 20:02:55.071805   138 net.cpp:94] Creating Layer inception_5b/relu_1x1
I0220 20:02:55.071813   138 net.cpp:435] inception_5b/relu_1x1 <- inception_5b/1x1
I0220 20:02:55.071823   138 net.cpp:396] inception_5b/relu_1x1 -> inception_5b/1x1 (in-place)
I0220 20:02:55.071837   138 net.cpp:144] Setting up inception_5b/relu_1x1
I0220 20:02:55.071847   138 net.cpp:151] Top shape: 32 384 7 7 (602112)
I0220 20:02:55.071856   138 net.cpp:159] Memory required for data: 1771767048
I0220 20:02:55.071862   138 layer_factory.hpp:77] Creating layer inception_5b/3x3_reduce
I0220 20:02:55.071882   138 net.cpp:94] Creating Layer inception_5b/3x3_reduce
I0220 20:02:55.071892   138 net.cpp:435] inception_5b/3x3_reduce <- inception_5a/output_inception_5a/output_0_split_1
I0220 20:02:55.071903   138 net.cpp:409] inception_5b/3x3_reduce -> inception_5b/3x3_reduce
I0220 20:02:55.073907   138 net.cpp:144] Setting up inception_5b/3x3_reduce
I0220 20:02:55.073930   138 net.cpp:151] Top shape: 32 192 7 7 (301056)
I0220 20:02:55.073938   138 net.cpp:159] Memory required for data: 1772971272
I0220 20:02:55.073949   138 layer_factory.hpp:77] Creating layer inception_5b/relu_3x3_reduce
I0220 20:02:55.073961   138 net.cpp:94] Creating Layer inception_5b/relu_3x3_reduce
I0220 20:02:55.073971   138 net.cpp:435] inception_5b/relu_3x3_reduce <- inception_5b/3x3_reduce
I0220 20:02:55.073981   138 net.cpp:396] inception_5b/relu_3x3_reduce -> inception_5b/3x3_reduce (in-place)
I0220 20:02:55.073994   138 net.cpp:144] Setting up inception_5b/relu_3x3_reduce
I0220 20:02:55.074004   138 net.cpp:151] Top shape: 32 192 7 7 (301056)
I0220 20:02:55.074012   138 net.cpp:159] Memory required for data: 1774175496
I0220 20:02:55.074019   138 layer_factory.hpp:77] Creating layer inception_5b/3x3
I0220 20:02:55.074046   138 net.cpp:94] Creating Layer inception_5b/3x3
I0220 20:02:55.074055   138 net.cpp:435] inception_5b/3x3 <- inception_5b/3x3_reduce
I0220 20:02:55.074070   138 net.cpp:409] inception_5b/3x3 -> inception_5b/3x3
I0220 20:02:55.079828   138 net.cpp:144] Setting up inception_5b/3x3
I0220 20:02:55.079846   138 net.cpp:151] Top shape: 32 384 7 7 (602112)
I0220 20:02:55.079854   138 net.cpp:159] Memory required for data: 1776583944
I0220 20:02:55.079866   138 layer_factory.hpp:77] Creating layer inception_5b/relu_3x3
I0220 20:02:55.079879   138 net.cpp:94] Creating Layer inception_5b/relu_3x3
I0220 20:02:55.079887   138 net.cpp:435] inception_5b/relu_3x3 <- inception_5b/3x3
I0220 20:02:55.079901   138 net.cpp:396] inception_5b/relu_3x3 -> inception_5b/3x3 (in-place)
I0220 20:02:55.079916   138 net.cpp:144] Setting up inception_5b/relu_3x3
I0220 20:02:55.079926   138 net.cpp:151] Top shape: 32 384 7 7 (602112)
I0220 20:02:55.079933   138 net.cpp:159] Memory required for data: 1778992392
I0220 20:02:55.079941   138 layer_factory.hpp:77] Creating layer inception_5b/5x5_reduce
I0220 20:02:55.079957   138 net.cpp:94] Creating Layer inception_5b/5x5_reduce
I0220 20:02:55.079967   138 net.cpp:435] inception_5b/5x5_reduce <- inception_5a/output_inception_5a/output_0_split_2
I0220 20:02:55.079978   138 net.cpp:409] inception_5b/5x5_reduce -> inception_5b/5x5_reduce
I0220 20:02:55.081254   138 net.cpp:144] Setting up inception_5b/5x5_reduce
I0220 20:02:55.081276   138 net.cpp:151] Top shape: 32 48 7 7 (75264)
I0220 20:02:55.081284   138 net.cpp:159] Memory required for data: 1779293448
I0220 20:02:55.081296   138 layer_factory.hpp:77] Creating layer inception_5b/relu_5x5_reduce
I0220 20:02:55.081308   138 net.cpp:94] Creating Layer inception_5b/relu_5x5_reduce
I0220 20:02:55.081317   138 net.cpp:435] inception_5b/relu_5x5_reduce <- inception_5b/5x5_reduce
I0220 20:02:55.081328   138 net.cpp:396] inception_5b/relu_5x5_reduce -> inception_5b/5x5_reduce (in-place)
I0220 20:02:55.081342   138 net.cpp:144] Setting up inception_5b/relu_5x5_reduce
I0220 20:02:55.081351   138 net.cpp:151] Top shape: 32 48 7 7 (75264)
I0220 20:02:55.081374   138 net.cpp:159] Memory required for data: 1779594504
I0220 20:02:55.081383   138 layer_factory.hpp:77] Creating layer inception_5b/5x5
I0220 20:02:55.081404   138 net.cpp:94] Creating Layer inception_5b/5x5
I0220 20:02:55.081413   138 net.cpp:435] inception_5b/5x5 <- inception_5b/5x5_reduce
I0220 20:02:55.081425   138 net.cpp:409] inception_5b/5x5 -> inception_5b/5x5
I0220 20:02:55.082792   138 net.cpp:144] Setting up inception_5b/5x5
I0220 20:02:55.082808   138 net.cpp:151] Top shape: 32 128 7 7 (200704)
I0220 20:02:55.082815   138 net.cpp:159] Memory required for data: 1780397320
I0220 20:02:55.082826   138 layer_factory.hpp:77] Creating layer inception_5b/relu_5x5
I0220 20:02:55.082837   138 net.cpp:94] Creating Layer inception_5b/relu_5x5
I0220 20:02:55.082846   138 net.cpp:435] inception_5b/relu_5x5 <- inception_5b/5x5
I0220 20:02:55.082857   138 net.cpp:396] inception_5b/relu_5x5 -> inception_5b/5x5 (in-place)
I0220 20:02:55.082873   138 net.cpp:144] Setting up inception_5b/relu_5x5
I0220 20:02:55.082883   138 net.cpp:151] Top shape: 32 128 7 7 (200704)
I0220 20:02:55.082890   138 net.cpp:159] Memory required for data: 1781200136
I0220 20:02:55.082898   138 layer_factory.hpp:77] Creating layer inception_5b/pool
I0220 20:02:55.082909   138 net.cpp:94] Creating Layer inception_5b/pool
I0220 20:02:55.082917   138 net.cpp:435] inception_5b/pool <- inception_5a/output_inception_5a/output_0_split_3
I0220 20:02:55.082932   138 net.cpp:409] inception_5b/pool -> inception_5b/pool
I0220 20:02:55.082988   138 net.cpp:144] Setting up inception_5b/pool
I0220 20:02:55.083004   138 net.cpp:151] Top shape: 32 832 7 7 (1304576)
I0220 20:02:55.083011   138 net.cpp:159] Memory required for data: 1786418440
I0220 20:02:55.083019   138 layer_factory.hpp:77] Creating layer inception_5b/pool_proj
I0220 20:02:55.083042   138 net.cpp:94] Creating Layer inception_5b/pool_proj
I0220 20:02:55.083052   138 net.cpp:435] inception_5b/pool_proj <- inception_5b/pool
I0220 20:02:55.083071   138 net.cpp:409] inception_5b/pool_proj -> inception_5b/pool_proj
I0220 20:02:55.084656   138 net.cpp:144] Setting up inception_5b/pool_proj
I0220 20:02:55.084674   138 net.cpp:151] Top shape: 32 128 7 7 (200704)
I0220 20:02:55.084683   138 net.cpp:159] Memory required for data: 1787221256
I0220 20:02:55.084694   138 layer_factory.hpp:77] Creating layer inception_5b/relu_pool_proj
I0220 20:02:55.084707   138 net.cpp:94] Creating Layer inception_5b/relu_pool_proj
I0220 20:02:55.084715   138 net.cpp:435] inception_5b/relu_pool_proj <- inception_5b/pool_proj
I0220 20:02:55.084729   138 net.cpp:396] inception_5b/relu_pool_proj -> inception_5b/pool_proj (in-place)
I0220 20:02:55.084744   138 net.cpp:144] Setting up inception_5b/relu_pool_proj
I0220 20:02:55.084785   138 net.cpp:151] Top shape: 32 128 7 7 (200704)
I0220 20:02:55.084796   138 net.cpp:159] Memory required for data: 1788024072
I0220 20:02:55.084805   138 layer_factory.hpp:77] Creating layer inception_5b/output
I0220 20:02:55.084816   138 net.cpp:94] Creating Layer inception_5b/output
I0220 20:02:55.084825   138 net.cpp:435] inception_5b/output <- inception_5b/1x1
I0220 20:02:55.084836   138 net.cpp:435] inception_5b/output <- inception_5b/3x3
I0220 20:02:55.084844   138 net.cpp:435] inception_5b/output <- inception_5b/5x5
I0220 20:02:55.084853   138 net.cpp:435] inception_5b/output <- inception_5b/pool_proj
I0220 20:02:55.084870   138 net.cpp:409] inception_5b/output -> inception_5b/output
I0220 20:02:55.084913   138 net.cpp:144] Setting up inception_5b/output
I0220 20:02:55.084925   138 net.cpp:151] Top shape: 32 1024 7 7 (1605632)
I0220 20:02:55.084933   138 net.cpp:159] Memory required for data: 1794446600
I0220 20:02:55.084940   138 layer_factory.hpp:77] Creating layer pool5/7x7_s1
I0220 20:02:55.084955   138 net.cpp:94] Creating Layer pool5/7x7_s1
I0220 20:02:55.084964   138 net.cpp:435] pool5/7x7_s1 <- inception_5b/output
I0220 20:02:55.084975   138 net.cpp:409] pool5/7x7_s1 -> pool5/7x7_s1
I0220 20:02:55.085018   138 net.cpp:144] Setting up pool5/7x7_s1
I0220 20:02:55.085054   138 net.cpp:151] Top shape: 32 1024 1 1 (32768)
I0220 20:02:55.085063   138 net.cpp:159] Memory required for data: 1794577672
I0220 20:02:55.085072   138 layer_factory.hpp:77] Creating layer pool5/drop_7x7_s1
I0220 20:02:55.085085   138 net.cpp:94] Creating Layer pool5/drop_7x7_s1
I0220 20:02:55.085094   138 net.cpp:435] pool5/drop_7x7_s1 <- pool5/7x7_s1
I0220 20:02:55.085105   138 net.cpp:396] pool5/drop_7x7_s1 -> pool5/7x7_s1 (in-place)
I0220 20:02:55.085147   138 net.cpp:144] Setting up pool5/drop_7x7_s1
I0220 20:02:55.085160   138 net.cpp:151] Top shape: 32 1024 1 1 (32768)
I0220 20:02:55.085166   138 net.cpp:159] Memory required for data: 1794708744
I0220 20:02:55.085175   138 layer_factory.hpp:77] Creating layer loss3/classifier
I0220 20:02:55.085191   138 net.cpp:94] Creating Layer loss3/classifier
I0220 20:02:55.085201   138 net.cpp:435] loss3/classifier <- pool5/7x7_s1
I0220 20:02:55.085212   138 net.cpp:409] loss3/classifier -> loss3/classifier
I0220 20:02:55.085376   138 net.cpp:144] Setting up loss3/classifier
I0220 20:02:55.085387   138 net.cpp:151] Top shape: 32 3 (96)
I0220 20:02:55.085395   138 net.cpp:159] Memory required for data: 1794709128
I0220 20:02:55.085405   138 layer_factory.hpp:77] Creating layer loss3/loss
I0220 20:02:55.085417   138 net.cpp:94] Creating Layer loss3/loss
I0220 20:02:55.085425   138 net.cpp:435] loss3/loss <- loss3/classifier
I0220 20:02:55.085435   138 net.cpp:435] loss3/loss <- label_train-data_1_split_2
I0220 20:02:55.085445   138 net.cpp:409] loss3/loss -> loss
…
I0220 20:02:55.089233   138 solver.cpp:181] Creating test net (#0) specified by net file: train_val.prototxt
I0220 20:02:55.089390   138 net.cpp:323] The NetState phase (1) differed from the phase (0) specified by a rule in layer train-data
I0220 20:02:55.090163   138 net.cpp:52] Initializing net from parameters:
state {
phase: TEST
}
layer {
name: "val-data"
type: "Data"
top: "data"
top: "label"
include {
phase: TEST
}
transform_param {
mirror: false
crop_size: 224
mean_file: "/opt/DIGITS/digits/jobs/20190220-195817-1486/mean.binaryproto"
}
data_param {
source: "/opt/DIGITS/digits/jobs/20190220-195817-1486/val_db"
batch_size: 16
backend: LMDB
}
}
layer {
name: "conv1/7x7_s2"
type: "Convolution"
bottom: "data"
top: "conv1/7x7_s2"
param {
lr_mult: 1
decay_mult: 1
}
param {
lr_mult: 2
decay_mult: 0
}
convolution_param {
num_output: 64
pad: 3
kernel_size: 7
stride: 2
weight_filler {
type: "xavier"
std: 0.1
}
bias_filler {
type: "constant"
value: 0.2
}
}
}
layer {
name: "conv1/relu_7x7"
type: "ReLU"
bottom: "conv1/7x7_s2"
top: "conv1/7x7_s2"
}
layer {
name: "pool1/3x3_s2"
type: "Pooling"
bottom: "conv1/7x7_s2"
top: "pool1/3x3_s2"
pooling_param {
pool: MAX
kernel_size: 3
stride: 2
}
}
layer {
name: "pool1/norm1"
type: "LRN"
bottom: "pool1/3x3_s2"
top: "pool1/norm1"
lrn_param {
local_size: 5
alpha: 0.0001
beta: 0.75
}
}
layer {
name: "conv2/3x3_reduce"
type: "Convolution"
bottom: "pool1/norm1"
top: "conv2/3x3_reduce"
param {
lr_mult: 1
decay_mult: 1
}
param {
lr_mult: 2
decay_mult: 0
}
convolution_param {
num_output: 64
kernel_size: 1
weight_filler {
type: "xavier"
std: 0.1
}
bias_filler {
type: "constant"
value: 0.2
}
}
}
layer {
name: "conv2/relu_3x3_reduce"
type: "ReLU"
bottom: "conv2/3x3_reduce"
top: "conv2/3x3_reduce"
}
layer {
name: "conv2/3x3"
type: "Convolution"
bottom: "conv2/3x3_reduce"
top: "conv2/3x3"
param {
lr_mult: 1
decay_mult: 1
}
param {
lr_mult: 2
decay_mult: 0
}
convolution_param {
num_output: 192
pad: 1
kernel_size: 3
weight_filler {
type: "xavier"
std: 0.03
}
bias_filler {
type: "constant"
value: 0.2
}
}
}
layer {
name: "conv2/relu_3x3"
type: "ReLU"
bottom: "conv2/3x3"
top: "conv2/3x3"
}
layer {
name: "conv2/norm2"
type: "LRN"
bottom: "conv2/3x3"
top: "conv2/norm2"
lrn_param {
local_size: 5
alpha: 0.0001
beta: 0.75
}
}
layer {
name: "pool2/3x3_s2"
type: "Pooling"
bottom: "conv2/norm2"
top: "pool2/3x3_s2"
pooling_param {
pool: MAX
kernel_size: 3
stride: 2
}
}
layer {
name: "inception_3a/1x1"
type: "Convolution"
bottom: "pool2/3x3_s2"
top: "inception_3a/1x1"
param {
lr_mult: 1
decay_mult: 1
}
param {
lr_mult: 2
decay_mult: 0
}
convolution_param {
num_output: 64
kernel_size: 1
weight_filler {
type: "xavier"
std: 0.03
}
bias_filler {
type: "constant"
value: 0.2
}
}
}
layer {
name: "inception_3a/relu_1x1"
type: "ReLU"
bottom: "inception_3a/1x1"
top: "inception_3a/1x1"
}
layer {
name: "inception_3a/3x3_reduce"
type: "Convolution"
bottom: "pool2/3x3_s2"
top: "inception_3a/3x3_reduce"
param {
lr_mult: 1
decay_mult: 1
}
param {
lr_mult: 2
decay_mult: 0
}
convolution_param {
num_output: 96
kernel_size: 1
weight_filler {
type: "xavier"
std: 0.09
}
bias_filler {
type: "constant"
value: 0.2
}
}
}
layer {
name: "inception_3a/relu_3x3_reduce"
type: "ReLU"
bottom: "inception_3a/3x3_reduce"
top: "inception_3a/3x3_reduce"
}
layer {
name: "inception_3a/3x3"
type: "Convolution"
bottom: "inception_3a/3x3_reduce"
top: "inception_3a/3x3"
param {
lr_mult: 1
decay_mult: 1
}
param {
lr_mult: 2
decay_mult: 0
}
convolution_param {
num_output: 128
pad: 1
kernel_size: 3
weight_filler {
type: "xavier"
std: 0.03
}
bias_filler {
type: "constant"
value: 0.2
}
}
}
layer {
name: "inception_3a/relu_3x3"
type: "ReLU"
bottom: "inception_3a/3x3"
top: "inception_3a/3x3"
}
layer {
name: "inception_3a/5x5_reduce"
type: "Convolution"
bottom: "pool2/3x3_s2"
top: "inception_3a/5x5_reduce"
param {
lr_mult: 1
decay_mult: 1
}
param {
lr_mult: 2
decay_mult: 0
}
convolution_param {
num_output: 16
kernel_size: 1
weight_filler {
type: "xavier"
std: 0.2
}
bias_filler {
type: "constant"
value: 0.2
}
}
}
layer {
name: "inception_3a/relu_5x5_reduce"
type: "ReLU"
bottom: "inception_3a/5x5_reduce"
top: "inception_3a/5x5_reduce"
}
layer {
name: "inception_3a/5x5"
type: "Convolution"
bottom: "inception_3a/5x5_reduce"
top: "inception_3a/5x5"
param {
lr_mult: 1
decay_mult: 1
}
param {
lr_mult: 2
decay_mult: 0
}
convolution_param {
num_output: 32
pad: 2
kernel_size: 5
weight_filler {
type: "xavier"
std: 0.03
}
bias_filler {
type: "constant"
value: 0.2
}
}
}
layer {
name: "inception_3a/relu_5x5"
type: "ReLU"
bottom: "inception_3a/5x5"
top: "inception_3a/5x5"
}
layer {
name: "inception_3a/pool"
type: "Pooling"
bottom: "pool2/3x3_s2"
top: "inception_3a/pool"
pooling_param {
pool: MAX
kernel_size: 3
stride: 1
pad: 1
}
}
layer {
name: "inception_3a/pool_proj"
type: "Convolution"
bottom: "inception_3a/pool"
top: "inception_3a/pool_proj"
param {
lr_mult: 1
decay_mult: 1
}
param {
lr_mult: 2
decay_mult: 0
}
convolution_param {
num_output: 32
kernel_size: 1
weight_filler {
type: "xavier"
std: 0.1
}
bias_filler {
type: "constant"
value: 0.2
}
}
}
layer {
name: "inception_3a/relu_pool_proj"
type: "ReLU"
bottom: "inception_3a/pool_proj"
top: "inception_3a/pool_proj"
}
layer {
name: "inception_3a/output"
type: "Concat"
bottom: "inception_3a/1x1"
bottom: "inception_3a/3x3"
bottom: "inception_3a/5x5"
bottom: "inception_3a/pool_proj"
top: "inception_3a/output"
}
layer {
name: "inception_3b/1x1"
type: "Convolution"
bottom: "inception_3a/output"
top: "inception_3b/1x1"
param {
lr_mult: 1
decay_mult: 1
}
param {
lr_mult: 2
decay_mult: 0
}
convolution_param {
num_output: 128
kernel_size: 1
weight_filler {
type: "xavier"
std: 0.03
}
bias_filler {
type: "constant"
value: 0.2
}
}
}
layer {
name: "inception_3b/relu_1x1"
type: "ReLU"
bottom: "inception_3b/1x1"
top: "inception_3b/1x1"
}
layer {
name: "inception_3b/3x3_reduce"
type: "Convolution"
bottom: "inception_3a/output"
top: "inception_3b/3x3_reduce"
param {
lr_mult: 1
decay_mult: 1
}
param {
lr_mult: 2
decay_mult: 0
}
convolution_param {
num_output: 128
kernel_size: 1
weight_filler {
type: "xavier"
std: 0.09
}
bias_filler {
type: "constant"
value: 0.2
}
}
}
layer {
name: "inception_3b/relu_3x3_reduce"
type: "ReLU"
bottom: "inception_3b/3x3_reduce"
top: "inception_3b/3x3_reduce"
}
layer {
name: "inception_3b/3x3"
type: "Convolution"
bottom: "inception_3b/3x3_reduce"
top: "inception_3b/3x3"
param {
lr_mult: 1
decay_mult: 1
}
param {
lr_mult: 2
decay_mult: 0
}
convolution_param {
num_output: 192
pad: 1
kernel_size: 3
weight_filler {
type: "xavier"
std: 0.03
}
bias_filler {
type: "constant"
value: 0.2
}
}
}
layer {
name: "inception_3b/relu_3x3"
type: "ReLU"
bottom: "inception_3b/3x3"
top: "inception_3b/3x3"
}
layer {
name: "inception_3b/5x5_reduce"
type: "Convolution"
bottom: "inception_3a/output"
top: "inception_3b/5x5_reduce"
param {
lr_mult: 1
decay_mult: 1
}
param {
lr_mult: 2
decay_mult: 0
}
convolution_param {
num_output: 32
kernel_size: 1
weight_filler {
type: "xavier"
std: 0.2
}
bias_filler {
type: "constant"
value: 0.2
}
}
}
layer {
name: "inception_3b/relu_5x5_reduce"
type: "ReLU"
bottom: "inception_3b/5x5_reduce"
top: "inception_3b/5x5_reduce"
}
layer {
name: "inception_3b/5x5"
type: "Convolution"
bottom: "inception_3b/5x5_reduce"
top: "inception_3b/5x5"
param {
lr_mult: 1
decay_mult: 1
}
param {
lr_mult: 2
decay_mult: 0
}
convolution_param {
num_output: 96
pad: 2
kernel_size: 5
weight_filler {
type: "xavier"
std: 0.03
}
bias_filler {
type: "constant"
value: 0.2
}
}
}
layer {
name: "inception_3b/relu_5x5"
type: "ReLU"
bottom: "inception_3b/5x5"
top: "inception_3b/5x5"
}
layer {
name: "inception_3b/pool"
type: "Pooling"
bottom: "inception_3a/output"
top: "inception_3b/pool"
pooling_param {
pool: MAX
kernel_size: 3
stride: 1
pad: 1
}
}
layer {
name: "inception_3b/pool_proj"
type: "Convolution"
bottom: "inception_3b/pool"
top: "inception_3b/pool_proj"
param {
lr_mult: 1
decay_mult: 1
}
param {
lr_mult: 2
decay_mult: 0
}
convolution_param {
num_output: 64
kernel_size: 1
weight_filler {
type: "xavier"
std: 0.1
}
bias_filler {
type: "constant"
value: 0.2
}
}
}
layer {
name: "inception_3b/relu_pool_proj"
type: "ReLU"
bottom: "inception_3b/pool_proj"
top: "inception_3b/pool_proj"
}
layer {
name: "inception_3b/output"
type: "Concat"
bottom: "inception_3b/1x1"
bottom: "inception_3b/3x3"
bottom: "inception_3b/5x5"
bottom: "inception_3b/pool_proj"
top: "inception_3b/output"
}
layer {
name: "pool3/3x3_s2"
type: "Pooling"
bottom: "inception_3b/output"
top: "pool3/3x3_s2"
pooling_param {
pool: MAX
kernel_size: 3
stride: 2
}
}
layer {
name: "inception_4a/1x1"
type: "Convolution"
bottom: "pool3/3x3_s2"
top: "inception_4a/1x1"
param {
lr_mult: 1
decay_mult: 1
}
param {
lr_mult: 2
decay_mult: 0
}
convolution_param {
num_output: 192
kernel_size: 1
weight_filler {
type: "xavier"
std: 0.03
}
bias_filler {
type: "constant"
value: 0.2
}
}
}
layer {
name: "inception_4a/relu_1x1"
type: "ReLU"
bottom: "inception_4a/1x1"
top: "inception_4a/1x1"
}
layer {
name: "inception_4a/3x3_reduce"
type: "Convolution"
bottom: "pool3/3x3_s2"
top: "inception_4a/3x3_reduce"
param {
lr_mult: 1
decay_mult: 1
}
param {
lr_mult: 2
decay_mult: 0
}
convolution_param {
num_output: 96
kernel_size: 1
weight_filler {
type: "xavier"
std: 0.09
}
bias_filler {
type: "constant"
value: 0.2
}
}
}
layer {
name: "inception_4a/relu_3x3_reduce"
type: "ReLU"
bottom: "inception_4a/3x3_reduce"
top: "inception_4a/3x3_reduce"
}
layer {
name: "inception_4a/3x3"
type: "Convolution"
bottom: "inception_4a/3x3_reduce"
top: "inception_4a/3x3"
param {
lr_mult: 1
decay_mult: 1
}
param {
lr_mult: 2
decay_mult: 0
}
convolution_param {
num_output: 208
pad: 1
kernel_size: 3
weight_filler {
type: "xavier"
std: 0.03
}
bias_filler {
type: "constant"
value: 0.2
}
}
}
layer {
name: "inception_4a/relu_3x3"
type: "ReLU"
bottom: "inception_4a/3x3"
top: "inception_4a/3x3"
}
layer {
name: "inception_4a/5x5_reduce"
type: "Convolution"
bottom: "pool3/3x3_s2"
top: "inception_4a/5x5_reduce"
param {
lr_mult: 1
decay_mult: 1
}
param {
lr_mult: 2
decay_mult: 0
}
convolution_param {
num_output: 16
kernel_size: 1
weight_filler {
type: "xavier"
std: 0.2
}
bias_filler {
type: "constant"
value: 0.2
}
}
}
layer {
name: "inception_4a/relu_5x5_reduce"
type: "ReLU"
bottom: "inception_4a/5x5_reduce"
top: "inception_4a/5x5_reduce"
}
layer {
name: "inception_4a/5x5"
type: "Convolution"
bottom: "inception_4a/5x5_reduce"
top: "inception_4a/5x5"
param {
lr_mult: 1
decay_mult: 1
}
param {
lr_mult: 2
decay_mult: 0
}
convolution_param {
num_output: 48
pad: 2
kernel_size: 5
weight_filler {
type: "xavier"
std: 0.03
}
bias_filler {
type: "constant"
value: 0.2
}
}
}
layer {
name: "inception_4a/relu_5x5"
type: "ReLU"
bottom: "inception_4a/5x5"
top: "inception_4a/5x5"
}
layer {
name: "inception_4a/pool"
type: "Pooling"
bottom: "pool3/3x3_s2"
top: "inception_4a/pool"
pooling_param {
pool: MAX
kernel_size: 3
stride: 1
pad: 1
}
}
layer {
name: "inception_4a/pool_proj"
type: "Convolution"
bottom: "inception_4a/pool"
top: "inception_4a/pool_proj"
param {
lr_mult: 1
decay_mult: 1
}
param {
lr_mult: 2
decay_mult: 0
}
convolution_param {
num_output: 64
kernel_size: 1
weight_filler {
type: "xavier"
std: 0.1
}
bias_filler {
type: "constant"
value: 0.2
}
}
}
layer {
name: "inception_4a/relu_pool_proj"
type: "ReLU"
bottom: "inception_4a/pool_proj"
top: "inception_4a/pool_proj"
}
layer {
name: "inception_4a/output"
type: "Concat"
bottom: "inception_4a/1x1"
bottom: "inception_4a/3x3"
bottom: "inception_4a/5x5"
bottom: "inception_4a/pool_proj"
top: "inception_4a/output"
}
layer {
name: "loss1/ave_pool"
type: "Pooling"
bottom: "inception_4a/output"
top: "loss1/ave_pool"
pooling_param {
pool: AVE
kernel_size: 5
stride: 3
}
}
layer {
name: "loss1/conv"
type: "Convolution"
bottom: "loss1/ave_pool"
top: "loss1/conv"
param {
lr_mult: 1
decay_mult: 1
}
param {
lr_mult: 2
decay_mult: 0
}
convolution_param {
num_output: 128
kernel_size: 1
weight_filler {
type: "xavier"
std: 0.08
}
bias_filler {
type: "constant"
value: 0.2
}
}
}
layer {
name: "loss1/relu_conv"
type: "ReLU"
bottom: "loss1/conv"
top: "loss1/conv"
}
layer {
name: "loss1/fc"
type: "InnerProduct"
bottom: "loss1/conv"
top: "loss1/fc"
param {
lr_mult: 1
decay_mult: 1
}
param {
lr_mult: 2
decay_mult: 0
}
inner_product_param {
num_output: 1024
weight_filler {
type: "xavier"
std: 0.02
}
bias_filler {
type: "constant"
value: 0.2
}
}
}
layer {
name: "loss1/relu_fc"
type: "ReLU"
bottom: "loss1/fc"
top: "loss1/fc"
}
layer {
name: "loss1/drop_fc"
type: "Dropout"
bottom: "loss1/fc"
top: "loss1/fc"
dropout_param {
dropout_ratio: 0.7
}
}
layer {
name: "loss1/classifier"
type: "InnerProduct"
bottom: "loss1/fc"
top: "loss1/classifier"
param {
lr_mult: 1
decay_mult: 1
}
param {
lr_mult: 2
decay_mult: 0
}
inner_product_param {
num_output: 3
weight_filler {
type: "xavier"
std: 0.0009765625
}
bias_filler {
type: "constant"
value: 0
}
}
}
layer {
name: "loss1/loss"
type: "SoftmaxWithLoss"
bottom: "loss1/classifier"
bottom: "label"
top: "loss1/loss"
loss_weight: 0.3
}
layer {
name: "loss1/top-1"
type: "Accuracy"
bottom: "loss1/classifier"
bottom: "label"
top: "loss1/accuracy"
include {
phase: TEST
}
}
layer {
name: "inception_4b/1x1"
type: "Convolution"
bottom: "inception_4a/output"
top: "inception_4b/1x1"
param {
lr_mult: 1
decay_mult: 1
}
param {
lr_mult: 2
decay_mult: 0
}
convolution_param {
num_output: 160
kernel_size: 1
weight_filler {
type: "xavier"
std: 0.03
}
bias_filler {
type: "constant"
value: 0.2
}
}
}
layer {
name: "inception_4b/relu_1x1"
type: "ReLU"
bottom: "inception_4b/1x1"
top: "inception_4b/1x1"
}
layer {
name: "inception_4b/3x3_reduce"
type: "Convolution"
bottom: "inception_4a/output"
top: "inception_4b/3x3_reduce"
param {
lr_mult: 1
decay_mult: 1
}
param {
lr_mult: 2
decay_mult: 0
}
convolution_param {
num_output: 112
kernel_size: 1
weight_filler {
type: "xavier"
std: 0.09
}
bias_filler {
type: "constant"
value: 0.2
}
}
}
layer {
name: "inception_4b/relu_3x3_reduce"
type: "ReLU"
bottom: "inception_4b/3x3_reduce"
top: "inception_4b/3x3_reduce"
}
layer {
name: "inception_4b/3x3"
type: "Convolution"
bottom: "inception_4b/3x3_reduce"
top: "inception_4b/3x3"
param {
lr_mult: 1
decay_mult: 1
}
param {
lr_mult: 2
decay_mult: 0
}
convolution_param {
num_output: 224
pad: 1
kernel_size: 3
weight_filler {
type: "xavier"
std: 0.03
}
bias_filler {
type: "constant"
value: 0.2
}
}
}
layer {
name: "inception_4b/relu_3x3"
type: "ReLU"
bottom: "inception_4b/3x3"
top: "inception_4b/3x3"
}
layer {
name: "inception_4b/5x5_reduce"
type: "Convolution"
bottom: "inception_4a/output"
top: "inception_4b/5x5_reduce"
param {
lr_mult: 1
decay_mult: 1
}
param {
lr_mult: 2
decay_mult: 0
}
convolution_param {
num_output: 24
kernel_size: 1
weight_filler {
type: "xavier"
std: 0.2
}
bias_filler {
type: "constant"
value: 0.2
}
}
}
layer {
name: "inception_4b/relu_5x5_reduce"
type: "ReLU"
bottom: "inception_4b/5x5_reduce"
top: "inception_4b/5x5_reduce"
}
layer {
name: "inception_4b/5x5"
type: "Convolution"
bottom: "inception_4b/5x5_reduce"
top: "inception_4b/5x5"
param {
lr_mult: 1
decay_mult: 1
}
param {
lr_mult: 2
decay_mult: 0
}
convolution_param {
num_output: 64
pad: 2
kernel_size: 5
weight_filler {
type: "xavier"
std: 0.03
}
bias_filler {
type: "constant"
value: 0.2
}
}
}
layer {
name: "inception_4b/relu_5x5"
type: "ReLU"
bottom: "inception_4b/5x5"
top: "inception_4b/5x5"
}
layer {
name: "inception_4b/pool"
type: "Pooling"
bottom: "inception_4a/output"
top: "inception_4b/pool"
pooling_param {
pool: MAX
kernel_size: 3
stride: 1
pad: 1
}
}
layer {
name: "inception_4b/pool_proj"
type: "Convolution"
bottom: "inception_4b/pool"
top: "inception_4b/pool_proj"
param {
lr_mult: 1
decay_mult: 1
}
param {
lr_mult: 2
decay_mult: 0
}
convolution_param {
num_output: 64
kernel_size: 1
weight_filler {
type: "xavier"
std: 0.1
}
bias_filler {
type: "constant"
value: 0.2
}
}
}
layer {
name: "inception_4b/relu_pool_proj"
type: "ReLU"
bottom: "inception_4b/pool_proj"
top: "inception_4b/pool_proj"
}
layer {
name: "inception_4b/output"
type: "Concat"
bottom: "inception_4b/1x1"
bottom: "inception_4b/3x3"
bottom: "inception_4b/5x5"
bottom: "inception_4b/pool_proj"
top: "inception_4b/output"
}
layer {
name: "inception_4c/1x1"
type: "Convolution"
bottom: "inception_4b/output"
top: "inception_4c/1x1"
param {
lr_mult: 1
decay_mult: 1
}
param {
lr_mult: 2
decay_mult: 0
}
convolution_param {
num_output: 128
kernel_size: 1
weight_filler {
type: "xavier"
std: 0.03
}
bias_filler {
type: "constant"
value: 0.2
}
}
}
layer {
name: "inception_4c/relu_1x1"
type: "ReLU"
bottom: "inception_4c/1x1"
top: "inception_4c/1x1"
}
layer {
name: "inception_4c/3x3_reduce"
type: "Convolution"
bottom: "inception_4b/output"
top: "inception_4c/3x3_reduce"
param {
lr_mult: 1
decay_mult: 1
}
param {
lr_mult: 2
decay_mult: 0
}
convolution_param {
num_output: 128
kernel_size: 1
weight_filler {
type: "xavier"
std: 0.09
}
bias_filler {
type: "constant"
value: 0.2
}
}
}
layer {
name: "inception_4c/relu_3x3_reduce"
type: "ReLU"
bottom: "inception_4c/3x3_reduce"
top: "inception_4c/3x3_reduce"
}
layer {
name: "inception_4c/3x3"
type: "Convolution"
bottom: "inception_4c/3x3_reduce"
top: "inception_4c/3x3"
param {
lr_mult: 1
decay_mult: 1
}
param {
lr_mult: 2
decay_mult: 0
}
convolution_param {
num_output: 256
pad: 1
kernel_size: 3
weight_filler {
type: "xavier"
std: 0.03
}
bias_filler {
type: "constant"
value: 0.2
}
}
}
layer {
name: "inception_4c/relu_3x3"
type: "ReLU"
bottom: "inception_4c/3x3"
top: "inception_4c/3x3"
}
layer {
name: "inception_4c/5x5_reduce"
type: "Convolution"
bottom: "inception_4b/output"
top: "inception_4c/5x5_reduce"
param {
lr_mult: 1
decay_mult: 1
}
param {
lr_mult: 2
decay_mult: 0
}
convolution_param {
num_output: 24
kernel_size: 1
weight_filler {
type: "xavier"
std: 0.2
}
bias_filler {
type: "constant"
value: 0.2
}
}
}
layer {
name: "inception_4c/relu_5x5_reduce"
type: "ReLU"
bottom: "inception_4c/5x5_reduce"
top: "inception_4c/5x5_reduce"
}
layer {
name: "inception_4c/5x5"
type: "Convolution"
bottom: "inception_4c/5x5_reduce"
top: "inception_4c/5x5"
param {
lr_mult: 1
decay_mult: 1
}
param {
lr_mult: 2
decay_mult: 0
}
convolution_param {
num_output: 64
pad: 2
kernel_size: 5
weight_filler {
type: "xavier"
std: 0.03
}
bias_filler {
type: "constant"
value: 0.2
}
}
}
layer {
name: "inception_4c/relu_5x5"
type: "ReLU"
bottom: "inception_4c/5x5"
top: "inception_4c/5x5"
}
layer {
name: "inception_4c/pool"
type: "Pooling"
bottom: "inception_4b/output"
top: "inception_4c/pool"
pooling_param {
pool: MAX
kernel_size: 3
stride: 1
pad: 1
}
}
layer {
name: "inception_4c/pool_proj"
type: "Convolution"
bottom: "inception_4c/pool"
top: "inception_4c/pool_proj"
param {
lr_mult: 1
decay_mult: 1
}
param {
lr_mult: 2
decay_mult: 0
}
convolution_param {
num_output: 64
kernel_size: 1
weight_filler {
type: "xavier"
std: 0.1
}
bias_filler {
type: "constant"
value: 0.2
}
}
}
layer {
name: "inception_4c/relu_pool_proj"
type: "ReLU"
bottom: "inception_4c/pool_proj"
top: "inception_4c/pool_proj"
}
layer {
name: "inception_4c/output"
type: "Concat"
bottom: "inception_4c/1x1"
bottom: "inception_4c/3x3"
bottom: "inception_4c/5x5"
bottom: "inception_4c/pool_proj"
top: "inception_4c/output"
}
layer {
name: "inception_4d/1x1"
type: "Convolution"
bottom: "inception_4c/output"
top: "inception_4d/1x1"
param {
lr_mult: 1
decay_mult: 1
}
param {
lr_mult: 2
decay_mult: 0
}
convolution_param {
num_output: 112
kernel_size: 1
weight_filler {
type: "xavier"
std: 0.03
}
bias_filler {
type: "constant"
value: 0.2
}
}
}
layer {
name: "inception_4d/relu_1x1"
type: "ReLU"
bottom: "inception_4d/1x1"
…
I0220 20:02:55.201270   138 net.cpp:159] Memory required for data: 699835400
I0220 20:02:55.201279   138 layer_factory.hpp:77] Creating layer inception_4c/relu_5x5
I0220 20:02:55.201303   138 net.cpp:94] Creating Layer inception_4c/relu_5x5
I0220 20:02:55.201311   138 net.cpp:435] inception_4c/relu_5x5 <- inception_4c/5x5
I0220 20:02:55.201320   138 net.cpp:396] inception_4c/relu_5x5 -> inception_4c/5x5 (in-place)
I0220 20:02:55.201331   138 net.cpp:144] Setting up inception_4c/relu_5x5
I0220 20:02:55.201339   138 net.cpp:151] Top shape: 16 64 14 14 (200704)
I0220 20:02:55.201344   138 net.cpp:159] Memory required for data: 700638216
I0220 20:02:55.201350   138 layer_factory.hpp:77] Creating layer inception_4c/pool
I0220 20:02:55.201360   138 net.cpp:94] Creating Layer inception_4c/pool
I0220 20:02:55.201367   138 net.cpp:435] inception_4c/pool <- inception_4b/output_inception_4b/output_0_split_3
I0220 20:02:55.201376   138 net.cpp:409] inception_4c/pool -> inception_4c/pool
I0220 20:02:55.201443   138 net.cpp:144] Setting up inception_4c/pool
I0220 20:02:55.201454   138 net.cpp:151] Top shape: 16 512 14 14 (1605632)
I0220 20:02:55.201460   138 net.cpp:159] Memory required for data: 707060744
I0220 20:02:55.201467   138 layer_factory.hpp:77] Creating layer inception_4c/pool_proj
I0220 20:02:55.201480   138 net.cpp:94] Creating Layer inception_4c/pool_proj
I0220 20:02:55.201486   138 net.cpp:435] inception_4c/pool_proj <- inception_4c/pool
I0220 20:02:55.201498   138 net.cpp:409] inception_4c/pool_proj -> inception_4c/pool_proj
I0220 20:02:55.201977   138 net.cpp:144] Setting up inception_4c/pool_proj
I0220 20:02:55.201989   138 net.cpp:151] Top shape: 16 64 14 14 (200704)
I0220 20:02:55.201994   138 net.cpp:159] Memory required for data: 707863560
I0220 20:02:55.202003   138 layer_factory.hpp:77] Creating layer inception_4c/relu_pool_proj
I0220 20:02:55.202013   138 net.cpp:94] Creating Layer inception_4c/relu_pool_proj
I0220 20:02:55.202019   138 net.cpp:435] inception_4c/relu_pool_proj <- inception_4c/pool_proj
I0220 20:02:55.202028   138 net.cpp:396] inception_4c/relu_pool_proj -> inception_4c/pool_proj (in-place)
I0220 20:02:55.202039   138 net.cpp:144] Setting up inception_4c/relu_pool_proj
I0220 20:02:55.202046   138 net.cpp:151] Top shape: 16 64 14 14 (200704)
I0220 20:02:55.202052   138 net.cpp:159] Memory required for data: 708666376
I0220 20:02:55.202059   138 layer_factory.hpp:77] Creating layer inception_4c/output
I0220 20:02:55.202067   138 net.cpp:94] Creating Layer inception_4c/output
I0220 20:02:55.202073   138 net.cpp:435] inception_4c/output <- inception_4c/1x1
I0220 20:02:55.202080   138 net.cpp:435] inception_4c/output <- inception_4c/3x3
I0220 20:02:55.202088   138 net.cpp:435] inception_4c/output <- inception_4c/5x5
I0220 20:02:55.202095   138 net.cpp:435] inception_4c/output <- inception_4c/pool_proj
I0220 20:02:55.202105   138 net.cpp:409] inception_4c/output -> inception_4c/output
I0220 20:02:55.202139   138 net.cpp:144] Setting up inception_4c/output
I0220 20:02:55.202149   138 net.cpp:151] Top shape: 16 512 14 14 (1605632)
I0220 20:02:55.202155   138 net.cpp:159] Memory required for data: 715088904
I0220 20:02:55.202162   138 layer_factory.hpp:77] Creating layer inception_4c/output_inception_4c/output_0_split
I0220 20:02:55.202172   138 net.cpp:94] Creating Layer inception_4c/output_inception_4c/output_0_split
I0220 20:02:55.202178   138 net.cpp:435] inception_4c/output_inception_4c/output_0_split <- inception_4c/output
I0220 20:02:55.202188   138 net.cpp:409] inception_4c/output_inception_4c/output_0_split -> inception_4c/output_inception_4c/output_0_split_0
I0220 20:02:55.202199   138 net.cpp:409] inception_4c/output_inception_4c/output_0_split -> inception_4c/output_inception_4c/output_0_split_1
I0220 20:02:55.202209   138 net.cpp:409] inception_4c/output_inception_4c/output_0_split -> inception_4c/output_inception_4c/output_0_split_2
I0220 20:02:55.202219   138 net.cpp:409] inception_4c/output_inception_4c/output_0_split -> inception_4c/output_inception_4c/output_0_split_3
I0220 20:02:55.202291   138 net.cpp:144] Setting up inception_4c/output_inception_4c/output_0_split
I0220 20:02:55.202299   138 net.cpp:151] Top shape: 16 512 14 14 (1605632)
I0220 20:02:55.202318   138 net.cpp:151] Top shape: 16 512 14 14 (1605632)
I0220 20:02:55.202325   138 net.cpp:151] Top shape: 16 512 14 14 (1605632)
I0220 20:02:55.202332   138 net.cpp:151] Top shape: 16 512 14 14 (1605632)
I0220 20:02:55.202337   138 net.cpp:159] Memory required for data: 740779016
I0220 20:02:55.202344   138 layer_factory.hpp:77] Creating layer inception_4d/1x1
I0220 20:02:55.202355   138 net.cpp:94] Creating Layer inception_4d/1x1
I0220 20:02:55.202363   138 net.cpp:435] inception_4d/1x1 <- inception_4c/output_inception_4c/output_0_split_0
I0220 20:02:55.202373   138 net.cpp:409] inception_4d/1x1 -> inception_4d/1x1
I0220 20:02:55.203023   138 net.cpp:144] Setting up inception_4d/1x1
I0220 20:02:55.203035   138 net.cpp:151] Top shape: 16 112 14 14 (351232)
I0220 20:02:55.203042   138 net.cpp:159] Memory required for data: 742183944
I0220 20:02:55.203050   138 layer_factory.hpp:77] Creating layer inception_4d/relu_1x1
I0220 20:02:55.203059   138 net.cpp:94] Creating Layer inception_4d/relu_1x1
I0220 20:02:55.203066   138 net.cpp:435] inception_4d/relu_1x1 <- inception_4d/1x1
I0220 20:02:55.203075   138 net.cpp:396] inception_4d/relu_1x1 -> inception_4d/1x1 (in-place)
I0220 20:02:55.203085   138 net.cpp:144] Setting up inception_4d/relu_1x1
I0220 20:02:55.203092   138 net.cpp:151] Top shape: 16 112 14 14 (351232)
I0220 20:02:55.203099   138 net.cpp:159] Memory required for data: 743588872
I0220 20:02:55.203104   138 layer_factory.hpp:77] Creating layer inception_4d/3x3_reduce
I0220 20:02:55.203116   138 net.cpp:94] Creating Layer inception_4d/3x3_reduce
I0220 20:02:55.203124   138 net.cpp:435] inception_4d/3x3_reduce <- inception_4c/output_inception_4c/output_0_split_1
I0220 20:02:55.203133   138 net.cpp:409] inception_4d/3x3_reduce -> inception_4d/3x3_reduce
I0220 20:02:55.203917   138 net.cpp:144] Setting up inception_4d/3x3_reduce
I0220 20:02:55.203929   138 net.cpp:151] Top shape: 16 144 14 14 (451584)
I0220 20:02:55.203935   138 net.cpp:159] Memory required for data: 745395208
I0220 20:02:55.203949   138 layer_factory.hpp:77] Creating layer inception_4d/relu_3x3_reduce
I0220 20:02:55.203958   138 net.cpp:94] Creating Layer inception_4d/relu_3x3_reduce
I0220 20:02:55.203965   138 net.cpp:435] inception_4d/relu_3x3_reduce <- inception_4d/3x3_reduce
I0220 20:02:55.203974   138 net.cpp:396] inception_4d/relu_3x3_reduce -> inception_4d/3x3_reduce (in-place)
I0220 20:02:55.203984   138 net.cpp:144] Setting up inception_4d/relu_3x3_reduce
I0220 20:02:55.203991   138 net.cpp:151] Top shape: 16 144 14 14 (451584)
I0220 20:02:55.203997   138 net.cpp:159] Memory required for data: 747201544
I0220 20:02:55.204003   138 layer_factory.hpp:77] Creating layer inception_4d/3x3
I0220 20:02:55.204015   138 net.cpp:94] Creating Layer inception_4d/3x3
I0220 20:02:55.204021   138 net.cpp:435] inception_4d/3x3 <- inception_4d/3x3_reduce
I0220 20:02:55.204038   138 net.cpp:409] inception_4d/3x3 -> inception_4d/3x3
I0220 20:02:55.207659   138 net.cpp:144] Setting up inception_4d/3x3
I0220 20:02:55.207677   138 net.cpp:151] Top shape: 16 288 14 14 (903168)
I0220 20:02:55.207684   138 net.cpp:159] Memory required for data: 750814216
I0220 20:02:55.207693   138 layer_factory.hpp:77] Creating layer inception_4d/relu_3x3
I0220 20:02:55.207703   138 net.cpp:94] Creating Layer inception_4d/relu_3x3
I0220 20:02:55.207711   138 net.cpp:435] inception_4d/relu_3x3 <- inception_4d/3x3
I0220 20:02:55.207721   138 net.cpp:396] inception_4d/relu_3x3 -> inception_4d/3x3 (in-place)
I0220 20:02:55.207732   138 net.cpp:144] Setting up inception_4d/relu_3x3
I0220 20:02:55.207741   138 net.cpp:151] Top shape: 16 288 14 14 (903168)
I0220 20:02:55.207746   138 net.cpp:159] Memory required for data: 754426888
I0220 20:02:55.207752   138 layer_factory.hpp:77] Creating layer inception_4d/5x5_reduce
I0220 20:02:55.207764   138 net.cpp:94] Creating Layer inception_4d/5x5_reduce
I0220 20:02:55.207782   138 net.cpp:435] inception_4d/5x5_reduce <- inception_4c/output_inception_4c/output_0_split_2
I0220 20:02:55.207795   138 net.cpp:409] inception_4d/5x5_reduce -> inception_4d/5x5_reduce
I0220 20:02:55.208220   138 net.cpp:144] Setting up inception_4d/5x5_reduce
I0220 20:02:55.208232   138 net.cpp:151] Top shape: 16 32 14 14 (100352)
I0220 20:02:55.208238   138 net.cpp:159] Memory required for data: 754828296
I0220 20:02:55.208246   138 layer_factory.hpp:77] Creating layer inception_4d/relu_5x5_reduce
I0220 20:02:55.208256   138 net.cpp:94] Creating Layer inception_4d/relu_5x5_reduce
I0220 20:02:55.208262   138 net.cpp:435] inception_4d/relu_5x5_reduce <- inception_4d/5x5_reduce
I0220 20:02:55.208271   138 net.cpp:396] inception_4d/relu_5x5_reduce -> inception_4d/5x5_reduce (in-place)
I0220 20:02:55.208282   138 net.cpp:144] Setting up inception_4d/relu_5x5_reduce
I0220 20:02:55.208290   138 net.cpp:151] Top shape: 16 32 14 14 (100352)
I0220 20:02:55.208297   138 net.cpp:159] Memory required for data: 755229704
I0220 20:02:55.208302   138 layer_factory.hpp:77] Creating layer inception_4d/5x5
I0220 20:02:55.208315   138 net.cpp:94] Creating Layer inception_4d/5x5
I0220 20:02:55.208323   138 net.cpp:435] inception_4d/5x5 <- inception_4d/5x5_reduce
I0220 20:02:55.208333   138 net.cpp:409] inception_4d/5x5 -> inception_4d/5x5
I0220 20:02:55.208989   138 net.cpp:144] Setting up inception_4d/5x5
I0220 20:02:55.209003   138 net.cpp:151] Top shape: 16 64 14 14 (200704)
I0220 20:02:55.209009   138 net.cpp:159] Memory required for data: 756032520
I0220 20:02:55.209018   138 layer_factory.hpp:77] Creating layer inception_4d/relu_5x5
I0220 20:02:55.209028   138 net.cpp:94] Creating Layer inception_4d/relu_5x5
I0220 20:02:55.209035   138 net.cpp:435] inception_4d/relu_5x5 <- inception_4d/5x5
I0220 20:02:55.209044   138 net.cpp:396] inception_4d/relu_5x5 -> inception_4d/5x5 (in-place)
I0220 20:02:55.209055   138 net.cpp:144] Setting up inception_4d/relu_5x5
I0220 20:02:55.209062   138 net.cpp:151] Top shape: 16 64 14 14 (200704)
I0220 20:02:55.209069   138 net.cpp:159] Memory required for data: 756835336
I0220 20:02:55.209074   138 layer_factory.hpp:77] Creating layer inception_4d/pool
I0220 20:02:55.209084   138 net.cpp:94] Creating Layer inception_4d/pool
I0220 20:02:55.209091   138 net.cpp:435] inception_4d/pool <- inception_4c/output_inception_4c/output_0_split_3
I0220 20:02:55.209100   138 net.cpp:409] inception_4d/pool -> inception_4d/pool
I0220 20:02:55.209152   138 net.cpp:144] Setting up inception_4d/pool
I0220 20:02:55.209162   138 net.cpp:151] Top shape: 16 512 14 14 (1605632)
I0220 20:02:55.209168   138 net.cpp:159] Memory required for data: 763257864
I0220 20:02:55.209174   138 layer_factory.hpp:77] Creating layer inception_4d/pool_proj
I0220 20:02:55.209187   138 net.cpp:94] Creating Layer inception_4d/pool_proj
I0220 20:02:55.209194   138 net.cpp:435] inception_4d/pool_proj <- inception_4d/pool
I0220 20:02:55.209204   138 net.cpp:409] inception_4d/pool_proj -> inception_4d/pool_proj
I0220 20:02:55.209728   138 net.cpp:144] Setting up inception_4d/pool_proj
I0220 20:02:55.209738   138 net.cpp:151] Top shape: 16 64 14 14 (200704)
I0220 20:02:55.209744   138 net.cpp:159] Memory required for data: 764060680
I0220 20:02:55.209760   138 layer_factory.hpp:77] Creating layer inception_4d/relu_pool_proj
I0220 20:02:55.209785   138 net.cpp:94] Creating Layer inception_4d/relu_pool_proj
I0220 20:02:55.209794   138 net.cpp:435] inception_4d/relu_pool_proj <- inception_4d/pool_proj
I0220 20:02:55.209803   138 net.cpp:396] inception_4d/relu_pool_proj -> inception_4d/pool_proj (in-place)
I0220 20:02:55.209813   138 net.cpp:144] Setting up inception_4d/relu_pool_proj
I0220 20:02:55.209820   138 net.cpp:151] Top shape: 16 64 14 14 (200704)
I0220 20:02:55.209826   138 net.cpp:159] Memory required for data: 764863496
I0220 20:02:55.209832   138 layer_factory.hpp:77] Creating layer inception_4d/output
I0220 20:02:55.209841   138 net.cpp:94] Creating Layer inception_4d/output
I0220 20:02:55.209847   138 net.cpp:435] inception_4d/output <- inception_4d/1x1
I0220 20:02:55.209854   138 net.cpp:435] inception_4d/output <- inception_4d/3x3
I0220 20:02:55.209862   138 net.cpp:435] inception_4d/output <- inception_4d/5x5
I0220 20:02:55.209883   138 net.cpp:435] inception_4d/output <- inception_4d/pool_proj
I0220 20:02:55.209892   138 net.cpp:409] inception_4d/output -> inception_4d/output
I0220 20:02:55.209936   138 net.cpp:144] Setting up inception_4d/output
I0220 20:02:55.209946   138 net.cpp:151] Top shape: 16 528 14 14 (1655808)
I0220 20:02:55.209952   138 net.cpp:159] Memory required for data: 771486728
I0220 20:02:55.209959   138 layer_factory.hpp:77] Creating layer inception_4d/output_inception_4d/output_0_split
I0220 20:02:55.209969   138 net.cpp:94] Creating Layer inception_4d/output_inception_4d/output_0_split
I0220 20:02:55.209975   138 net.cpp:435] inception_4d/output_inception_4d/output_0_split <- inception_4d/output
I0220 20:02:55.209985   138 net.cpp:409] inception_4d/output_inception_4d/output_0_split -> inception_4d/output_inception_4d/output_0_split_0
I0220 20:02:55.209996   138 net.cpp:409] inception_4d/output_inception_4d/output_0_split -> inception_4d/output_inception_4d/output_0_split_1
I0220 20:02:55.210008   138 net.cpp:409] inception_4d/output_inception_4d/output_0_split -> inception_4d/output_inception_4d/output_0_split_2
I0220 20:02:55.210019   138 net.cpp:409] inception_4d/output_inception_4d/output_0_split -> inception_4d/output_inception_4d/output_0_split_3
I0220 20:02:55.210028   138 net.cpp:409] inception_4d/output_inception_4d/output_0_split -> inception_4d/output_inception_4d/output_0_split_4
I0220 20:02:55.210126   138 net.cpp:144] Setting up inception_4d/output_inception_4d/output_0_split
I0220 20:02:55.210135   138 net.cpp:151] Top shape: 16 528 14 14 (1655808)
I0220 20:02:55.210142   138 net.cpp:151] Top shape: 16 528 14 14 (1655808)
I0220 20:02:55.210150   138 net.cpp:151] Top shape: 16 528 14 14 (1655808)
I0220 20:02:55.210155   138 net.cpp:151] Top shape: 16 528 14 14 (1655808)
I0220 20:02:55.210162   138 net.cpp:151] Top shape: 16 528 14 14 (1655808)
I0220 20:02:55.210168   138 net.cpp:159] Memory required for data: 804602888
I0220 20:02:55.210175   138 layer_factory.hpp:77] Creating layer loss2/ave_pool
I0220 20:02:55.210183   138 net.cpp:94] Creating Layer loss2/ave_pool
I0220 20:02:55.210191   138 net.cpp:435] loss2/ave_pool <- inception_4d/output_inception_4d/output_0_split_0
I0220 20:02:55.210199   138 net.cpp:409] loss2/ave_pool -> loss2/ave_pool
I0220 20:02:55.210239   138 net.cpp:144] Setting up loss2/ave_pool
I0220 20:02:55.210252   138 net.cpp:151] Top shape: 16 528 4 4 (135168)
I0220 20:02:55.210256   138 net.cpp:159] Memory required for data: 805143560
I0220 20:02:55.210263   138 layer_factory.hpp:77] Creating layer loss2/conv
I0220 20:02:55.210276   138 net.cpp:94] Creating Layer loss2/conv
I0220 20:02:55.210283   138 net.cpp:435] loss2/conv <- loss2/ave_pool
I0220 20:02:55.210292   138 net.cpp:409] loss2/conv -> loss2/conv
I0220 20:02:55.211746   138 net.cpp:144] Setting up loss2/conv
I0220 20:02:55.211761   138 net.cpp:151] Top shape: 16 128 4 4 (32768)
I0220 20:02:55.211768   138 net.cpp:159] Memory required for data: 805274632
I0220 20:02:55.211791   138 layer_factory.hpp:77] Creating layer loss2/relu_conv
I0220 20:02:55.211802   138 net.cpp:94] Creating Layer loss2/relu_conv
I0220 20:02:55.211808   138 net.cpp:435] loss2/relu_conv <- loss2/conv
I0220 20:02:55.211822   138 net.cpp:396] loss2/relu_conv -> loss2/conv (in-place)
I0220 20:02:55.211833   138 net.cpp:144] Setting up loss2/relu_conv
I0220 20:02:55.211841   138 net.cpp:151] Top shape: 16 128 4 4 (32768)
I0220 20:02:55.211846   138 net.cpp:159] Memory required for data: 805405704
I0220 20:02:55.211853   138 layer_factory.hpp:77] Creating layer loss2/fc
I0220 20:02:55.211863   138 net.cpp:94] Creating Layer loss2/fc
I0220 20:02:55.211869   138 net.cpp:435] loss2/fc <- loss2/conv
I0220 20:02:55.211881   138 net.cpp:409] loss2/fc -> loss2/fc
I0220 20:02:55.229542   138 net.cpp:144] Setting up loss2/fc
I0220 20:02:55.229588   138 net.cpp:151] Top shape: 16 1024 (16384)
I0220 20:02:55.229593   138 net.cpp:159] Memory required for data: 805471240
I0220 20:02:55.229609   138 layer_factory.hpp:77] Creating layer loss2/relu_fc
I0220 20:02:55.229641   138 net.cpp:94] Creating Layer loss2/relu_fc
I0220 20:02:55.229652   138 net.cpp:435] loss2/relu_fc <- loss2/fc
I0220 20:02:55.229666   138 net.cpp:396] loss2/relu_fc -> loss2/fc (in-place)
I0220 20:02:55.229688   138 net.cpp:144] Setting up loss2/relu_fc
I0220 20:02:55.229696   138 net.cpp:151] Top shape: 16 1024 (16384)
I0220 20:02:55.229701   138 net.cpp:159] Memory required for data: 805536776
I0220 20:02:55.229707   138 layer_factory.hpp:77] Creating layer loss2/drop_fc
I0220 20:02:55.229717   138 net.cpp:94] Creating Layer loss2/drop_fc
I0220 20:02:55.229723   138 net.cpp:435] loss2/drop_fc <- loss2/fc
I0220 20:02:55.229732   138 net.cpp:396] loss2/drop_fc -> loss2/fc (in-place)
I0220 20:02:55.229802   138 net.cpp:144] Setting up loss2/drop_fc
I0220 20:02:55.229817   138 net.cpp:151] Top shape: 16 1024 (16384)
I0220 20:02:55.229822   138 net.cpp:159] Memory required for data: 805602312
I0220 20:02:55.229828   138 layer_factory.hpp:77] Creating layer loss2/classifier
I0220 20:02:55.229843   138 net.cpp:94] Creating Layer loss2/classifier
I0220 20:02:55.229851   138 net.cpp:435] loss2/classifier <- loss2/fc
I0220 20:02:55.229859   138 net.cpp:409] loss2/classifier -> loss2/classifier
I0220 20:02:55.230041   138 net.cpp:144] Setting up loss2/classifier
I0220 20:02:55.230051   138 net.cpp:151] Top shape: 16 3 (48)
I0220 20:02:55.230057   138 net.cpp:159] Memory required for data: 805602504
I0220 20:02:55.230065   138 layer_factory.hpp:77] Creating layer loss2/classifier_loss2/classifier_0_split
I0220 20:02:55.230078   138 net.cpp:94] Creating Layer loss2/classifier_loss2/classifier_0_split
I0220 20:02:55.230087   138 net.cpp:435] loss2/classifier_loss2/classifier_0_split <- loss2/classifier
I0220 20:02:55.230094   138 net.cpp:409] loss2/classifier_loss2/classifier_0_split -> loss2/classifier_loss2/classifier_0_split_0
I0220 20:02:55.230108   138 net.cpp:409] loss2/classifier_loss2/classifier_0_split -> loss2/classifier_loss2/classifier_0_split_1
I0220 20:02:55.230159   138 net.cpp:144] Setting up loss2/classifier_loss2/classifier_0_split
I0220 20:02:55.230167   138 net.cpp:151] Top shape: 16 3 (48)
I0220 20:02:55.230175   138 net.cpp:151] Top shape: 16 3 (48)
I0220 20:02:55.230180   138 net.cpp:159] Memory required for data: 805602888
I0220 20:02:55.230185   138 layer_factory.hpp:77] Creating layer loss2/loss
I0220 20:02:55.230195   138 net.cpp:94] Creating Layer loss2/loss
I0220 20:02:55.230202   138 net.cpp:435] loss2/loss <- loss2/classifier_loss2/classifier_0_split_0
I0220 20:02:55.230211   138 net.cpp:435] loss2/loss <- label_val-data_1_split_2
…
I0220 20:02:55.230487   138 net.cpp:144] Setting up loss2/top-1
I0220 20:02:55.230494   138 net.cpp:151] Top shape: (1)
I0220 20:02:55.230500   138 net.cpp:159] Memory required for data: 805602896
I0220 20:02:55.230506   138 layer_factory.hpp:77] Creating layer inception_4e/1x1
I0220 20:02:55.230523   138 net.cpp:94] Creating Layer inception_4e/1x1
I0220 20:02:55.230540   138 net.cpp:435] inception_4e/1x1 <- inception_4d/output_inception_4d/output_0_split_1
I0220 20:02:55.230549   138 net.cpp:409] inception_4e/1x1 -> inception_4e/1x1
I0220 20:02:55.231792   138 net.cpp:144] Setting up inception_4e/1x1
I0220 20:02:55.231806   138 net.cpp:151] Top shape: 16 256 14 14 (802816)
I0220 20:02:55.231827   138 net.cpp:159] Memory required for data: 808814160
I0220 20:02:55.231837   138 layer_factory.hpp:77] Creating layer inception_4e/relu_1x1
I0220 20:02:55.231845   138 net.cpp:94] Creating Layer inception_4e/relu_1x1
I0220 20:02:55.231853   138 net.cpp:435] inception_4e/relu_1x1 <- inception_4e/1x1
I0220 20:02:55.231865   138 net.cpp:396] inception_4e/relu_1x1 -> inception_4e/1x1 (in-place)
I0220 20:02:55.231876   138 net.cpp:144] Setting up inception_4e/relu_1x1
I0220 20:02:55.231884   138 net.cpp:151] Top shape: 16 256 14 14 (802816)
I0220 20:02:55.231891   138 net.cpp:159] Memory required for data: 812025424
I0220 20:02:55.231897   138 layer_factory.hpp:77] Creating layer inception_4e/3x3_reduce
I0220 20:02:55.231914   138 net.cpp:94] Creating Layer inception_4e/3x3_reduce
I0220 20:02:55.231921   138 net.cpp:435] inception_4e/3x3_reduce <- inception_4d/output_inception_4d/output_0_split_2
I0220 20:02:55.231930   138 net.cpp:409] inception_4e/3x3_reduce -> inception_4e/3x3_reduce
I0220 20:02:55.233711   138 net.cpp:144] Setting up inception_4e/3x3_reduce
I0220 20:02:55.233727   138 net.cpp:151] Top shape: 16 160 14 14 (501760)
I0220 20:02:55.233733   138 net.cpp:159] Memory required for data: 814032464
I0220 20:02:55.233743   138 layer_factory.hpp:77] Creating layer inception_4e/relu_3x3_reduce
I0220 20:02:55.233753   138 net.cpp:94] Creating Layer inception_4e/relu_3x3_reduce
I0220 20:02:55.233760   138 net.cpp:435] inception_4e/relu_3x3_reduce <- inception_4e/3x3_reduce
I0220 20:02:55.233783   138 net.cpp:396] inception_4e/relu_3x3_reduce -> inception_4e/3x3_reduce (in-place)
I0220 20:02:55.233798   138 net.cpp:144] Setting up inception_4e/relu_3x3_reduce
I0220 20:02:55.233805   138 net.cpp:151] Top shape: 16 160 14 14 (501760)
I0220 20:02:55.233811   138 net.cpp:159] Memory required for data: 816039504
I0220 20:02:55.233817   138 layer_factory.hpp:77] Creating layer inception_4e/3x3
I0220 20:02:55.233877   138 net.cpp:94] Creating Layer inception_4e/3x3
I0220 20:02:55.233884   138 net.cpp:435] inception_4e/3x3 <- inception_4e/3x3_reduce
I0220 20:02:55.233893   138 net.cpp:409] inception_4e/3x3 -> inception_4e/3x3
I0220 20:02:55.238729   138 net.cpp:144] Setting up inception_4e/3x3
I0220 20:02:55.238744   138 net.cpp:151] Top shape: 16 320 14 14 (1003520)
I0220 20:02:55.238751   138 net.cpp:159] Memory required for data: 820053584
I0220 20:02:55.238761   138 layer_factory.hpp:77] Creating layer inception_4e/relu_3x3
I0220 20:02:55.238771   138 net.cpp:94] Creating Layer inception_4e/relu_3x3
I0220 20:02:55.238790   138 net.cpp:435] inception_4e/relu_3x3 <- inception_4e/3x3
I0220 20:02:55.238801   138 net.cpp:396] inception_4e/relu_3x3 -> inception_4e/3x3 (in-place)
I0220 20:02:55.238812   138 net.cpp:144] Setting up inception_4e/relu_3x3
I0220 20:02:55.238819   138 net.cpp:151] Top shape: 16 320 14 14 (1003520)
I0220 20:02:55.238826   138 net.cpp:159] Memory required for data: 824067664
I0220 20:02:55.238831   138 layer_factory.hpp:77] Creating layer inception_4e/5x5_reduce
I0220 20:02:55.238847   138 net.cpp:94] Creating Layer inception_4e/5x5_reduce
I0220 20:02:55.238854   138 net.cpp:435] inception_4e/5x5_reduce <- inception_4d/output_inception_4d/output_0_split_3
I0220 20:02:55.238867   138 net.cpp:409] inception_4e/5x5_reduce -> inception_4e/5x5_reduce
I0220 20:02:55.239246   138 net.cpp:144] Setting up inception_4e/5x5_reduce
I0220 20:02:55.239257   138 net.cpp:151] Top shape: 16 32 14 14 (100352)
I0220 20:02:55.239264   138 net.cpp:159] Memory required for data: 824469072
I0220 20:02:55.239272   138 layer_factory.hpp:77] Creating layer inception_4e/relu_5x5_reduce
I0220 20:02:55.239284   138 net.cpp:94] Creating Layer inception_4e/relu_5x5_reduce
I0220 20:02:55.239291   138 net.cpp:435] inception_4e/relu_5x5_reduce <- inception_4e/5x5_reduce
I0220 20:02:55.239300   138 net.cpp:396] inception_4e/relu_5x5_reduce -> inception_4e/5x5_reduce (in-place)
I0220 20:02:55.239310   138 net.cpp:144] Setting up inception_4e/relu_5x5_reduce
I0220 20:02:55.239332   138 net.cpp:151] Top shape: 16 32 14 14 (100352)
I0220 20:02:55.239339   138 net.cpp:159] Memory required for data: 824870480
I0220 20:02:55.239346   138 layer_factory.hpp:77] Creating layer inception_4e/5x5
I0220 20:02:55.239359   138 net.cpp:94] Creating Layer inception_4e/5x5
I0220 20:02:55.239367   138 net.cpp:435] inception_4e/5x5 <- inception_4e/5x5_reduce
I0220 20:02:55.239379   138 net.cpp:409] inception_4e/5x5 -> inception_4e/5x5
I0220 20:02:55.240288   138 net.cpp:144] Setting up inception_4e/5x5
I0220 20:02:55.240303   138 net.cpp:151] Top shape: 16 128 14 14 (401408)
I0220 20:02:55.240309   138 net.cpp:159] Memory required for data: 826476112
I0220 20:02:55.240319   138 layer_factory.hpp:77] Creating layer inception_4e/relu_5x5
I0220 20:02:55.240327   138 net.cpp:94] Creating Layer inception_4e/relu_5x5
I0220 20:02:55.240334   138 net.cpp:435] inception_4e/relu_5x5 <- inception_4e/5x5
I0220 20:02:55.240342   138 net.cpp:396] inception_4e/relu_5x5 -> inception_4e/5x5 (in-place)
I0220 20:02:55.240352   138 net.cpp:144] Setting up inception_4e/relu_5x5
I0220 20:02:55.240360   138 net.cpp:151] Top shape: 16 128 14 14 (401408)
I0220 20:02:55.240365   138 net.cpp:159] Memory required for data: 828081744
I0220 20:02:55.240371   138 layer_factory.hpp:77] Creating layer inception_4e/pool
I0220 20:02:55.240384   138 net.cpp:94] Creating Layer inception_4e/pool
I0220 20:02:55.240391   138 net.cpp:435] inception_4e/pool <- inception_4d/output_inception_4d/output_0_split_4
I0220 20:02:55.240407   138 net.cpp:409] inception_4e/pool -> inception_4e/pool
I0220 20:02:55.240469   138 net.cpp:144] Setting up inception_4e/pool
I0220 20:02:55.240478   138 net.cpp:151] Top shape: 16 528 14 14 (1655808)
I0220 20:02:55.240484   138 net.cpp:159] Memory required for data: 834704976
I0220 20:02:55.240490   138 layer_factory.hpp:77] Creating layer inception_4e/pool_proj
I0220 20:02:55.240504   138 net.cpp:94] Creating Layer inception_4e/pool_proj
I0220 20:02:55.240511   138 net.cpp:435] inception_4e/pool_proj <- inception_4e/pool
I0220 20:02:55.240527   138 net.cpp:409] inception_4e/pool_proj -> inception_4e/pool_proj
I0220 20:02:55.241230   138 net.cpp:144] Setting up inception_4e/pool_proj
I0220 20:02:55.241243   138 net.cpp:151] Top shape: 16 128 14 14 (401408)
I0220 20:02:55.241250   138 net.cpp:159] Memory required for data: 836310608
I0220 20:02:55.241258   138 layer_factory.hpp:77] Creating layer inception_4e/relu_pool_proj
I0220 20:02:55.241271   138 net.cpp:94] Creating Layer inception_4e/relu_pool_proj
I0220 20:02:55.241277   138 net.cpp:435] inception_4e/relu_pool_proj <- inception_4e/pool_proj
I0220 20:02:55.241286   138 net.cpp:396] inception_4e/relu_pool_proj -> inception_4e/pool_proj (in-place)
I0220 20:02:55.241297   138 net.cpp:144] Setting up inception_4e/relu_pool_proj
I0220 20:02:55.241303   138 net.cpp:151] Top shape: 16 128 14 14 (401408)
I0220 20:02:55.241309   138 net.cpp:159] Memory required for data: 837916240
I0220 20:02:55.241314   138 layer_factory.hpp:77] Creating layer inception_4e/output
I0220 20:02:55.241328   138 net.cpp:94] Creating Layer inception_4e/output
I0220 20:02:55.241333   138 net.cpp:435] inception_4e/output <- inception_4e/1x1
I0220 20:02:55.241341   138 net.cpp:435] inception_4e/output <- inception_4e/3x3
I0220 20:02:55.241348   138 net.cpp:435] inception_4e/output <- inception_4e/5x5
I0220 20:02:55.241355   138 net.cpp:435] inception_4e/output <- inception_4e/pool_proj
I0220 20:02:55.241364   138 net.cpp:409] inception_4e/output -> inception_4e/output
I0220 20:02:55.241407   138 net.cpp:144] Setting up inception_4e/output
I0220 20:02:55.241417   138 net.cpp:151] Top shape: 16 832 14 14 (2609152)
I0220 20:02:55.241423   138 net.cpp:159] Memory required for data: 848352848
I0220 20:02:55.241430   138 layer_factory.hpp:77] Creating layer pool4/3x3_s2
I0220 20:02:55.241438   138 net.cpp:94] Creating Layer pool4/3x3_s2
I0220 20:02:55.241444   138 net.cpp:435] pool4/3x3_s2 <- inception_4e/output
I0220 20:02:55.241456   138 net.cpp:409] pool4/3x3_s2 -> pool4/3x3_s2
I0220 20:02:55.241520   138 net.cpp:144] Setting up pool4/3x3_s2
I0220 20:02:55.241530   138 net.cpp:151] Top shape: 16 832 7 7 (652288)
I0220 20:02:55.241535   138 net.cpp:159] Memory required for data: 850962000
I0220 20:02:55.241542   138 layer_factory.hpp:77] Creating layer pool4/3x3_s2_pool4/3x3_s2_0_split
I0220 20:02:55.241551   138 net.cpp:94] Creating Layer pool4/3x3_s2_pool4/3x3_s2_0_split
I0220 20:02:55.241557   138 net.cpp:435] pool4/3x3_s2_pool4/3x3_s2_0_split <- pool4/3x3_s2
I0220 20:02:55.241569   138 net.cpp:409] pool4/3x3_s2_pool4/3x3_s2_0_split -> pool4/3x3_s2_pool4/3x3_s2_0_split_0
I0220 20:02:55.241580   138 net.cpp:409] pool4/3x3_s2_pool4/3x3_s2_0_split -> pool4/3x3_s2_pool4/3x3_s2_0_split_1
I0220 20:02:55.241588   138 net.cpp:409] pool4/3x3_s2_pool4/3x3_s2_0_split -> pool4/3x3_s2_pool4/3x3_s2_0_split_2
I0220 20:02:55.241602   138 net.cpp:409] pool4/3x3_s2_pool4/3x3_s2_0_split -> pool4/3x3_s2_pool4/3x3_s2_0_split_3
I0220 20:02:55.241675   138 net.cpp:144] Setting up pool4/3x3_s2_pool4/3x3_s2_0_split
I0220 20:02:55.241684   138 net.cpp:151] Top shape: 16 832 7 7 (652288)
I0220 20:02:55.241691   138 net.cpp:151] Top shape: 16 832 7 7 (652288)
I0220 20:02:55.241698   138 net.cpp:151] Top shape: 16 832 7 7 (652288)
I0220 20:02:55.241705   138 net.cpp:151] Top shape: 16 832 7 7 (652288)
I0220 20:02:55.241710   138 net.cpp:159] Memory required for data: 861398608
I0220 20:02:55.241716   138 layer_factory.hpp:77] Creating layer inception_5a/1x1
I0220 20:02:55.241731   138 net.cpp:94] Creating Layer inception_5a/1x1
I0220 20:02:55.241739   138 net.cpp:435] inception_5a/1x1 <- pool4/3x3_s2_pool4/3x3_s2_0_split_0
I0220 20:02:55.241750   138 net.cpp:409] inception_5a/1x1 -> inception_5a/1x1
I0220 20:02:55.243978   138 net.cpp:144] Setting up inception_5a/1x1
I0220 20:02:55.243994   138 net.cpp:151] Top shape: 16 256 7 7 (200704)
I0220 20:02:55.244000   138 net.cpp:159] Memory required for data: 862201424
I0220 20:02:55.244009   138 layer_factory.hpp:77] Creating layer inception_5a/relu_1x1
I0220 20:02:55.244019   138 net.cpp:94] Creating Layer inception_5a/relu_1x1
I0220 20:02:55.244026   138 net.cpp:435] inception_5a/relu_1x1 <- inception_5a/1x1
I0220 20:02:55.244035   138 net.cpp:396] inception_5a/relu_1x1 -> inception_5a/1x1 (in-place)
I0220 20:02:55.244050   138 net.cpp:144] Setting up inception_5a/relu_1x1
I0220 20:02:55.244056   138 net.cpp:151] Top shape: 16 256 7 7 (200704)
I0220 20:02:55.244062   138 net.cpp:159] Memory required for data: 863004240
I0220 20:02:55.244068   138 layer_factory.hpp:77] Creating layer inception_5a/3x3_reduce
I0220 20:02:55.244082   138 net.cpp:94] Creating Layer inception_5a/3x3_reduce
I0220 20:02:55.244089   138 net.cpp:435] inception_5a/3x3_reduce <- pool4/3x3_s2_pool4/3x3_s2_0_split_1
I0220 20:02:55.244099   138 net.cpp:409] inception_5a/3x3_reduce -> inception_5a/3x3_reduce
I0220 20:02:55.245952   138 net.cpp:144] Setting up inception_5a/3x3_reduce
I0220 20:02:55.245968   138 net.cpp:151] Top shape: 16 160 7 7 (125440)
I0220 20:02:55.245975   138 net.cpp:159] Memory required for data: 863506000
I0220 20:02:55.245985   138 layer_factory.hpp:77] Creating layer inception_5a/relu_3x3_reduce
I0220 20:02:55.245996   138 net.cpp:94] Creating Layer inception_5a/relu_3x3_reduce
I0220 20:02:55.246004   138 net.cpp:435] inception_5a/relu_3x3_reduce <- inception_5a/3x3_reduce
I0220 20:02:55.246013   138 net.cpp:396] inception_5a/relu_3x3_reduce -> inception_5a/3x3_reduce (in-place)
I0220 20:02:55.246024   138 net.cpp:144] Setting up inception_5a/relu_3x3_reduce
I0220 20:02:55.246032   138 net.cpp:151] Top shape: 16 160 7 7 (125440)
I0220 20:02:55.246037   138 net.cpp:159] Memory required for data: 864007760
I0220 20:02:55.246043   138 layer_factory.hpp:77] Creating layer inception_5a/3x3
I0220 20:02:55.246063   138 net.cpp:94] Creating Layer inception_5a/3x3
I0220 20:02:55.246070   138 net.cpp:435] inception_5a/3x3 <- inception_5a/3x3_reduce
I0220 20:02:55.246083   138 net.cpp:409] inception_5a/3x3 -> inception_5a/3x3
I0220 20:02:55.250164   138 net.cpp:144] Setting up inception_5a/3x3
I0220 20:02:55.250195   138 net.cpp:151] Top shape: 16 320 7 7 (250880)
I0220 20:02:55.250201   138 net.cpp:159] Memory required for data: 865011280
I0220 20:02:55.250211   138 layer_factory.hpp:77] Creating layer inception_5a/relu_3x3
I0220 20:02:55.250221   138 net.cpp:94] Creating Layer inception_5a/relu_3x3
I0220 20:02:55.250227   138 net.cpp:435] inception_5a/relu_3x3 <- inception_5a/3x3
I0220 20:02:55.250239   138 net.cpp:396] inception_5a/relu_3x3 -> inception_5a/3x3 (in-place)
I0220 20:02:55.250252   138 net.cpp:144] Setting up inception_5a/relu_3x3
I0220 20:02:55.250259   138 net.cpp:151] Top shape: 16 320 7 7 (250880)
I0220 20:02:55.250265   138 net.cpp:159] Memory required for data: 866014800
I0220 20:02:55.250272   138 layer_factory.hpp:77] Creating layer inception_5a/5x5_reduce
I0220 20:02:55.250285   138 net.cpp:94] Creating Layer inception_5a/5x5_reduce
I0220 20:02:55.250293   138 net.cpp:435] inception_5a/5x5_reduce <- pool4/3x3_s2_pool4/3x3_s2_0_split_2
I0220 20:02:55.250303   138 net.cpp:409] inception_5a/5x5_reduce -> inception_5a/5x5_reduce
I0220 20:02:55.251449   138 net.cpp:144] Setting up inception_5a/5x5_reduce
I0220 20:02:55.251466   138 net.cpp:151] Top shape: 16 32 7 7 (25088)
I0220 20:02:55.251471   138 net.cpp:159] Memory required for data: 866115152
I0220 20:02:55.251480   138 layer_factory.hpp:77] Creating layer inception_5a/relu_5x5_reduce
I0220 20:02:55.251502   138 net.cpp:94] Creating Layer inception_5a/relu_5x5_reduce
I0220 20:02:55.251510   138 net.cpp:435] inception_5a/relu_5x5_reduce <- inception_5a/5x5_reduce
I0220 20:02:55.251519   138 net.cpp:396] inception_5a/relu_5x5_reduce -> inception_5a/5x5_reduce (in-place)
I0220 20:02:55.251539   138 net.cpp:144] Setting up inception_5a/relu_5x5_reduce
I0220 20:02:55.251550   138 net.cpp:151] Top shape: 16 32 7 7 (25088)
I0220 20:02:55.251556   138 net.cpp:159] Memory required for data: 866215504
I0220 20:02:55.251562   138 layer_factory.hpp:77] Creating layer inception_5a/5x5
I0220 20:02:55.251574   138 net.cpp:94] Creating Layer inception_5a/5x5
I0220 20:02:55.251580   138 net.cpp:435] inception_5a/5x5 <- inception_5a/5x5_reduce
I0220 20:02:55.251591   138 net.cpp:409] inception_5a/5x5 -> inception_5a/5x5
I0220 20:02:55.252496   138 net.cpp:144] Setting up inception_5a/5x5
I0220 20:02:55.252508   138 net.cpp:151] Top shape: 16 128 7 7 (100352)
I0220 20:02:55.252513   138 net.cpp:159] Memory required for data: 866616912
I0220 20:02:55.252522   138 layer_factory.hpp:77] Creating layer inception_5a/relu_5x5
I0220 20:02:55.252532   138 net.cpp:94] Creating Layer inception_5a/relu_5x5
I0220 20:02:55.252538   138 net.cpp:435] inception_5a/relu_5x5 <- inception_5a/5x5
I0220 20:02:55.252547   138 net.cpp:396] inception_5a/relu_5x5 -> inception_5a/5x5 (in-place)
I0220 20:02:55.252560   138 net.cpp:144] Setting up inception_5a/relu_5x5
I0220 20:02:55.252568   138 net.cpp:151] Top shape: 16 128 7 7 (100352)
I0220 20:02:55.252574   138 net.cpp:159] Memory required for data: 867018320
I0220 20:02:55.252580   138 layer_factory.hpp:77] Creating layer inception_5a/pool
I0220 20:02:55.252588   138 net.cpp:94] Creating Layer inception_5a/pool
I0220 20:02:55.252595   138 net.cpp:435] inception_5a/pool <- pool4/3x3_s2_pool4/3x3_s2_0_split_3
I0220 20:02:55.252604   138 net.cpp:409] inception_5a/pool -> inception_5a/pool
I0220 20:02:55.252691   138 net.cpp:144] Setting up inception_5a/pool
I0220 20:02:55.252701   138 net.cpp:151] Top shape: 16 832 7 7 (652288)
I0220 20:02:55.252707   138 net.cpp:159] Memory required for data: 869627472
I0220 20:02:55.252713   138 layer_factory.hpp:77] Creating layer inception_5a/pool_proj
I0220 20:02:55.252724   138 net.cpp:94] Creating Layer inception_5a/pool_proj
I0220 20:02:55.252730   138 net.cpp:435] inception_5a/pool_proj <- inception_5a/pool
I0220 20:02:55.252740   138 net.cpp:409] inception_5a/pool_proj -> inception_5a/pool_proj
I0220 20:02:55.254410   138 net.cpp:144] Setting up inception_5a/pool_proj
I0220 20:02:55.254426   138 net.cpp:151] Top shape: 16 128 7 7 (100352)
I0220 20:02:55.254432   138 net.cpp:159] Memory required for data: 870028880
I0220 20:02:55.254456   138 layer_factory.hpp:77] Creating layer inception_5a/relu_pool_proj
I0220 20:02:55.254467   138 net.cpp:94] Creating Layer inception_5a/relu_pool_proj
I0220 20:02:55.254473   138 net.cpp:435] inception_5a/relu_pool_proj <- inception_5a/pool_proj
I0220 20:02:55.254485   138 net.cpp:396] inception_5a/relu_pool_proj -> inception_5a/pool_proj (in-place)
I0220 20:02:55.254498   138 net.cpp:144] Setting up inception_5a/relu_pool_proj
I0220 20:02:55.254505   138 net.cpp:151] Top shape: 16 128 7 7 (100352)
I0220 20:02:55.254513   138 net.cpp:159] Memory required for data: 870430288
I0220 20:02:55.254518   138 layer_factory.hpp:77] Creating layer inception_5a/output
I0220 20:02:55.254528   138 net.cpp:94] Creating Layer inception_5a/output
I0220 20:02:55.254534   138 net.cpp:435] inception_5a/output <- inception_5a/1x1
I0220 20:02:55.254541   138 net.cpp:435] inception_5a/output <- inception_5a/3x3
I0220 20:02:55.254549   138 net.cpp:435] inception_5a/output <- inception_5a/5x5
I0220 20:02:55.254556   138 net.cpp:435] inception_5a/output <- inception_5a/pool_proj
I0220 20:02:55.254568   138 net.cpp:409] inception_5a/output -> inception_5a/output
I0220 20:02:55.254602   138 net.cpp:144] Setting up inception_5a/output
I0220 20:02:55.254612   138 net.cpp:151] Top shape: 16 832 7 7 (652288)
I0220 20:02:55.254618   138 net.cpp:159] Memory required for data: 873039440
I0220 20:02:55.254633   138 layer_factory.hpp:77] Creating layer inception_5a/output_inception_5a/output_0_split
I0220 20:02:55.254645   138 net.cpp:94] Creating Layer inception_5a/output_inception_5a/output_0_split
I0220 20:02:55.254659   138 net.cpp:435] inception_5a/output_inception_5a/output_0_split <- inception_5a/output
I0220 20:02:55.254671   138 net.cpp:409] inception_5a/output_inception_5a/output_0_split -> inception_5a/output_inception_5a/output_0_split_0
I0220 20:02:55.254681   138 net.cpp:409] inception_5a/output_inception_5a/output_0_split -> inception_5a/output_inception_5a/output_0_split_1
I0220 20:02:55.254691   138 net.cpp:409] inception_5a/output_inception_5a/output_0_split -> inception_5a/output_inception_5a/output_0_split_2
I0220 20:02:55.254705   138 net.cpp:409] inception_5a/output_inception_5a/output_0_split -> inception_5a/output_inception_5a/output_0_split_3
I0220 20:02:55.254801   138 net.cpp:144] Setting up inception_5a/output_inception_5a/output_0_split
I0220 20:02:55.254812   138 net.cpp:151] Top shape: 16 832 7 7 (652288)
I0220 20:02:55.254823   138 net.cpp:151] Top shape: 16 832 7 7 (652288)
I0220 20:02:55.254829   138 net.cpp:151] Top shape: 16 832 7 7 (652288)
I0220 20:02:55.254837   138 net.cpp:151] Top shape: 16 832 7 7 (652288)
I0220 20:02:55.254842   138 net.cpp:159] Memory required for data: 883476048
I0220 20:02:55.254848   138 layer_factory.hpp:77] Creating layer inception_5b/1x1
I0220 20:02:55.254863   138 net.cpp:94] Creating Layer inception_5b/1x1
I0220 20:02:55.254870   138 net.cpp:435] inception_5b/1x1 <- inception_5a/output_inception_5a/output_0_split_0
I0220 20:02:55.254882   138 net.cpp:409] inception_5b/1x1 -> inception_5b/1x1
I0220 20:02:55.257899   138 net.cpp:144] Setting up inception_5b/1x1
I0220 20:02:55.257915   138 net.cpp:151] Top shape: 16 384 7 7 (301056)
I0220 20:02:55.257922   138 net.cpp:159] Memory required for data: 884680272
I0220 20:02:55.257931   138 layer_factory.hpp:77] Creating layer inception_5b/relu_1x1
I0220 20:02:55.257941   138 net.cpp:94] Creating Layer inception_5b/relu_1x1
I0220 20:02:55.257948   138 net.cpp:435] inception_5b/relu_1x1 <- inception_5b/1x1
I0220 20:02:55.257961   138 net.cpp:396] inception_5b/relu_1x1 -> inception_5b/1x1 (in-place)
I0220 20:02:55.257973   138 net.cpp:144] Setting up inception_5b/relu_1x1
I0220 20:02:55.257980   138 net.cpp:151] Top shape: 16 384 7 7 (301056)
I0220 20:02:55.257987   138 net.cpp:159] Memory required for data: 885884496
I0220 20:02:55.257992   138 layer_factory.hpp:77] Creating layer inception_5b/3x3_reduce
I0220 20:02:55.258008   138 net.cpp:94] Creating Layer inception_5b/3x3_reduce
I0220 20:02:55.258029   138 net.cpp:435] inception_5b/3x3_reduce <- inception_5a/output_inception_5a/output_0_split_1
I0220 20:02:55.258042   138 net.cpp:409] inception_5b/3x3_reduce -> inception_5b/3x3_reduce
I0220 20:02:55.259966   138 net.cpp:144] Setting up inception_5b/3x3_reduce
I0220 20:02:55.259981   138 net.cpp:151] Top shape: 16 192 7 7 (150528)
I0220 20:02:55.259987   138 net.cpp:159] Memory required for data: 886486608
I0220 20:02:55.259997   138 layer_factory.hpp:77] Creating layer inception_5b/relu_3x3_reduce
I0220 20:02:55.260010   138 net.cpp:94] Creating Layer inception_5b/relu_3x3_reduce
I0220 20:02:55.260017   138 net.cpp:435] inception_5b/relu_3x3_reduce <- inception_5b/3x3_reduce
I0220 20:02:55.260026   138 net.cpp:396] inception_5b/relu_3x3_reduce -> inception_5b/3x3_reduce (in-place)
I0220 20:02:55.260037   138 net.cpp:144] Setting up inception_5b/relu_3x3_reduce
I0220 20:02:55.260058   138 net.cpp:151] Top shape: 16 192 7 7 (150528)
I0220 20:02:55.260066   138 net.cpp:159] Memory required for data: 887088720
I0220 20:02:55.260071   138 layer_factory.hpp:77] Creating layer inception_5b/3x3
I0220 20:02:55.260083   138 net.cpp:94] Creating Layer inception_5b/3x3
I0220 20:02:55.260090   138 net.cpp:435] inception_5b/3x3 <- inception_5b/3x3_reduce
I0220 20:02:55.260102   138 net.cpp:409] inception_5b/3x3 -> inception_5b/3x3
I0220 20:02:55.265887   138 net.cpp:144] Setting up inception_5b/3x3
I0220 20:02:55.265904   138 net.cpp:151] Top shape: 16 384 7 7 (301056)
I0220 20:02:55.265911   138 net.cpp:159] Memory required for data: 888292944
I0220 20:02:55.265920   138 layer_factory.hpp:77] Creating layer inception_5b/relu_3x3
I0220 20:02:55.265931   138 net.cpp:94] Creating Layer inception_5b/relu_3x3
I0220 20:02:55.265938   138 net.cpp:435] inception_5b/relu_3x3 <- inception_5b/3x3
I0220 20:02:55.265946   138 net.cpp:396] inception_5b/relu_3x3 -> inception_5b/3x3 (in-place)
I0220 20:02:55.265962   138 net.cpp:144] Setting up inception_5b/relu_3x3
I0220 20:02:55.265970   138 net.cpp:151] Top shape: 16 384 7 7 (301056)
I0220 20:02:55.265976   138 net.cpp:159] Memory required for data: 889497168
I0220 20:02:55.265982   138 layer_factory.hpp:77] Creating layer inception_5b/5x5_reduce
I0220 20:02:55.265997   138 net.cpp:94] Creating Layer inception_5b/5x5_reduce
I0220 20:02:55.266005   138 net.cpp:435] inception_5b/5x5_reduce <- inception_5a/output_inception_5a/output_0_split_2
I0220 20:02:55.266013   138 net.cpp:409] inception_5b/5x5_reduce -> inception_5b/5x5_reduce
I0220 20:02:55.266562   138 net.cpp:144] Setting up inception_5b/5x5_reduce
I0220 20:02:55.266574   138 net.cpp:151] Top shape: 16 48 7 7 (37632)
I0220 20:02:55.266580   138 net.cpp:159] Memory required for data: 889647696
I0220 20:02:55.266589   138 layer_factory.hpp:77] Creating layer inception_5b/relu_5x5_reduce
I0220 20:02:55.266598   138 net.cpp:94] Creating Layer inception_5b/relu_5x5_reduce
I0220 20:02:55.266605   138 net.cpp:435] inception_5b/relu_5x5_reduce <- inception_5b/5x5_reduce
I0220 20:02:55.266616   138 net.cpp:396] inception_5b/relu_5x5_reduce -> inception_5b/5x5_reduce (in-place)
I0220 20:02:55.266626   138 net.cpp:144] Setting up inception_5b/relu_5x5_reduce
I0220 20:02:55.266634   138 net.cpp:151] Top shape: 16 48 7 7 (37632)
I0220 20:02:55.266640   138 net.cpp:159] Memory required for data: 889798224
I0220 20:02:55.266646   138 layer_factory.hpp:77] Creating layer inception_5b/5x5
I0220 20:02:55.266660   138 net.cpp:94] Creating Layer inception_5b/5x5
I0220 20:02:55.266667   138 net.cpp:435] inception_5b/5x5 <- inception_5b/5x5_reduce
I0220 20:02:55.266680   138 net.cpp:409] inception_5b/5x5 -> inception_5b/5x5
I0220 20:02:55.267920   138 net.cpp:144] Setting up inception_5b/5x5
I0220 20:02:55.267931   138 net.cpp:151] Top shape: 16 128 7 7 (100352)
I0220 20:02:55.267937   138 net.cpp:159] Memory required for data: 890199632
I0220 20:02:55.267946   138 layer_factory.hpp:77] Creating layer inception_5b/relu_5x5
I0220 20:02:55.267957   138 net.cpp:94] Creating Layer inception_5b/relu_5x5
I0220 20:02:55.267964   138 net.cpp:435] inception_5b/relu_5x5 <- inception_5b/5x5
I0220 20:02:55.267987   138 net.cpp:396] inception_5b/relu_5x5 -> inception_5b/5x5 (in-place)
I0220 20:02:55.267998   138 net.cpp:144] Setting up inception_5b/relu_5x5
I0220 20:02:55.268007   138 net.cpp:151] Top shape: 16 128 7 7 (100352)
I0220 20:02:55.268012   138 net.cpp:159] Memory required for data: 890601040
I0220 20:02:55.268018   138 layer_factory.hpp:77] Creating layer inception_5b/pool
I0220 20:02:55.268031   138 net.cpp:94] Creating Layer inception_5b/pool
I0220 20:02:55.268038   138 net.cpp:435] inception_5b/pool <- inception_5a/output_inception_5a/output_0_split_3
I0220 20:02:55.268048   138 net.cpp:409] inception_5b/pool -> inception_5b/pool
I0220 20:02:55.268116   138 net.cpp:144] Setting up inception_5b/pool
I0220 20:02:55.268126   138 net.cpp:151] Top shape: 16 832 7 7 (652288)
I0220 20:02:55.268131   138 net.cpp:159] Memory required for data: 893210192
I0220 20:02:55.268138   138 layer_factory.hpp:77] Creating layer inception_5b/pool_proj
I0220 20:02:55.268151   138 net.cpp:94] Creating Layer inception_5b/pool_proj
I0220 20:02:55.268159   138 net.cpp:435] inception_5b/pool_proj <- inception_5b/pool
I0220 20:02:55.268170   138 net.cpp:409] inception_5b/pool_proj -> inception_5b/pool_proj
I0220 20:02:55.270011   138 net.cpp:144] Setting up inception_5b/pool_proj
I0220 20:02:55.270027   138 net.cpp:151] Top shape: 16 128 7 7 (100352)
I0220 20:02:55.270033   138 net.cpp:159] Memory required for data: 893611600
I0220 20:02:55.270043   138 layer_factory.hpp:77] Creating layer inception_5b/relu_pool_proj
I0220 20:02:55.270053   138 net.cpp:94] Creating Layer inception_5b/relu_pool_proj
I0220 20:02:55.270061   138 net.cpp:435] inception_5b/relu_pool_proj <- inception_5b/pool_proj
I0220 20:02:55.270072   138 net.cpp:396] inception_5b/relu_pool_proj -> inception_5b/pool_proj (in-place)
I0220 20:02:55.270085   138 net.cpp:144] Setting up inception_5b/relu_pool_proj
I0220 20:02:55.270092   138 net.cpp:151] Top shape: 16 128 7 7 (100352)
I0220 20:02:55.270098   138 net.cpp:159] Memory required for data: 894013008
I0220 20:02:55.270104   138 layer_factory.hpp:77] Creating layer inception_5b/output
I0220 20:02:55.270113   138 net.cpp:94] Creating Layer inception_5b/output
I0220 20:02:55.270119   138 net.cpp:435] inception_5b/output <- inception_5b/1x1
I0220 20:02:55.270128   138 net.cpp:435] inception_5b/output <- inception_5b/3x3
I0220 20:02:55.270134   138 net.cpp:435] inception_5b/output <- inception_5b/5x5
I0220 20:02:55.270141   138 net.cpp:435] inception_5b/output <- inception_5b/pool_proj
I0220 20:02:55.270150   138 net.cpp:409] inception_5b/output -> inception_5b/output
I0220 20:02:55.270187   138 net.cpp:144] Setting up inception_5b/output
I0220 20:02:55.270197   138 net.cpp:151] Top shape: 16 1024 7 7 (802816)
I0220 20:02:55.270202   138 net.cpp:159] Memory required for data: 897224272
I0220 20:02:55.270208   138 layer_factory.hpp:77] Creating layer pool5/7x7_s1
I0220 20:02:55.270220   138 net.cpp:94] Creating Layer pool5/7x7_s1
I0220 20:02:55.270227   138 net.cpp:435] pool5/7x7_s1 <- inception_5b/output
I0220 20:02:55.270236   138 net.cpp:409] pool5/7x7_s1 -> pool5/7x7_s1
I0220 20:02:55.270272   138 net.cpp:144] Setting up pool5/7x7_s1
I0220 20:02:55.270282   138 net.cpp:151] Top shape: 16 1024 1 1 (16384)
I0220 20:02:55.270287   138 net.cpp:159] Memory required for data: 897289808
I0220 20:02:55.270293   138 layer_factory.hpp:77] Creating layer pool5/drop_7x7_s1
I0220 20:02:55.270308   138 net.cpp:94] Creating Layer pool5/drop_7x7_s1
I0220 20:02:55.270314   138 net.cpp:435] pool5/drop_7x7_s1 <- pool5/7x7_s1
I0220 20:02:55.270323   138 net.cpp:396] pool5/drop_7x7_s1 -> pool5/7x7_s1 (in-place)
I0220 20:02:55.270354   138 net.cpp:144] Setting up pool5/drop_7x7_s1
I0220 20:02:55.270364   138 net.cpp:151] Top shape: 16 1024 1 1 (16384)
I0220 20:02:55.270370   138 net.cpp:159] Memory required for data: 897355344
I0220 20:02:55.270375   138 layer_factory.hpp:77] Creating layer loss3/classifier
I0220 20:02:55.270386   138 net.cpp:94] Creating Layer loss3/classifier
I0220 20:02:55.270406   138 net.cpp:435] loss3/classifier <- pool5/7x7_s1
I0220 20:02:55.270431   138 net.cpp:409] loss3/classifier -> loss3/classifier
I0220 20:02:55.270617   138 net.cpp:144] Setting up loss3/classifier
I0220 20:02:55.270625   138 net.cpp:151] Top shape: 16 3 (48)
I0220 20:02:55.270632   138 net.cpp:159] Memory required for data: 897355536
I0220 20:02:55.270640   138 layer_factory.hpp:77] Creating layer loss3/classifier_loss3/classifier_0_split
I0220 20:02:55.270650   138 net.cpp:94] Creating Layer loss3/classifier_loss3/classifier_0_split
I0220 20:02:55.270658   138 net.cpp:435] loss3/classifier_loss3/classifier_0_split <- loss3/classifier
I0220 20:02:55.270668   138 net.cpp:409] loss3/classifier_loss3/classifier_0_split -> loss3/classifier_loss3/classifier_0_split_0
I0220 20:02:55.270679   138 net.cpp:409] loss3/classifier_loss3/classifier_0_split -> loss3/classifier_loss3/classifier_0_split_1
I0220 20:02:55.270730   138 net.cpp:144] Setting up loss3/classifier_loss3/classifier_0_split
I0220 20:02:55.270740   138 net.cpp:151] Top shape: 16 3 (48)
I0220 20:02:55.270745   138 net.cpp:151] Top shape: 16 3 (48)
I0220 20:02:55.270751   138 net.cpp:159] Memory required for data: 897355920
I0220 20:02:55.270757   138 layer_factory.hpp:77] Creating layer loss3/loss
I0220 20:02:55.270767   138 net.cpp:94] Creating Layer loss3/loss
I0220 20:02:55.270788   138 net.cpp:435] loss3/loss <- loss3/classifier_loss3/classifier_0_split_0
I0220 20:02:55.270797   138 net.cpp:435] loss3/loss <- label_val-data_1_split_4
…
